Data/Torch models/Model Records/P2_20240716_L_channel3_fold4_round1.pt (torch, 10967 bytes, 5 tensors)

weight f4 [18, 4]
000000 e0 b5 b7 be 41 ec 92 3d 05 09 6e be 07 8c 16 3d
       -0.35880947 0.07173968 -0.23245628 0.036754634
000010 1e c3 b9 be 36 48 fe be 78 6f 5a 3e 4c b4 29 3e
       -0.36281675 -0.49664468 0.21331584 0.16572684
000020 41 4f 35 3f a9 4a 39 3f a2 8e a0 be 2f 09 81 bf
       0.70824057 0.7237955 -0.3135882 -1.0080928
000030 7d 08 c5 3d 21 84 ae 3f 27 42 c5 3f bf 81 6f 3e
       0.0962076 1.3634073 1.5410813 0.23389338
000040 0b 0f b4 3e ab dc f9 3e d9 e4 37 3f 08 08 a3 3e
       0.35167727 0.4880117 0.7183357 0.31842065
000050 ff a1 9e be b6 9f 6e 3f 38 33 e0 3d 34 e5 9a 3e
       -0.30982968 0.9321245 0.10947269 0.30252993
000060 8c 0d 22 be 1e f9 8b be f8 9f 5f be 94 87 81 3e
       -0.1582548 -0.273385 -0.21838367 0.2529875
000070 00 27 12 3f 5d 75 2d 3f 49 3c 31 bf 13 67 f8 3e
       0.5709076 0.6775721 -0.6923261 0.4851614
000080 c8 42 57 3f 6b 68 9c 3f aa dd 5d 3f 45 ff 59 bc
       0.84086275 1.2219366 0.8666636 -0.01330549
000090 4c 28 e2 3f ac a5 ae 3e 9f d2 70 3c ae 04 fc 3e
       1.7668548 0.34110773 0.0146986535 0.4922232
0000a0 b5 55 10 3f 13 0a 37 bf 28 c7 4a 3f 06 79 0b 3f
       0.5638078 -0.7149975 0.7921014 0.5448154
0000b0 8c 71 86 3f ef 27 97 bf 1c 11 06 bf 26 74 6e 3e
       1.0503402 -1.1809062 -0.52369857 0.23286495
0000c0 9c d1 58 3e 9c ef be be 2c 13 31 3e 24 92 5d 3e
       0.2117371 -0.37292182 0.1729247 0.2163778
0000d0 62 90 86 bf db 53 39 be 9f e3 22 3e 58 b3 d2 3e
       -1.0512812 -0.18098395 0.15907143 0.41152453
0000e0 65 95 50 3f eb 23 23 3e a8 9a d1 be e4 46 95 bf
       0.8147796 0.1593167 -0.40938306 -1.1662259
0000f0 ee 1a 64 3f 8a 77 9d 3f 62 fb 40 bf 3d 13 18 3f
       0.8910359 1.2302105 -0.7538358 0.59404355
000100 d3 f8 64 3f 93 9c 21 be d4 78 6d 3f fa 20 07 3f
       0.89442176 -0.15782385 0.92762494 0.52784693
000110 91 bb 24 bf b2 4d 84 bd 19 73 b8 3e 9e 55 81 bf
       -0.64348704 -0.06460132 0.36025313 -1.0104253

bias f4 [18]
000000 3b f8 92 3e ee 96 d7 be f3 d7 e1 bd ca 36 6e bf
       0.2870501 -0.42107338 -0.11027517 -0.9305235
000010 fe e2 e7 3e 81 d8 ab 3e 78 02 65 be fb d4 e9 be
       0.4529037 0.33563617 -0.22364223 -0.45670304
000020 a0 3c 4f 36 98 a0 f1 37 05 dc b2 bc c2 46 ba 3e
       3.0880692e-06 2.8804221e-05 -0.02183343 0.3638211
000030 52 98 f9 be 07 ba 9d 3f 98 05 1a 3f 08 f4 f5 37
       -0.48749024 1.2322396 0.60164785 2.9319912e-05
000040 8e d8 cc 3e c1 e8 ad 3f
       0.40008968 1.3586656

weight f4 [6, 324]
000000 83 5a ed bc 32 4e 4c bd 2a d9 a0 be 17 89 38 bd
       -0.028973823 -0.04987926 -0.31415683 -0.045052614
000010 da 17 ff 3d e3 9f eb bd 81 1e 44 3d 2d 5f 57 be
       0.12455721 -0.11505105 0.047880653 -0.210324
000020 35 64 1a be 02 6a 65 bd 17 d7 51 3e 98 1e 0f 3e
       -0.15077288 -0.0560093 0.20492207 0.13976514
000030 bd f6 53 bd 27 56 7e 3e 44 1a 1e be ea c8 99 be
       -0.05174898 0.24837552 -0.15439707 -0.30036098
000040 c8 11 9a 3e 06 b6 91 3d 6d a5 2b 3c 81 01 1a 3d
       0.3009169 0.07114796 0.010476452 0.03759909
000050 b6 c2 9a bd f0 87 65 be 70 ce 46 3d ee 3e b9 bb
       -0.075566694 -0.22415137 0.048536718 -0.0056532538
000060 f7 e4 0a bd 3f ba 84 bd ff da eb bd 1c 14 8b 3d
       -0.033909764 -0.06480836 -0.115163796 0.06790945
000070 43 a5 08 bd 5d 04 24 3d a0 29 e0 bb e9 01 10 3e
       -0.03336073 0.040043224 -0.0068408996 0.14063229
000080 61 84 89 3d 64 c5 a3 39 b7 dc 25 3d 00 77 ff 3c
       0.067147024 0.0003123685 0.040493693 0.031184673
000090 ba dd 81 bd 4b 73 14 3d 93 1e 32 bd c4 26 a1 be
       -0.06341119 0.036242764 -0.04348619 -0.31474888
0000a0 a1 09 80 3d d1 2b 37 be c3 9e 28 3d 10 f3 0b be
       0.062518366 -0.17887808 0.041167032 -0.1366694
0000b0 ae 07 ea bd 4c d4 c0 3e 32 a8 fa 3d 52 6d 0e 3f
       -0.11427246 0.3766197 0.12239112 0.5563556
0000c0 ee 3a dc 3c 4d eb e9 bd a0 75 97 3e e4 78 80 bd
       0.026883569 -0.11421833 0.29581928 -0.06273058
0000d0 6d 63 b3 3e 2f a1 5e 3d c6 b8 c0 bc 9a 01 bf 3c
       0.35036793 0.054352935 -0.023525607 0.023316193
0000e0 bb 4f 70 3e 51 f4 87 3e 70 1e 57 3e 88 eb 8b 3c
       0.23467915 0.26553586 0.21007705 0.017080083
0000f0 fc 10 26 bd d3 fd 37 be 47 41 8d 3e d0 9b d7 3c
       -0.04054354 -0.1796792 0.27588865 0.026319414
000100 73 34 98 bd 87 89 3c be 15 83 cc bc 67 92 fa 3c
       -0.07431879 -0.18411838 -0.024964849 0.030587388
000110 a9 59 a0 3e 10 d0 6b be 9d ff 06 3e b2 1a cd 3e
       0.31318405 -0.23028588 0.13183446 0.4005943
000120 5c ba d5 3d e7 19 16 bd 83 6c 1d 3b e7 bd f6 3e
       0.10435936 -0.036645796 0.0024020977 0.4819176
000130 88 87 9c 3e b4 ee 8c 3e 20 5b e5 3a 9e f2 0e be
       0.30572152 0.27525866 0.0017498471 -0.13959739
000140 e9 91 bd 3e c7 5c 75 be c8 26 fb ba 53 59 df be
       0.37025383 -0.23961173 -0.0019161338 -0.43622836
000150 a4 c9 17 bd 9c d5 7e 3e bc 56 00 be 50 6f 8d bd
       -0.037057534 0.24886173 -0.12533087 -0.06905997
000160 97 3a cd 3d cc 18 99 3e 9d 0f 26 3e 8e 89 57 bd
       0.10020941 0.2990173 0.16216893 -0.052621417
000170 7f f7 27 be 5f 99 27 be fc 0e 0d be 7b 19 35 3b
       -0.16403006 -0.163671 -0.13775247 0.0027633596
000180 0f 36 5d 3d fd 97 15 be 91 13 a5 be 27 2a 10 bf
       0.054006632 -0.1460876 -0.3224149 -0.5631432
000190 a6 3b 0b be 9e 9d d9 bd b7 04 3b 3d df e9 f6 3e
       -0.13596973 -0.10625766 0.045658793 0.48225304
0001a0 14 4e 5d bd 8a 8e d7 be dd b6 3d be 3f 46 e1 3e
       -0.05402954 -0.42100936 -0.18526788 0.43998906
0001b0 cb f3 0d 3e 6c 80 46 3c f7 e2 32 be 48 b3 a5 bc
       0.13862531 0.012115579 -0.17469393 -0.02022709
0001c0 c0 9a 42 3e 2b 29 ad 3e 9c bf 46 bd c3 60 4b 3e
       0.19004345 0.3382047 -0.048522577 0.1986113
0001d0 2b ce 1f 3e 9b f5 69 bd e8 e3 c6 bd df d8 c0 be
       0.1560599 -0.057118993 -0.097114384 -0.3766546
0001e0 e6 9d 39 bd dd 5b 8a 3e 27 84 99 be a9 f3 c5 3e
       -0.0453166 0.2702321 -0.29983637 0.3866246
0001f0 1d 61 97 bd bf 92 01 bd 2f 66 bd bc cd 37 1c 3d
       -0.0739157 -0.03163409 -0.023120014 0.038139153
000200 95 57 5a 3e b4 60 96 be c5 85 87 bd da 4d 2c be
       0.21322472 -0.29370654 -0.066173114 -0.16826573
000210 cb 58 45 3d 66 23 ce bd 7b 9b c3 bd 6f 71 37 bc
       0.048180383 -0.100653455 -0.0955114 -0.011196478
000220 c5 ce 11 3d ac e0 94 3e be c7 d4 3c 7d 96 24 3c
       0.03559758 0.2907766 0.02597415 0.010045645
000230 99 85 bf 3e b1 69 da bd a7 98 5e 3d 07 7b 8b 3e
       0.37406614 -0.1066469 0.0543448 0.272423
000240 2f e9 00 bc 92 9e 9b bc c9 de 6e bd e4 ba 8c bd
       -0.007868095 -0.01899651 -0.058317933 -0.06871584
000250 4e d8 8b 3d db 6d 54 3d b8 72 7e bc e6 72 42 bd
       0.06828366 0.05186258 -0.015530281 -0.047472857
000260 fe 35 6c bb d6 57 1a 3d 6e c5 92 bd c7 a6 3a 3d
       -0.0036042924 0.037681423 -0.07166563 0.045569208
000270 00 19 81 bb 5b 74 a5 3d 01 d5 b7 3d a7 05 09 be
       -0.003939748 0.08078834 0.08976174 -0.13381062
000280 47 f4 c4 3d 21 0f 50 3e a7 f8 19 3d 92 77 20 bd
       0.09616905 0.20318271 0.03759065 -0.03917653
000290 92 a3 03 3e 15 72 6c be e5 c4 2e bd 56 35 4d bd
       0.12855366 -0.23090394 -0.042668242 -0.050099693
0002a0 12 ed 38 bd 0d 34 dd 3c a9 fb b8 bd 1f 9a b8 3d
       -0.045147963 0.027002359 -0.09032375 0.09013771
0002b0 3a 32 da bd 72 e4 01 3e 77 c1 0e 3d 00 40 9f 3b
       -0.10654111 0.12684801 0.03485247 0.0048599243
0002c0 04 70 ae 3e e1 12 0b 3e 83 62 0d bd 74 d2 0b 3e
       0.34069836 0.1358142 -0.034517776 0.136545
0002d0 04 c4 ec 3c 38 59 c3 bb 58 cd 05 3a d2 68 2c be
       0.028902061 -0.0059615634 0.0005104146 -0.16836861
0002e0 0d 1c 83 3a 84 29 0c be 80 88 91 3b a8 91 c8 bd
       0.0010002867 -0.13687712 0.004441321 -0.09793407
0002f0 f6 f7 d4 bd f6 53 67 bd 4d ef 06 3e 3d ff 43 3e
       -0.10398857 -0.056476556 0.13177224 0.19140334
000300 6c 3f 5f 3c e5 d5 89 3d 90 c6 f1 3d a7 5e 1a be
       0.013625961 0.0673025 0.11805451 -0.1507517
000310 96 1b 25 3e 1f 69 8f 3e b7 e9 1a bd 48 f5 8f bc
       0.16123804 0.2800989 -0.037820544 -0.017573014
000320 5e 35 cd 3d 35 8a 93 be 18 6b 6f bd 2c 31 5b bd
       0.100199446 -0.2881638 -0.058451742 -0.05351369
000330 7a d3 0a bd 77 88 1d bd be b8 0f be 04 88 bc bb
       -0.033893086 -0.03846022 -0.14035317 -0.005753519
000340 e4 c0 ed bd 09 21 cf 3d 8a f3 91 3c 86 af 80 3d
       -0.116090566 0.10113723 0.017816324 0.062834784
000350 6c 68 bf 3e 2a df d9 3c 0a 4f 80 bd 50 a3 83 3e
       0.37384355 0.02659567 -0.062650755 0.25710535
000360 6e e9 d2 bc 47 af 02 3d ff d3 20 be 3e 6c f0 be
       -0.025746074 0.03190544 -0.1570587 -0.46957582
000370 45 d8 a6 bd 35 9f 3a 3c 03 01 37 3d cf 98 e1 3d
       -0.08146719 0.011390497 0.0446787 0.11015474
000380 4c 66 a2 be 0c d6 d9 3c c3 22 80 bd 1c 77 c4 3e
       -0.3171867 0.026591323 -0.0625663 0.38372123
000390 27 4c 51 3d 33 70 39 3e 91 1f 0c bd 40 1b 92 3d
       0.051098015 0.18109207 -0.03420979 0.07134104
0003a0 56 3f 3a 3b 5a 0c 9f 3c a1 98 a5 bd 14 a5 0b bc
       0.0028419099 0.01941507 -0.08085752 -0.008523244
0003b0 4a 56 ee 3d 39 b7 8f be c9 cc ea 3d a3 be d0 bc
       0.11637552 -0.28069475 0.11464841 -0.025481528
0003c0 ee a3 a6 3c 24 46 0b 3e a5 d1 ea 3d d5 c5 06 3f
       0.02034184 0.13600975 0.11465768 0.5264562
0003d0 09 dc 2a 3d 92 09 7a 3e 1d 5f cb bc d4 fb bc bd
       0.041713748 0.24417713 -0.024825627 -0.0922772
0003e0 33 e3 44 3e 13 4c 9a 3e 74 3d 50 3e 4f 4d 6d bd
       0.19227295 0.30136165 0.20335943 -0.057935055
0003f0 c2 72 1c 3d d0 32 18 bc 43 1d 46 3c 05 f6 39 3e
       0.03819538 -0.009289458 0.0120919375 0.18160255

bias f4 [6]
000000 f9 48 1b 3e 83 2b 9a 3c 01 8a 4f 38 0c 28 c1 3d
       0.15164556 0.018819576 4.9481172e-05 0.094314665
000010 19 fd 3b 3e 63 18 ad 3d
       0.18358268 0.08451917

weight f4 [1, 6]
000000 2a 5b 36 c0 dc 82 d4 bd 69 d8 1d be 71 d4 7a bf
       -2.8493142 -0.10376522 -0.15414585 -0.9798041
000010 75 72 25 c0 9d 80 2f c0
       -2.585111 -2.742225
