Data/Torch models/Model Records/P2_20240716_L_channel5_fold3_round4.pt (torch, 10967 bytes, 5 tensors)

weight f4 [18, 4]
0	0x3e7c8466	0.24659881
1	0x3f394cf8	0.7238307
2	0x3eeedbe4	0.46652138
3	0xbf06a128	-0.52589655
4	0xbe8ec983	-0.27888116
5	0x3ed4f28f	0.41591308
6	0x3eca433f	0.3950443
7	0xbebd55e8	-0.36979604
8	0xbea78dd4	-0.32725394
9	0xbf103bfd	-0.56341535
10	0x3f0abf28	0.5419793
11	0xbd61daae	-0.05514019
12	0x3da2ccc0	0.07949209
13	0x3e2807f1	0.1640928
14	0x3f12050d	0.57038957
15	0xbf015648	-0.5052228
16	0x3ede0911	0.43366292
17	0x3eee37c2	0.46526915
18	0x3e292957	0.16519676
19	0xbeed08eb	-0.46295866
20	0xbe63afa3	-0.22234969
21	0x3e69b883	0.22824292
22	0x3d21894e	0.039437585
23	0x3ea51392	0.32241493
24	0x3ed7ffb3	0.4218727
25	0x3e90bace	0.2826752
26	0xbf12715e	-0.57204235
27	0xbe89d980	-0.26923752
28	0xbe6acd71	-0.22929932
29	0xbe84744b	-0.25869974
30	0x3da95341	0.082678325
31	0xbec43e50	-0.3832879
32	0xbb8c1780	-0.0042752624
33	0x3dc8ec88	0.0981074
34	0x3b560b00	0.0032660365
35	0x3d87a498	0.06623191
36	0xbe0ff8c8	-0.14059746
37	0x3db99b10	0.09062779
38	0x3e33f88c	0.17575282
39	0xbe7b5104	-0.24542624
40	0x3f0a12df	0.53935045
41	0x3f2aad11	0.6667033
42	0x3f4a4c83	0.79023
43	0x3f875cf4	1.0575242
44	0x3f37177d	0.71520215
45	0xbf53a686	-0.8267597
46	0x3dcd84d8	0.100351036
47	0x3cfa7451	0.030573042
48	0x3c3bc380	0.011460185
49	0xbeb18582	-0.3467217
50	0xbd1e9390	-0.038714945
51	0x3ec68ace	0.38777775
52	0xbee318aa	-0.44354755
53	0x3d21ac89	0.039471183
54	0xbc204f85	-0.009784584
55	0xbeba267c	-0.36357486
56	0x3e8ad528	0.2711575
57	0x3f44cd0b	0.7687537
58	0x3ed99167	0.42493746
59	0x3f46b0b0	0.77613354
60	0xbe891988	-0.2677729
61	0xbdf4f828	-0.119613945
62	0x3ef056b2	0.46941143
63	0xbe8717ac	-0.26385248
64	0xbef29c6a	-0.4738496
65	0x3f05f7b1	0.5233107
66	0x3f27b588	0.6551137
67	0xbf3476e9	-0.7049394
68	0xbec54188	-0.3852656
69	0x3e3e780c	0.18600482
70	0x3ef6c74c	0.48198926
71	0xbeae7b18	-0.34078288

bias f4 [18]
0	0x36c9de48	6.0161437e-06
1	0x3e2198e7	0.15780984
2	0x3f641ca3	0.89106196
3	0xbe7920c5	-0.24328907
4	0xbe8fa4a5	-0.280553
5	0xbebc55a9	-0.36784104
6	0x3e949c50	0.29025507
7	0x3e00ab58	0.12565362
8	0xbe8982ac	-0.26857507
9	0xbece379a	-0.40276796
10	0xbcf0d0c5	-0.029396424
11	0x3f281d82	0.65670025
12	0xbeaf8a04	-0.34284985
13	0x3de77422	0.113014475
14	0xbe8adc8b	-0.27121386
15	0xbe188180	-0.1489315
16	0x3f26aa89	0.65103966
17	0xbe806ab9	-0.25081423

weight f4 [6, 324]
0	0x3cff6e43	0.031180507
1	0x3c541def	0.01294659
2	0xbd02f8b1	-0.03197545
3	0xbd630a9d	-0.055430043
4	0xbc491f7f	-0.012275576
5	0xbcff3cc8	-0.031156912
6	0xbc990ea0	-0.018683732
7	0xbc3dd788	-0.011587031
8	0xbd5e3cd4	-0.05425723
9	0xbc47d51c	-0.012196805
10	0xbd86141f	-0.065468065
11	0xbce282a7	-0.02765019
12	0xbbe7b060	-0.007070586
13	0xbd03c505	-0.032170314
14	0x3c0c6e1b	0.008571173
15	0xbd01b05c	-0.03166233
16	0x3cb50cdf	0.022100864
17	0xbd2fa6c1	-0.04288364
18	0x3bcb2073	0.0061989366
19	0xbd3895d5	-0.045064766
20	0x3c16b07c	0.009197351
21	0x3cea030f	0.028565912
22	0x3c9ce318	0.019151255
23	0xbd4e635a	-0.050387718
24	0xbd2b005e	-0.041748397
25	0xbc90c634	-0.017672636
26	0xbc354030	-0.011062667
27	0x3cd78c9e	0.026312169
28	0xbd2bd0de	-0.04194724
29	0xbc96c88c	-0.018406175
30	0xbbd6d720	-0.0065564066
31	0xbc8c19b6	-0.017102104
32	0x3c1d194f	0.009588554
33	0xbcc29f60	-0.023757637
34	0xbcd95c28	-0.026533201
35	0xbd45d38c	-0.04829745
36	0x3d232df9	0.039838765
37	0xbcf880b4	-0.030334808
38	0xbc3678da	-0.011137212
39	0x3d6dfdfa	0.05810354
40	0x3b296703	0.0025848753
41	0xbcb5880d	-0.0221596
42	0xbcffc00a	-0.031219501
43	0x3c08be7d	0.008346197
44	0xbcf822c7	-0.03029002
45	0x3d4137f1	0.04717249
46	0xbd67f5e8	-0.056631
47	0x380b724c	3.324663e-05
48	0xbc44f51c	-0.012021329
49	0x3c5548f6	0.0130178835
50	0x3af93335	0.0019012453
51	0xbd49db55	-0.049281437
52	0x3cce3a3c	0.025174253
53	0xbccb3aac	-0.02480825
54	0xbc1d0b7a	-0.009585256
55	0xbc391b04	-0.011297945
56	0xbc8f5ba8	-0.01749976
57	0x3c6deb77	0.014521471
58	0x3d510219	0.05102739
59	0xbcd9355c	-0.026514702
60	0xbc41737f	-0.011807322
61	0x3d286fd5	0.041122276
62	0x3c91b422	0.01778609
63	0x3d54361d	0.05180942
64	0x3c68b66b	0.014203648
65	0x3ac10bb6	0.0014728222
66	0x3c9117a6	0.017711472
67	0xbb71387e	-0.0036807354
68	0xbca27387	-0.019830478
69	0xbd3254f0	-0.043538034
70	0xbcdb3c01	-0.02676201
71	0xbc7c80fb	-0.015411611
72	0xbcc4d488	-0.024027124
73	0x3c8e9a02	0.017407421
74	0x3be8e285	0.0071070814
75	0x3c5c1c80	0.013434529
76	0xbc82e3e1	-0.015977802
77	0xbc595576	-0.013265004
78	0xbcd351fc	-0.02579593
79	0x3c6a612d	0.014305395
80	0x3b23d240	0.0024997145
81	0xbc1c3524	-0.009534154
82	0x3d27a79a	0.04093132
83	0xbd8c0d56	-0.06838481
84	0x3d237c49	0.03991345
85	0xbc0f376c	-0.008741241
86	0xbcc92eec	-0.024558507
87	0xbd39bf14	-0.045348242
88	0xbd0fb91a	-0.035088636
89	0xbd170478	-0.036869496
90	0xbb5f925d	-0.003411434
91	0x3a5bef79	0.0008389871
92	0x3c0a7145	0.008449857
93	0xbc91d4e0	-0.017801702
94	0xbcda580b	-0.02665331
95	0x3cef5951	0.029217394
96	0x3c8f1aa2	0.017468754
97	0x3d3abb96	0.045589052
98	0x3a3f9300	0.00073079765
99	0x3d20c045	0.039245863
100	0xbccc4d2e	-0.024939146
101	0x3cd82d3f	0.026388763
102	0xbb41f5b0	-0.0029595904
103	0x3d434f1d	0.04768287
104	0xbd6a4151	-0.057191197
105	0x3cf84f56	0.030311268
106	0xbd09569d	-0.033529866
107	0xbd24b788	-0.04021409
108	0xbd3cf5e4	-0.046132937
109	0x3c02383a	0.007947976
110	0xbd72107d	-0.059097756
111	0x3d31769a	0.043325998
112	0x3ceb338f	0.028711108
113	0x3a42bd46	0.00074287166
114	0x3bab42c6	0.005226466
115	0x3d521410	0.051288664
116	0x3cb59582	0.022166017
117	0x3c03d8ac	0.008047264
118	0xbd6d317e	-0.057908528
119	0xbd536c0c	-0.051616713
120	0xbcfdaa7d	-0.030965084
121	0xbbfa3300	-0.007635474
122	0x3ce72807	0.028217329
123	0xbd5cfac4	-0.053950086
124	0xbc80c513	-0.015718972
125	0x3d092aa0	0.033487916
126	0xbd50ae0f	-0.050947245
127	0xbd36044d	-0.044437695
128	0x3bcde48b	0.006283348
129	0x3d075acf	0.033045586
130	0x3c095532	0.008382129
131	0xbbb2e3ab	-0.005459269
132	0xbc4fb376	-0.012677064
133	0x3bc64cbe	0.006051629
134	0xbb2b1900	-0.002610743
135	0xbd1e750e	-0.03868585
136	0xbc6b42a4	-0.01435915
137	0xbc320c7e	-0.010867236
138	0xbd30408e	-0.043030314
139	0xbd0f391b	-0.03496657
140	0xbc91cfc7	-0.017799271
141	0x3d5656b7	0.05232879
142	0xbcf26f46	-0.029594075
143	0xbd0d9198	-0.034562677
144	0xbd926431	-0.07148016
145	0xbd5761e4	-0.05258359
146	0x3c9ae3b0	0.018907398
147	0x3bfb3a37	0.007666852
148	0xbc307634	-0.010770369
149	0x3cae5571	0.021280976
150	0x3c45fa8d	0.012083662
151	0x3c90f962	0.01769704
152	0xbcb5bbd6	-0.022184294
153	0xbbcfeb80	-0.0063452125
154	0xbcfa5fcd	-0.03056326
155	0x3c5b715f	0.013393729
156	0xbd200432	-0.0390665
157	0x3cd7cea0	0.026343644
158	0xbdbdd36e	-0.09268843
159	0xbc8e00d6	-0.017334383
160	0x3c9de957	0.019276304
161	0x3cb18429	0.021669464
162	0xbc2aa885	-0.010416155
163	0x3c4c1f24	0.012458596
164	0x3b4fdda4	0.0031717801
165	0x3c2ca32e	0.010536952
166	0xbc36835b	-0.011139716
167	0xbd324f49	-0.043532643
168	0xbbc7b57c	-0.0060946327
169	0xbd1b2b3c	-0.03788303
170	0xbd061840	-0.03273797
171	0xbc052710	-0.008126989
172	0xbddf5a7b	-0.1090593
173	0xbc373387	-0.011181719
174	0x3c877f8a	0.016540308
175	0x3bf12921	0.0073596393
176	0xbc6ef72b	-0.014585297
177	0xbd0d2c8e	-0.03446632
178	0xbd161903	-0.036644947
179	0xbc4a03f7	-0.012330047
180	0xbd11da8a	-0.035608806
181	0xbcb39f70	-0.021926612
182	0x3d386c0b	0.045024913
183	0x3d25371a	0.040335752
184	0x3c412680	0.011788964
185	0x3d202a9f	0.039103147
186	0x3d565832	0.052330203
187	0x3d5bfccb	0.05370788
188	0x3d610513	0.05493648
189	0xbc90dcb8	-0.017683372
190	0xbdc2dad0	-0.095143914
191	0xbb0a2dde	-0.0021084468
192	0x3c9bd632	0.019023035
193	0xbd5ceda3	-0.053937566
194	0xbda99f58	-0.082823455
195	0xba1d39c0	-0.000599768
196	0xbcacf4a8	-0.021112755
197	0xbd1f13c8	-0.038837224
198	0xbd313a43	-0.043268453
199	0x3c89b80c	0.016811393
200	0x3d1709d5	0.03687461
201	0x3d2e523c	0.042558894
202	0xbd49549e	-0.049152963
203	0xbd1c3eee	-0.038145952
204	0x3ca81ba7	0.020520998
205	0xbd19e153	-0.0375684
206	0xbd38bc99	-0.045101736
207	0xbd2067a6	-0.039161347
208	0xbde3c022	-0.11120631
209	0xbcf1fcb7	-0.02953945
210	0xbbdecf28	-0.0067995973
211	0x3d564238	0.052309245
212	0xbd9a216c	-0.07525906
213	0x3d5aa1a5	0.053376812
214	0xbd50bd69	-0.050961886
215	0xbd14c2c0	-0.03631854
216	0xbc270e8e	-0.010196341
217	0xbd09febb	-0.033690196
218	0x3c452473	0.012032616
219	0xbd01eda4	-0.031720772
220	0x3c53e13a	0.012932116
221	0xbc00c6a2	-0.007859858
222	0xbd52c61f	-0.051458474
223	0x3d536a08	0.05161479
224	0x3c50a1b4	0.0127338655
225	0x3cecd602	0.02891064
226	0x3c198222	0.009369405
227	0x3cdae771	0.026721688
228	0x3cec098a	0.028813142
229	0xbd216e59	-0.039411876
230	0xbd8d9b03	-0.06914332
231	0x3d32e5d1	0.0436762
232	0xbd88ef92	-0.066863194
233	0x3b796ff9	0.0038061126
234	0x3b94c71c	0.0045403372
235	0xbcd35ef4	-0.025802113
236	0x3cd24f82	0.025672678
237	0xbcb071c6	-0.021538626
238	0x3b5b1e35	0.0033434753
239	0x3cb0e890	0.02159527
240	0xbc8f098f	-0.017460613
241	0x3cc74b8a	0.024328012
242	0xbd443bd7	-0.04790863
243	0x3c1fed44	0.009761158
244	0xbd19f4b0	-0.037586868
245	0x3d00c3b0	0.031436622
246	0xbc5fa81c	-0.01365092
247	0x3b835a5e	0.0040085753
248	0xbc598d5b	-0.013278331
249	0xbc04f410	-0.00811483
250	0x3cc90952	0.024540577
251	0xbd391481	-0.04518557
252	0xbd80f9fb	-0.0629768
253	0xbc390e51	-0.011294917
254	0xbc64139b	-0.01392069
255	0xbcec4adb	-0.028844288

bias f4 [6]
0	0xbdb010fc	-0.085969895
1	0x3d9ad30d	0.07559786
2	0x3e76aad7	0.24088608
3	0xbc198df8	-0.009372227
4	0xbbc3efab	-0.0059794984
5	0x3dd01be7	0.10161572

weight f4 [1, 6]
0	0xbdd68761	-0.1047504
1	0xbfbb3a67	-1.4627198
2	0xc005c423	-2.0900962
3	0x3f989257	1.1919659
4	0x3c8faf0d	0.017539525
5	0xbfb078cf	-1.3786868
