Data/Torch models/Model Records/P2_20240716_L_channel0_fold1_round1.pt (torch, 10967 bytes, 5 tensors)

weight f4 [18, 4]
00000000: 36e3 ae3e eb4c b7be 5f0b 11bf 9e4e 71bc
00000010: 249c d1bd 6cf8 923e 3b2b c93e f369 a3bf
00000020: e970 f9be 017a 76be a5d5 e53e 351b 0f3d
00000030: 125b efbd 9548 a7be 0f3a c3be f370 5f3e
00000040: 8b0a c8be e174 70bf 05a6 4cbd 4f4f 16be
00000050: 7f23 a63e ca43 84bc 057c 8cbe bdd4 a63f
00000060: a313 743f d1a8 14bf c614 6b3e c708 b4bc
00000070: 54ac 01bf 4960 19bf 78ef e7be 7ab4 c5be
00000080: 2754 21be d0d1 143f 1606 e3be c8d1 e3be
00000090: 80f7 7f3e 66ca d5be e884 b43e 000c 633a
000000a0: da44 ac3f 533e 40be aed4 24bd 27e3 66bf
000000b0: 3f94 f7be 0bab 4c3d 8e54 da3e c93f b5be
000000c0: 30d2 90be a0b9 afbd f829 df3e be31 bbbe
000000d0: d066 f03e 4f77 b63e 8617 403f 5c71 a83f
000000e0: c1e2 2b3f 8854 cc3f 6cb7 353f c8a3 bbbc
000000f0: ef0c e63d b10f 083f 2f02 27bf 27a5 d0be
00000100: 7148 443f 9e35 9c3f 0682 473f 79b8 c93e
00000110: f592 f43e 0ae3 68bf 1809 b0be cf11 803e
0.34157723 -0.3580087 -0.56657976 -0.014728216 -0.102348596 0.28705156 0.39290795 -1.2766708
-0.48718956 -0.24069978 0.4488956 0.034938056 -0.11687292 -0.32672563 -0.38130233 0.2182043
-0.39070544 -0.93928343 -0.049963016 -0.14678691 0.32448956 -0.016145606 -0.2743837 1.3033673
0.95342463 -0.58070093 0.22957143 -0.021976842 -0.50653577 -0.59912544 -0.45299888 -0.38614255
-0.15754758 0.5813265 -0.4434058 -0.44495988 0.24996758 -0.4175598 0.3525765 0.0008661151
1.3458512 -0.18773775 -0.04024189 -0.90190357 -0.4835529 0.049967807 0.42642635 -0.35400227
-0.2828536 -0.08580327 0.43586707 -0.36561388 0.4695344 0.356379 0.75035894 1.3159595
0.67142874 1.5963297 0.70983005 -0.022905245 0.11232936 0.53148943 -0.65237707 -0.40751
0.76673037 1.2203863 0.77932775 0.39398554 0.4776837 -0.90971434 -0.34381938 0.25013587

bias f4 [18]
00000000: 7222 3d3f 661d 333f d0ce bc3e e6a7 c13e
00000010: 02d7 843f 75e5 f33e 980e 053a 27fd 733f
00000020: dbc3 4ebe 02e1 a2be 63e8 543e 6a4f ec3e
00000030: f0a8 5cbe 01ab 83be 3d5b 123c e43b 083f
00000040: 295d e9bd 7c9e 463f
0.73880684 0.69966733 0.36876535 0.3782341 1.0378115 0.47636 0.0005075722 0.95308155
-0.201919 -0.31812292 0.20791773 0.46154338 -0.2154882 -0.25716403 0.008932886 0.53216386
-0.11394722 0.7758558

weight f4 [6, 324]
00000000: d75d b3bc 2080 31be 58a0 4dbd 7b72 e3ba
00000010: de35 7b3b 9c16 c43d b5be 873c 5088 5fbd
00000020: 22c5 413d 5bed 37bd 2fea 86bc 11d6 f2bd
00000030: 1c80 06bd 4682 d53d 7391 c73d 306b 0e3c
00000040: 365f 8f3d 5267 413c 4c99 163d 67d3 d03d
00000050: 75d6 e6bc 9af2 0b3d 7a01 ca3a 6cbf 4ebe
00000060: ecc6 ef3d 085f 483b 4a5b 663d 6bc9 44bd
00000070: dcaf a13e 2422 d2bd b49f 09bd 7d56 96be
00000080: 9913 16bd e8f2 da3d ae19 edbd d7f1 d53d
00000090: 0844 423d 5737 963c 8121 5abd 4bf5 533c
000000a0: fb46 b73c b989 a8bd c8ac 563d 6cc1 b73c
000000b0: 4a27 bb3d 1673 a63c ff96 f13d 37b5 00bd
000000c0: 444e 50bd 17ba edbd 8499 54bd f142 013d
000000d0: e213 d8bd e3e1 cb3c 1189 4fbd 4fd4 2abe
000000e0: d2b1 963d 0115 0ebc 8a6d e0bb 84b2 ed3c
000000f0: c944 8d3c 1713 0b3d 5f43 823c a0d5 c8bb
00000100: 582c 93bd e643 39bd f5cd 47bd b7a9 263e
00000110: 9d72 9ebc 80c1 62bd e7a0 0e3e 5910 4dbd
00000120: eed4 3d3c 483d 6ebe 3e5b a83c fdd4 9bbd
00000130: 9c66 fabd cd6b 553e 9e41 cf3d 8c80 b4bd
00000140: 6d3f 653c ee76 32bd 37ff 91bc b8e1 c1bd
00000150: f049 cc3b 5708 5f3e ec88 153e 3db6 60bd
00000160: 7fd0 283e 2f1b 15bc a1a3 04be 03ce 1cbe
00000170: f3d5 47bd 3ff6 a5bc 7d69 05be b262 ae3d
00000180: 5473 093e 2697 28be ddd9 923c 9c53 0dbc
00000190: 1e44 8e3a 8f7c c6bd dea3 3cbd 58c1 be3e
000001a0: d724 0d3e 289c 16be 6836 553e d608 573d
000001b0: bae6 17bd f46d a3bc d32f babd 4ee7 36bd
000001c0: 1acb df3b eca8 8e3c a346 a53d b5d9 52bd
000001d0: f1d9 d5bc 60ea e1bc 2d46 2c3e 8307 41bd
000001e0: 2f34 173d e5ea a83c eaeb eb3c 174a dcbd
000001f0: f319 583c 798a c7bc b525 fdbd a909 e0bb
00000200: 0e20 e8bc c74a 933d c45d 593d e182 bebc
00000210: 95bd 04bc c870 7f3d c17f 45bc 01b6 1f3d
00000220: 1d4e 81bd b760 57bc 5595 523d 30c8 04bd
00000230: 83ca 48be a56d dbbd 697c 22be 9b87 58bd
00000240: 8f45 c8bd a97f 06be 21f2 593c 1632 323d
00000250: e8cf 5fbc 99e8 933d 9a6b a83c 4943 31bc
00000260: 9ba6 833d 0a52 9c3c 0e7e 42bd 0415 203d
00000270: 5fa1 103d f5ac d63d 29e4 2d3d 533c 71bd
00000280: b634 79bb c468 b1bd eb47 12be 6ba6 6ebe
00000290: ea95 bb3c c04f 063d 97a8 a7bc f0e4 4e3e
000002a0: 5250 d63a de9d 373d 8b7b 973c 7b14 27bd
000002b0: 133f 29be 48ca 95bd 48ce a23b 2810 973e
000002c0: b677 3f3d 7cd1 febd e6e2 1d3e bc39 28bd
000002d0: caa9 27be 2347 4abc 7ce0 7c3c c2b5 a03c
000002e0: bce6 b53c dc1f 5dbd 1289 8fbd 3ff5 06bd
000002f0: 16a7 6f3c 281c f6bb cd4d 9bbd 3a7e 743d
00000300: cd89 003d 762a cf3d 851e 3e3e 9b11 b5bd
00000310: 240e b03d 1b9e b7bd 7c3d 06be efc5 ea3d
00000320: 44d9 5c3d 022a 093d f4d6 76bd 7d65 c2bd
00000330: 98ce b23d 238d ffbb 4999 43bd aa46 0dbd
00000340: fed4 c93d 2669 513d 46de ee3c 73ed fc3c
00000350: 2808 7f3c a9d1 0dbe 671c 00bc 8a3b 7fbd
00000360: 473f 1fbe 0d9d 49bd e51d b8ba 9ac3 b4bd
00000370: 2196 14be aa74 88bb 00d5 0abe b0e7 a1bd
00000380: aa54 a53d d67e 8bbc a5dd 5ebe 23be 163d
00000390: 22fe 9b3c 913e b33d 6683 723d a370 47bc
000003a0: 68e7 833d 7c44 33be 8776 18be 4103 23bd
000003b0: ebe6 9cbc 691e 533d 0be8 893d da06 9c3c
000003c0: c651 a6bd 0b4f a73d 9785 0d3d 0718 3a3d
000003d0: 020d 01be f364 e43c 14d3 60bc d2a1 e33d
000003e0: bf66 e2bd 4994 29be 418c a0bd 5ac1 cabd
000003f0: 926a 23be 7ac6 163d 2532 a33b cb6f 7eba
-0.021895332 -0.17334032 -0.050201744 -0.0017352843 0.0038331668 0.09574625 0.016570428 -0.054573357
0.04730714 -0.044904094 -0.01646909 -0.11857236 -0.03283702 0.10425238 0.09744539 0.008692548
0.07000582 0.011804419 0.03676729 0.10196572 -0.028178433 0.03416691 0.0015411817 -0.20190209
0.11707863 0.003057422 0.056239404 -0.04804365 0.31579483 -0.10260418 -0.03359957 -0.2936286
-0.036639784 0.10690862 -0.11577164 0.10446518 0.04742816 0.018336935 -0.053254608 0.0129369
0.022372713 -0.082293935 0.05241087 0.022431098 0.09138353 0.02031855 0.11796378 -0.03142282
-0.05085589 -0.116077594 -0.051904216 0.03155798 -0.10550667 0.024887985 -0.050667826 -0.16682552
0.07358135 -0.008672 -0.0068489956 0.029015787 0.017244713 0.033953752 0.015901266 -0.0061289817
-0.07186192 -0.04523077 -0.0487804 0.16275679 -0.019341761 -0.055360317 0.13928567 -0.05006442
0.011586411 -0.23265564 0.02055132 -0.07608984 -0.122266024 0.20841904 0.10119937 -0.08813581
0.013992173 -0.04357045 -0.017821891 -0.094668806 0.0062344 0.21780525 0.14603013 -0.054861296
0.16485785 -0.009100719 -0.12953044 -0.15312962 -0.048788022 -0.02025902 -0.13028522 0.085149184
0.134229 -0.16463909 0.017926151 -0.008625891 0.0010854041 -0.096917264 -0.046054713 0.37256885
0.13783585 -0.14708006 0.20821536 0.05249866 -0.037085272 -0.01994989 -0.09091153 -0.044654183
0.0068296315 0.017414533 0.080701135 -0.051477153 -0.0261049 -0.027577579 0.16823645 -0.047126304
0.036915 0.020619819 0.028799016 -0.10756319 0.0131897805 -0.024358021 -0.12360708 -0.006837089
-0.028335597 0.07191997 0.053067937 -0.023255767 -0.0081018405 0.062363416 -0.012054385 0.03899193
-0.06313727 -0.013145617 0.051411945 -0.032417476 -0.19608502 -0.107142724 -0.15867771 -0.0528637
-0.09778892 -0.13134636 0.013302357 0.043504797 -0.013660409 0.07222099 0.02055912 -0.010819265
0.06428262 0.019082088 -0.047483496 0.039082542 0.035310145 0.10482208 0.04245392 -0.05889542
-0.0038025803 -0.086625606 -0.14285247 -0.23305671 0.022898633 0.0327909 -0.020466132 0.2020452
0.0016350842 0.04482829 0.018491527 -0.040791016 -0.16527967 -0.07313973 0.0049684383 0.29504514
0.046745025 -0.124423 0.15418586 -0.041070685 -0.16373363 -0.012346062 0.015434381 0.019617919
0.02220475 -0.05398546 -0.07008566 -0.03294873 0.014627239 -0.0075106807 -0.07583199 0.05969069
0.031381417 0.10115521 0.1856633 -0.088412486 0.08596447 -0.08965703 -0.13109392 0.11463534
0.05391814 0.033487327 -0.06026359 -0.094920136 0.08730811 -0.007798807 -0.047753606 -0.03449122
0.09855078 0.051125668 0.029158723 0.030874943 0.015565909 -0.1384951 -0.007819272 -0.06231264
-0.15551482 -0.04922204 -0.0014046995 -0.088263705 -0.14510395 -0.004164298 -0.13557816 -0.07905519
0.08072789 -0.017028254 -0.21764238 0.036802422 0.019042078 0.08752168 0.059207343 -0.012172851
0.064406216 -0.17506593 -0.14888965 -0.039798025 -0.019153079 0.051542673 0.06733712 0.019046236
-0.08121066 0.08169373 0.03455123 0.04543307 -0.12602618 0.027880168 -0.0137222 0.11114849
-0.110547535 -0.16560473 -0.07839251 -0.0990016 -0.15958622 0.036810376 0.004980343 -0.00097059895

bias f4 [6]
00000000: dcfd 7ebd 2900 cfbd 3a4e 49bd 3428 dd3c
00000010: a83b 723d a383 fe3d
-0.062253818 -0.101074524 -0.04914687 0.02699671 0.059138924 0.124274515

weight f4 [1, 6]
00000000: 2218 c33f 09e5 0140 33fe 453f 84d6 13c0
00000010: 255d ccbf ffdc 37c0
1.524174 2.0296042 0.77341 -2.309968 -1.5965925 -2.8728635
