Data/Torch models/Model Records/P2_20240716_L_channel2_fold1_round2.pt (torch, 10967 bytes, 5 tensors)

weight f4 [18, 4]
00000000: 9c9b 833f 441e a43f e130 643f 08ac 793f
00000010: a88c d13e 5209 75bf c62a e2be 292e 01bf
00000020: ae6f fbbe 068e e23e f48f 52be 06a4 d5be
00000030: f5f6 643f 8baa 46bf 8e91 0cbf 40a4 0abf
00000040: de85 a13e 17de 803f 848b 33bf 3907 4f3f
00000050: f4be 223e e8ee cabd b0be ce3d 9662 ffbe
00000060: 195c 6e3f 27a1 a7be 6dd0 1dbf 295c 273e
00000070: 303a a4be 42b7 f0be c873 3b3e 8c46 253e
00000080: 10d4 b93d aa42 a6be c8e9 2c3e 80e2 8c3e
00000090: 3916 a23e eda7 3a3f 7e6d cd3e 5dc0 803e
000000a0: c069 8f3f 896d 063f 583c 0a3f 156d 843f
000000b0: e95a c3bc 8103 2ebf ddff 2c3f e2d8 ecbd
000000c0: a5b2 1a3e 45fe 863f 7e28 f6be 995c 84bf
000000d0: 41c4 3bbe 7be5 6d3f 8868 613f 2590 753f
000000e0: 6b0a 31bf 097a 21be 0e82 793f 369a 01bf
000000f0: 9883 a6bf 74af d8ba 98e3 a33b 53ed 063e
00000100: 228d 97bf 946f e6bd 28b8 c13d fa9e 603f
00000110: 6807 f7be 54c0 013e 06ba b43e 3ef2 f9be
1.0281863 1.2821736 0.89137083 0.97528124 0.40927625 -0.95717347 -0.4417326 -0.5046106
-0.49108642 0.4424898 -0.20562726 -0.41726702 0.89439327 -0.7760398 -0.549096 -0.54156876
0.31547445 1.0067776 -0.7013476 0.80870396 0.15893155 -0.09908849 0.100949645 -0.49879903
0.9310928 -0.32740137 -0.6164616 0.1634375 -0.32075644 -0.47014815 0.18305886 0.16140193
0.09073651 -0.32472736 0.16886055 0.27516556 0.3165758 0.72912484 0.40122598 0.25146762
1.1204147 0.5251089 0.5399833 1.0345789 -0.02384706 -0.67974097 0.67577916 -0.115648046
0.1510721 1.0546347 -0.48077768 -1.0340759 -0.18336584 0.92928284 0.8805013 0.9592307
-0.6915652 -0.15769209 0.9746407 -0.5062593 -1.3008909 -0.0016531781 0.0050014965 0.1317647
-1.1839945 -0.112517506 0.09458953 0.8774258 -0.48247838 0.12671024 0.35298175 -0.4881763

bias f4 [18]
00000000: ad33 b43e 2f7d 393f c499 a6be f0e9 783f
00000010: 8d96 f939 32bd 8cbe cb2b 5a3e 52e0 f9be
00000020: 9e7b adbe 28c7 ac36 b390 ed3d 01b3 093f
00000030: feae a43e a3ca a2be 4431 413f 0689 a63f
00000040: f84f 9e3f c057 eabe
0.35195675 0.7245664 -0.3253919 0.9723196 0.0004760515 -0.27488095 0.21305768 -0.48803955
-0.33883375 5.1491843e-06 0.11599865 0.53788763 0.32164758 -0.31795225 0.754658 1.3010566
1.2368155 -0.45770073

weight f4 [6, 324]
00000000: 5080 0abe b48b 1f3e a4dc 7bbc 01f4 f73d
00000010: e18e 9b3c 80d4 0dbc fbcb 943c 79d3 eebc
00000020: 7ef8 833c 4b2d 24be 376f d9bc 15fb f63d
00000030: 0def 62be 2cdd e43d f92f 34bc ee4d 703e
00000040: 45a6 d23e 3928 ecbc c4a6 ac3e a788 593d
00000050: e4b8 04bc e6a9 f0bc b329 1b3e 413e 0c3d
00000060: 84ba 08bd 2e91 a0bc 1c36 22bc d72f c43d
00000070: 5494 4d3e 0384 20bd 9b3e 2d3d 7d66 3b3e
00000080: 14de 063d da76 3d3e d51a d43d ee8b 48bd
00000090: bb87 e83d 142f f7bc 4d80 5cbd 1abd 943d
000000a0: 9eda 113e 16ff 1ebd 0bd7 3ebd f6a8 a5bc
000000b0: e79e 51bd 5efd e23c 6c3c 08bd b1dd bebd
000000c0: 8be4 c23e 3068 0ebe 9a8b d0b8 677a 633e
000000d0: a25d c23d c0cc 123b 39f4 4b3d 5177 5fbd
000000e0: 9019 52bb 2c2f c53d 127b b63d 5c9c 043c
000000f0: f481 41bd 62d2 fd3c 004f 2aba 1d21 4b3d
00000100: 61c7 eabd 2f88 1cbd 7a43 883e 635f 273c
00000110: 9a27 fd3d 2619 353e 5f88 8b3d 0dae 433d
00000120: e24c 083e 7b2f adbc 98ed f43b 2e53 30bd
00000130: 39e4 e13c 9cb9 11bd cc95 39bd 2483 0bbd
00000140: 20b2 8ebb 037b 3e3d bffd 30bc 2582 893d
00000150: 4802 163c dd2d 693d b976 a33d 3d64 403e
00000160: 6f15 2a3e 5c81 68bc b82c 733e d365 5fbd
00000170: 4a73 09bd 0f90 83bd 3d0f e7bd 1041 16bd
00000180: 5365 8fbd fd8a 253d 2099 37bb ade6 973d
00000190: 64ff 7e3e 20f6 3b3e f4fb 61be 507c 363e
000001a0: 5aa3 5d3e 09d8 1a3e d14a e53d 5d0b e7bc
000001b0: 3572 023e d759 a63c 008e dcba 3021 de3c
000001c0: 6a7f 2c3c 208d aebb 6ff2 22bd 1624 2ebd
000001d0: e9ef 533d 8e4b dbbb c6ea 633d 33f5 793d
000001e0: a145 0ebe f72b 923d 4e29 273e b8b2 263e
000001f0: 8d24 583e 1925 563d 2f34 093f 9b2a 1dbe
00000200: 4b27 eebc 6b92 46be 5feb 39bd e27f f83c
00000210: c989 f9bd 395c 48bd aa6c 1ebd b55b 8a3e
00000220: c394 bd3e 8e77 0b3e 3957 babd a348 aa3e
00000230: b0bc 9e3e d4fe 353e 59b4 1f3e 4036 6fbc
00000240: fe95 4a3d df48 853e 5f60 4f3d fad2 b53e
00000250: 09c7 1abd 3ebb 44bd 6e72 3b3e f2c1 2cbd
00000260: 009b 62bc 0c76 d1bc bff9 453d bf63 073e
00000270: 094c 83bb 41d6 32bd 2718 8b3d 6fd2 863c
00000280: 9b4d 23bc 8950 563d ce32 8fbd 2dfd d63d
00000290: 747c 213c 3fbe 28be 2995 343b 6904 603d
000002a0: c347 13be a2c8 f33c a403 19bc 0ba3 00bd
000002b0: 8cdf a1bd 79f0 313d 2245 2ebe a496 8e3e
000002c0: 6a33 483e 38ea d03e 2c22 083f c465 3abd
000002d0: 5b77 1bbe 037c 38bd 82b7 a43c 7dd4 39bd
000002e0: 0a20 31be 00b6 b939 1542 6dbe 7650 e63c
000002f0: e5a7 343d cd2c 9fbd 7d2c 48be e20a d33d
00000300: 0aff 03bd 81c8 093d 3048 a83e 80c2 983e
00000310: a9c2 8c3e 0d51 363d 96d5 093b f25b 8f3e
00000320: 44c2 20bd bb93 8d3e 6806 35be 579a 4d3d
00000330: 90a8 b43c f711 5abd ae3c 1bbd 4c55 45bd
00000340: ed5d 063d 269e 323e 3590 2cbe 6a72 34bc
00000350: 2655 3c3e 6b84 bb3d 4b28 333e ba83 cb3c
00000360: 3c73 c53d 0371 27be 0c8a 1e3c 4010 72be
00000370: 4362 1a3e d65d c93c 918c 4bbe f4ae 38bd
00000380: 000b 2239 5cae 893d 21b8 d8bd d0bc eebd
00000390: 1552 9c3e 1e37 43be bbe7 283e 9c4e 993e
000003a0: c7dc 7b3e d6a9 a33c 826a a73e 80b9 223d
000003b0: e437 47bd 0e9c 803c ee63 5fbd 7584 4d3d
000003c0: b9be 583c 67f9 183d 3a56 e43c a25d 4d3b
000003d0: 640c 743e 709d 063e 7cd3 8bbe c45a 8f3e
000003e0: 596d 973d 3c37 4d3e 266f 8e3e 78a9 17bc
000003f0: 8c31 24bf 29d9 db3e a134 063d 9644 1d3f
-0.1352551 0.15580636 -0.015372429 0.12107087 0.018989028 -0.008656621 0.018163672 -0.029153572
0.016109701 -0.16032903 -0.02654229 0.12059609 -0.22161503 0.11174998 -0.010997766 0.23467228
0.4114248 -0.028827773 0.33720982 0.053108837 -0.008100722 -0.029377889 0.15152626 0.034239057
-0.033381 -0.019600477 -0.009900596 0.09579437 0.20076114 -0.039188396 0.042296033 0.18300815
0.032926634 0.1850237 0.1035668 -0.048961572 0.113540135 -0.030173816 -0.053833295 0.07262631
0.14243552 -0.038817488 -0.0465918 -0.020222168 -0.05117693 0.027708706 -0.033260748 -0.09319628
0.3806499 -0.13906932 -9.944216e-05 0.22214662 0.09490515 0.0022399873 0.049793456 -0.05455715
-0.0032058693 0.09628138 0.089101925 0.00809392 -0.047243074 0.030984107 -0.0006496757 0.049592126
-0.1146381 -0.038215812 0.2661398 0.010215613 0.12361069 0.17685375 0.0681312 0.04777341
0.13310578 -0.021140805 0.0074746124 -0.043048076 0.027574645 -0.0355774 -0.045308873 -0.034060612
-0.0043547302 0.046504032 -0.010802685 0.06714276 0.009155817 0.056928504 0.07981629 0.18788238
0.16609739 -0.014190998 0.23747528 -0.054540467 -0.033557214 -0.06423961 -0.11282203 -0.036683142
-0.07001748 0.040415753 -0.0028014854 0.07417045 0.24902111 0.18355608 -0.22068769 0.17820859
0.21644345 0.15121473 0.11195911 -0.02820366 0.12738879 0.02030651 -0.0016826987 0.027115434
0.010528425 -0.005326882 -0.039781984 -0.042514883 0.051742468 -0.0066923564 0.05564382 0.061024856
-0.13893749 0.07137292 0.1632435 0.16279113 0.21107693 0.052281473 0.5359525 -0.15348284
-0.02907147 -0.19391792 -0.045390483 0.030334417 -0.121844836 -0.048916075 -0.03867785 0.27023092
0.3702756 0.13619825 -0.09098668 0.33258542 0.31003332 0.1777299 0.15596141 -0.014600337
0.04945945 0.2603216 0.050629016 0.35512525 -0.03778747 -0.04803013 0.1830537 -0.04217715
-0.0138309 -0.025568984 0.04833388 0.13221644 -0.004006867 -0.04366136 0.06791716 0.016457764
-0.009967233 0.052322898 -0.06992112 0.10497508 0.009856332 -0.16478823 0.0027554727 0.054691706
-0.14382844 0.029758755 -0.009339247 -0.03140549 -0.07903966 0.043442223 -0.1701856 0.27849305
0.19550863 0.40803695 0.5317714 -0.045507208 -0.15182249 -0.04504014 0.020107035 -0.04536866
-0.17297378 0.0003542155 -0.2316974 0.028114539 0.04410543 -0.07772217 -0.19548221 0.1030481
-0.032225646 0.03363848 0.32867575 0.29835892 0.27492264 0.04451089 0.0021031848 0.27999836
-0.039247766 0.27651772 -0.17678225 0.050196018 0.022053033 -0.05323979 -0.037899666 -0.04817705
0.03280442 0.17443141 -0.16851886 -0.011013607 0.18391857 0.09156116 0.1749584 0.024843086
0.0964112 -0.16351704 0.009676468 -0.23639011 0.15076546 0.024580877 -0.1987784 -0.045088723
0.00015453622 0.067227095 -0.10581995 -0.11657107 0.30531374 -0.19063994 0.16494648 0.29942787
0.24595939 0.019978445 0.32698447 0.039727688 -0.048637286 0.015699413 -0.05453866 0.05017515
0.013229066 0.037347224 0.027873147 0.0031336327 0.23832852 0.13145995 -0.27309787 0.27998936
0.07393903 0.20040601 0.27819175 -0.009256713 -0.641381 0.42939118 0.032765035 0.6143278

bias f4 [6]
00000000: ffc9 283e e7e7 e83c 609f 4f3e 316b 5b3d
00000010: ca80 9abc aa44 93bd
0.16483305 0.028430892 0.2027564 0.053569023 -0.01886024 -0.07190831

weight f4 [1, 6]
00000000: d8ed 08c0 165e 92bf 94e5 1cc0 36f7 43bf
00000010: df90 0dbf 3a5c 3840
-2.1395168 -1.1434963 -2.4515123 -0.7654909 -0.5529918 2.880629
