Data/Torch models/Model Records/P2_20240716_L_channel7_fold1_round3.pt (torch, 10967 bytes, 5 tensors)

weight f4 [18, 4]
0	0x3e940639	0.28910998
1	0xbf02af36	-0.510486
2	0xbeef2758	-0.46709704
3	0xbd922cf2	-0.07137479
4	0xbe29102f	-0.1651008
5	0x3ea5a622	0.32353312
6	0xbe940af9	-0.2891462
7	0xbd449343	-0.047992002
8	0x3cce0e1a	0.025153209
9	0xbf355007	-0.7082524
10	0x3eb8b2e9	0.36073998
11	0x3f421814	0.7581799
12	0x3e4db553	0.20088701
13	0xbf3f452a	-0.7471491
14	0xbed441e8	-0.41456532
15	0x3ead76c3	0.3387967
16	0xbec29e1b	-0.3801125
17	0x3e50fe5c	0.2040953
18	0xbeaa88a5	-0.33307377
19	0xbe3f0cce	-0.18657228
20	0xbe31d33c	-0.17365736
21	0xbead9a6c	-0.33906877
22	0x3e200198	0.15625608
23	0xbe07fac4	-0.13279253
24	0x3ee02c01	0.43783572
25	0x3f277335	0.65410167
26	0x3ed1064e	0.40825123
27	0xbe893265	-0.2679626
28	0x3f02c998	0.5108886
29	0x3d25ead0	0.040507138
30	0x3e2d7c17	0.16941868
31	0x3db9117f	0.0903654
32	0xbeda3b69	-0.4262345
33	0xbef71d3f	-0.482645
34	0x3e0028e7	0.12515603
35	0x3ec065fd	0.3757781
36	0xbea8e9f0	-0.3299098
37	0xbe27e10c	-0.16394442
38	0xbecaaff0	-0.39587355
39	0x3d9999d0	0.075000405
40	0x3f196c9d	0.59931356
41	0x3f646a46	0.8922466
42	0x3f51186a	0.8167788
43	0x3f8483f2	1.0352767
44	0xbecd7c74	-0.40134013
45	0x3dac6398	0.084174335
46	0xbdca3100	-0.09872627
47	0x3eabc0c4	0.33545506
48	0xbe403ae8	-0.18772471
49	0x3ea5c990	0.32380342
50	0x3d378980	0.044808865
51	0xbed9db08	-0.4254992
52	0xbee0b2be	-0.4388637
53	0xbe377e20	-0.17919207
54	0x3eaf7b40	0.3427372
55	0x3e49f0f8	0.19720829
56	0xbdc90512	-0.0981542
57	0xbe2cc8c8	-0.16873467
58	0x3efc61e0	0.49293423
59	0xbea1c19c	-0.31593025
60	0x3e78b40b	0.24287431
61	0xbecd786a	-0.4013093
62	0x3cbd9c2d	0.02314576
63	0xbef016ae	-0.46892303
64	0xbea255df	-0.3170614
65	0x3b953e6e	0.0045545613
66	0xbd967302	-0.07346155
67	0x3f192ff8	0.5983882
68	0x3ddd1732	0.1079544
69	0x3ec6b43d	0.38809386
70	0x3f05bcf8	0.5224147
71	0x3f5db278	0.86600447

bias f4 [18]
0	0x3f604a54	0.87613416
1	0x3ec86d55	0.39145914
2	0x3f25a6fa	0.6470791
3	0x3f393fb0	0.72362804
4	0x3f20024a	0.6250349
5	0xbd0d46e0	-0.03449142
6	0xbeb97a0a	-0.3622592
7	0x3f2d12fa	0.6760708
8	0x3f6887f0	0.90832424
9	0xbdb32450	-0.087471604
10	0xbec4b5e2	-0.38420016
11	0xbdd3a768	-0.103346646
12	0xbea63830	-0.32464743
13	0xbecf6d5e	-0.40513128
14	0xbe677894	-0.2260459
15	0x3ec82f00	0.39098358
16	0x3eb67de3	0.3564292
17	0x3ea78436	0.32718056

weight f4 [6, 324]
0	0x3d59ca4b	0.053171437
1	0xbccb51c3	-0.02481926
2	0x3dd66e7a	0.104702905
3	0x3e22197e	0.15830037
4	0x3caad1e6	0.02085204
5	0x3d26ef11	0.040755335
6	0xbd853a3a	-0.065052465
7	0x3cad81b2	0.021180008
8	0x3e1acc69	0.15117039
9	0xbcb5ad32	-0.022177313
10	0xbde2fece	-0.110837564
11	0x3c26a284	0.010170583
12	0xbcd8b487	-0.02645327
13	0x3d1cb961	0.03826273
14	0xbb170f3f	-0.002304986
15	0x3dc1358a	0.0943404
16	0xbce931d1	-0.028466137
17	0xbd1e52d1	-0.0386532
18	0x3dff43b1	0.12464083
19	0xbd29d8df	-0.04146659
20	0x3e7a72d9	0.24457873
21	0x3e2aa275	0.16663535
22	0x3cfc96c9	0.030833619
23	0xbd341e34	-0.043974116
24	0xbdca6e6a	-0.09884341
25	0xbc954a9a	-0.01822405
26	0x3e4fd970	0.2029779
27	0x3d0b8a47	0.03406742
28	0x3bf25dd1	0.0073964377
29	0x3d31a711	0.043372218
30	0x3d38d0e7	0.0451211
31	0x3c890422	0.016725603
32	0xbcf79e67	-0.0302269
33	0x3dbb9d53	0.091608666
34	0x3dbfb047	0.09359794
35	0x3db353c3	0.08756211
36	0x3d6e0bc1	0.05811668
37	0x3cf68b9f	0.030095873
38	0x3d611f0e	0.054961257
39	0x3da71e2f	0.08160054
40	0x3d101af0	0.03518194
41	0x3d240fd9	0.040054176
42	0xbdd817dd	-0.105514266
43	0xbc8411ea	-0.016121823
44	0x3cd4ae35	0.025961975
45	0x3d2ee951	0.042702977
46	0xbd91102c	-0.07083163
47	0x3d119769	0.035544787
48	0xbc787770	-0.015165195
49	0x3d131363	0.03590716
50	0xbbda4a0b	-0.0066616586
51	0x3d81cb4f	0.06337606
52	0x3d76ce6c	0.060255453
53	0x3c0cd33f	0.008595287
54	0x3dd9399e	0.10606693
55	0x3d6cc72d	0.057807136
56	0x3b934163	0.0044938787
57	0x3d9fd729	0.078047104
58	0x3ca7448c	0.020418428
59	0x3d1b9be3	0.037990462
60	0x3cecc22b	0.02890118
61	0xbcf0bd3b	-0.029387107
62	0x3c7b2531	0.015328691
63	0x3d2f7709	0.04283813
64	0xbe01804c	-0.12646598
65	0xbcf894b9	-0.030344354
66	0x3c6a4b34	0.014300156
67	0x3c900122	0.017578665
68	0x3cbd0214	0.02307228
69	0x3d39e891	0.04538781
70	0x3ce7c72f	0.02829322
71	0xbd736c6a	-0.059429564
72	0x3dbc9638	0.092083395
73	0xbc8698ec	-0.01643034
74	0x3d5504a1	0.052006368
75	0x3e0de25d	0.13855882
76	0x3dea42be	0.11438511
77	0xbc795fa4	-0.015220556
78	0xbd2f5832	-0.04280872
79	0xbcdb7084	-0.02678705
80	0x3e133f5d	0.1437964
81	0x3c438954	0.011934597
82	0xbea2180d	-0.31658974
83	0x3d1a3eab	0.03765742
84	0xbc625b70	-0.013815746
85	0xba7a5100	-0.0009548813
86	0xbca26ad8	-0.019826338
87	0x3d98b185	0.07455734
88	0x3d87d376	0.0663213
89	0xbe3e40db	-0.18579428
90	0x3c4bc6fa	0.012437576
91	0xbcda3f28	-0.026641443
92	0x3dda584d	0.10661373
93	0x3d373594	0.04472883
94	0x3b27d6e6	0.0025610267
95	0xbd498457	-0.049198475
96	0xbd55ed03	-0.052227985
97	0x3ccca65a	0.024981666
98	0x3e074f1e	0.13213775
99	0x3b98aba8	0.004659135
100	0xbded05a9	-0.11573345
101	0x38986800	7.267296e-05
102	0xbd1b76e9	-0.0379552
103	0x3d0421db	0.03225885
104	0xbb58b298	-0.0033065435
105	0xbb231eeb	-0.0024890255
106	0x3d832fa2	0.064055696
107	0x3b8e98c1	0.004351706
108	0x3be90878	0.0071116053
109	0x3cde7629	0.027155953
110	0x3e14e8b1	0.1454189
111	0x3d7746ef	0.060370382
112	0x3d178e53	0.037000965
113	0x3d5ca44b	0.05386762
114	0xbd9c31ff	-0.076267235
115	0x3db4ba30	0.08824575
116	0x3e0846c3	0.13308243
117	0xbbdbe7b8	-0.0067109726
118	0x3d2cb978	0.042169064
119	0x3b9aac48	0.0047202446
120	0x3d439773	0.047751855
121	0xbd338a2c	-0.043832943
122	0x3c852652	0.016253624
123	0xbc819f03	-0.015822893
124	0x3bdf3271	0.006811433
125	0x3cfe9f80	0.031081915
126	0x3d863a01	0.06554032
127	0x3d94b913	0.072618626
128	0x3af6acf3	0.0018819853
129	0x3de5c2e1	0.11218811
130	0x3d84304a	0.06454523
131	0x3cf924aa	0.03041299
132	0xbd2156db	-0.039389472
133	0x3d7d001d	0.061767686
134	0x3da8dc58	0.08245152
135	0xbcfb3880	-0.03066659
136	0xbdb92941	-0.09041072
137	0x3d2c00bf	0.0419929
138	0xbad70a80	-0.0016406327
139	0xbd0f6114	-0.03500469
140	0xbcfa6ff2	-0.030570958
141	0x3da43f75	0.08019916
142	0xbc146527	-0.00905732
143	0xbdabde47	-0.083920054
144	0x3ddb0a24	0.106952935
145	0x3c89ef42	0.01683772
146	0x3d960751	0.07325614
147	0x3d689871	0.056786004
148	0x3da3f0eb	0.08004936
149	0x3c30673c	0.0107668005
150	0xbd46c998	-0.0485321
151	0x3d48dc9a	0.049038507
152	0xbd0503bb	-0.03247426
153	0x3d531409	0.05153278
154	0xbd8f46a7	-0.06995898
155	0x3c86d0fe	0.016457077
156	0xbb1aa970	-0.0023599528
157	0xbc5662c8	-0.013085075
158	0x3ca316c4	0.019908316
159	0x3c9bb764	0.019008346
160	0x3c77e047	0.0151291555
161	0xbc025c3e	-0.007956563
162	0x3dd77e6d	0.10522161
163	0x3d883d98	0.06652373
164	0xbde83094	-0.113373905
165	0x3cb65c65	0.022260854
166	0x3d443fa8	0.04791227
167	0x3b38adb0	0.0028179698
168	0xbbcabe42	-0.0061872313
169	0x3b75ca6c	0.0037504686
170	0xbd9d249b	-0.076729976
171	0xbc86c600	-0.016451836
172	0xbdec4ef1	-0.115384944
173	0x3d5e217d	0.054231156
174	0xbc272478	-0.010201566
175	0xbc805a2e	-0.015668001
176	0xbcf62a63	-0.030049508
177	0x3d79ad76	0.06095644
178	0xbdba422d	-0.09094653
179	0xbe090177	-0.13379465
180	0x3dbe2718	0.092848
181	0x3d8b9bd3	0.068168305
182	0xbd80920f	-0.062778585
183	0x3b20372b	0.0024446945
184	0x3c93179e	0.017955597
185	0x3d280271	0.041017953
186	0x3d9346ce	0.07191239
187	0x3cf060a6	0.02934296
188	0x3c2fa9de	0.010721652
189	0xbd6319e2	-0.055444606
190	0xbd7e79ed	-0.062127996
191	0xbccb7764	-0.024837203
192	0x3c61921c	0.013767745
193	0xbc3bf5f8	-0.011472218
194	0xbd31d61a	-0.043417074
195	0x3d8e16cb	0.06937941
196	0xbcd17063	-0.025566285
197	0xbdd4eeaa	-0.10397084
198	0x3bc661c9	0.0060541374
199	0x3c7ba0e5	0.015358184
200	0xbd950532	-0.072763816
201	0xbb4b958b	-0.0031064476
202	0xbaef5074	-0.001825823
203	0x3d07afa1	0.033126477
204	0x3d954ad4	0.07289663
205	0x3d6d7489	0.057972465
206	0xbd8fa3c8	-0.07013661
207	0xbd52263c	-0.051305994
208	0xbdf0446e	-0.11731802
209	0x3ccd0016	0.025024455
210	0xbd576bfb	-0.052593213
211	0x3ca888f2	0.020573113
212	0x3d0a56d5	0.033774216
213	0x3d53bdfe	0.051694863
214	0x3aa93423	0.0012909215
215	0xbc944afb	-0.01810216
216	0x3de032dd	0.109472014
217	0x3caa5b0c	0.020795368
218	0xbc8b2b9b	-0.016988566
219	0x3dbaeed5	0.09127585
220	0x3dd42801	0.10359193
221	0xbd60d795	-0.054893095
222	0x3b729b88	0.0037018973
223	0xbd3eaf90	-0.04655415
224	0xbc393707	-0.011304623
225	0x3d5d7661	0.054067973
226	0xbe5a088e	-0.21292326
227	0x3d0a846b	0.03381769
228	0x3d05e881	0.032692436
229	0x3d45cc41	0.048290495
230	0x3b2a3e08	0.0025976915
231	0x3db8b425	0.09018735
232	0xbcf92b48	-0.030416146
233	0xbde59c66	-0.11211471
234	0x3d2da265	0.0423912
235	0x3c823097	0.01589231
236	0xbd13c9c6	-0.036081098
237	0x3cfbfe84	0.030761011
238	0x3d67249d	0.0564314
239	0xbb3e1cb0	-0.0029008798
240	0x3d3ab636	0.045583926
241	0x3cb3b863	0.021938508
242	0x3c8be010	0.017074615
243	0x3d4f07c3	0.05054451
244	0xbd582f32	-0.052779384
245	0xbc1e016c	-0.009643894
246	0x3cd9ab02	0.0265708
247	0xbb89d480	-0.00420624
248	0x3d404d49	0.046948705
249	0x3d8aeedd	0.06783841
250	0x3ba2376b	0.004950454
251	0x3d19b618	0.037527174
252	0x3d969fe5	0.07354716
253	0x3d72da90	0.05929047
254	0x3db66941	0.08906794
255	0x3dbd0f0c	0.092313856

bias f4 [6]
0	0x3e0b9e0a	0.13634506
1	0x3ddb18a8	0.10698062
2	0x3e2e85d8	0.17043245
3	0xbdbac9d1	-0.09120525
4	0x3dc60058	0.09668034
5	0x3e05f2d9	0.1308092

weight f4 [1, 6]
0	0xbf6c3700	-0.92271423
1	0xbf12a959	-0.57289654
2	0xbfb86912	-1.4407065
3	0xbd13d8c6	-0.036095403
4	0xbfa70944	-1.3049703
5	0xbfa83dbb	-1.3143839
