Data/Torch models/Model Records/P2_20240716_L_channel5_fold2_round4.pt (torch, 10967 bytes, 5 tensors)

weight f4 [18, 4]
0.6217153 0.13629231 -0.7805098 -0.95765185 0.82561964 1.1343094 -0.6719817 -0.6429587
-0.0605906 0.0923445 0.43125194 -0.62732506 0.056946453 0.8501636 -0.4880075 0.015768843
0.5870918 1.0973115 1.3737633 0.80439246 0.7539537 -0.6237515 -0.4357082 -0.4231686
-0.7544088 -0.07533913 -0.15621065 0.10427265 -0.13354121 0.6517526 0.681023 -0.1973004
-0.026364984 -0.47018507 -0.027640773 -0.020009542 0.046423912 -0.26927608 -0.14558733 0.05791384
0.4727628 0.573648 -0.07583635 -0.8087506 0.98246 -0.3848324 0.873165 0.69907653
-0.068243265 0.5419538 0.9659934 -0.87393486 -0.060146093 -0.42158014 -0.12958163 -0.32095802
-0.6367715 -0.19068466 1.2507639 -1.2436785 0.79892117 -0.639107 -0.377513 -0.33215255
1.3005399 -0.8317317 -0.32417247 -0.1254186 0.20996274 0.9515833 -0.0010144925 0.14180988
00000000: bc28 1f3f 3690 0b3e 7ecf 47bf ac28 75bf
00000010: cf5b 533f 0d31 913f fe06 2cbf f198 24bf
00000020: d92d 78bd 1d1f bd3d 0ecd dc3e 6098 20bf
00000030: af40 693d 52a4 593f 1edc f9be a92d 813c
00000040: a64b 163f b474 8c3f 7ad7 af3f aaec 4d3f
00000050: 1c03 413f 2eae 1fbf 2515 dfbe 8ea9 d8be
00000060: ef20 41bf 674b 9abd aff5 1fbe e68c d53d
00000070: 07bf 08be 42d9 263f 8657 2e3f 1e09 4abe
00000080: 61fb d7bc 19bc f0be e76e e2bc 0deb a3bc
00000090: 0027 3e3d 8ede 89be d814 15be 1037 6d3d
000000a0: f70d f23e 98da 123f 1750 9bbd 480a 4fbf
000000b0: 8082 7b3f c108 c5be be87 5f3f aef6 323f
000000c0: 20c3 8bbd 7cbd 0a3f 584b 773f 32ba 5fbf
000000d0: c05b 76bd 5ad9 d7be 0cb1 04be 9c54 a4be
000000e0: 7503 23bf d742 43be 0819 a03f db30 9fbf
000000f0: 1986 4c3f 849c 23bf 6249 c1be e60f aabe
00000100: 1778 a63f 5eec 54bf eff9 a5be bc6d 00be
00000110: 7900 573e f79a 733f b8f8 84ba 9c36 113e

bias f4 [18]
0.9803435 0.078381486 -0.043473277 -0.48204425 0.0051721903 -0.08663238 0.8297809 0.07937341
0.31890306 -0.24267185 -0.1098119 0.057713598 -0.50237346 -0.1970455 0.8671219 -0.15979506
0.5163205 -0.20997578
00000000: cbf7 7a3f 7986 a03d 0911 32bd 81ce f6be
00000010: 7a7b a93b 516c b1bd 856c 543f 878e a23d
00000020: 4347 a33e f87e 78be 10e5 e0bd 1865 6c3d
00000030: 8c9b 00bf 4cc6 49be b3fb 5d3f 51a1 23be
00000040: 952d 043f e403 57be

weight f4 [6, 324]
0.08408785 0.05123656 0.0050049727 0.020838946 -0.040531598 0.043481577 -0.07679171 0.027771365
-0.040749297 -0.03176325 0.021187445 -0.022057975 -0.038186666 0.054694477 -0.030115664 0.04088601
-0.021115907 0.017857514 -0.022804013 0.08004913 0.043434553 0.0071299723 0.1705661 -0.008469829
-0.04760745 0.055005733 -0.040839065 -0.04305109 -0.0050627193 0.094877936 0.013078302 0.012110952
-0.027541282 -0.04371421 -0.0137906885 0.07135973 -0.02729128 0.10109848 -0.030172477 -0.03269488
0.13760321 0.04489945 -0.013431766 0.09081648 -0.07853778 0.046616178 0.00042433964 0.075784564
0.05490461 -0.007894304 0.036649503 0.0350016 0.07443502 0.08975308 -0.03043324 0.10963595
0.08260641 -0.028701723 0.1730974 -0.02395741 -0.05841177 0.026827717 -0.017063519 0.054905023
0.1001089 0.047641218 0.060747076 -0.009871349 0.08614997 -0.03798704 0.02677942 0.101747945
0.07435645 -0.024892962 0.060367882 -0.031904448 -0.068886094 -0.03193262 0.010312954 -0.051481977
0.019606147 0.031155203 -0.013791045 -0.075396635 0.033287693 0.005567141 -0.044240456 0.017848983
-0.031693663 0.019478368 0.044594616 -0.050608084 -0.0443334 0.028675562 -0.062814154 0.055339005
0.053782064 0.023751894 0.030681275 0.0034073666 -0.016685825 -0.09026851 0.01795331 0.011437792
0.04301153 0.012451553 0.050814558 -0.014641486 -0.027823262 -0.053190894 -0.030886138 -0.047601722
0.0025704775 -0.027115649 -0.009034274 0.028399296 0.035391428 -0.026419712 0.028022638 -0.09746659
0.030446745 0.04809237 0.022842823 -0.016361317 -0.02894588 0.023058306 -0.0031004562 -0.07565009
-0.038598876 0.0421401 -0.0033597639 0.03634627 -0.034174345 0.03332022 -0.02444268 0.039883856
0.021223448 -0.0691744 -0.03578881 -0.0004179068 -0.023343794 0.02704049 -0.046325862 -0.0458229
0.13902567 0.06669607 -0.022408847 0.011169444 -0.12991333 0.018868804 -0.025556438 -0.021671973
-0.019886568 -0.048778336 -0.005849821 -0.0763051 -0.024405167 -0.015244119 0.05051921 -0.01296199
0.0058391304 -0.025166774 0.095288426 0.01466164 -0.044449087 0.0054353196 -0.072097056 0.0144261755
0.0065428503 -0.08890151 0.042525437 -0.0317373 0.016308473 -0.057140253 0.0011441832 -0.0121363215
0.06893401 0.052304 0.06892918 0.012761771 0.031631492 -0.009175666 -0.06042113 0.012547174
-0.11963751 0.03715417 -0.023792015 -0.035043612 0.047981843 -0.04296291 0.0041451724 -0.024636291
-0.012249693 -0.014775734 -0.028505253 -0.014626156 0.046974506 -0.10459183 -0.022186661 -0.12216699
-0.05837983 -0.02671482 -0.20421676 0.020407254 0.011497533 -0.007947114 0.0439014 0.028271753
0.012044469 -0.044093322 -0.027045093 0.049544808 -0.004681386 0.061835323 -0.01128144 -0.10742341
0.037593912 -0.13091539 0.01711001 0.034157205 -0.20100519 0.030649625 0.04188213 0.02503805
0.03339657 0.03121182 0.039071552 -0.07361784 0.083017275 -0.03133308 0.05501526 -0.032429438
-0.07975385 -0.049174078 -0.083211996 -0.20943451 -0.03105671 0.011532814 -0.20267974 0.038102463
0.036128905 -0.11830015 -0.038777538 -0.012077272 -0.042899046 -0.093683444 -0.021221321 0.032461483
0.052276995 -0.013126201 -0.08902836 -0.053700387 -0.05383234 -0.06965183 0.019478315 -0.04983861
00000000: 4036 ac3d 6ddd 513d c100 a43b 70b6 aa3c
00000010: 7604 26bd bd19 323d f944 9dbd c680 e33c
00000020: bce8 26bd 2e1a 02bd 4b91 ad3c edb2 b4bc
00000030: 9f69 1cbd 5107 603d 20b5 f6bc 1778 273d
00000040: 44fb acbc ec49 923c 7bcf babc ccf0 a33d
00000050: 6ee8 313d 8ba2 e93b e1a8 2e3e 0ac5 0abc
00000060: 0800 43bd b14d 613d dd46 27bd 5756 30bd
00000070: 2be5 a5bb 5d4f c23d 6046 563c 046d 463c
00000080: 419e e1bc ac0d 33bd 57f2 61bc 0d25 923d
00000090: f691 dfbc b80c cf3d 452c f7bc 11eb 05bd
000000a0: dbe7 0c3e 7ce8 373d e910 5cbc fefd b93d
000000b0: 6ad8 a0bd 9bf0 3e3d e779 de39 f034 9b3d
000000c0: a8e3 603d 1c57 01bc ca1d 163d d65d 0f3d
000000d0: 6371 983d 76d0 b73d 214f f9bc d088 e03d
000000e0: 8d2d a93d e01f ebbc 7240 313e 5542 c4bc
000000f0: 2e41 6fbd cdc5 db3c cbc8 8bbc 17e4 603d
00000100: e505 cd3d 7023 433d edd1 783d 70bb 21bc
00000110: 656f b03d 4c98 1bbd 8460 db3c 3a61 d03d
00000120: 3248 983d 53ec cbbc 5044 773d 3dae 02bd
00000130: 2714 8dbd c7cb 02bd aaf7 283c c4de 52bd
00000140: 129d a03c 3239 ff3c d6f3 61bc 8d69 9abd
00000150: ad58 083d 906c b63b 7b35 35bd 0838 923c
00000160: 37d1 01bd 1991 9f3c d8a8 363d 6c4a 4fbd
00000170: f096 35bd 03e9 ea3c b5a4 80bd 27ab 623d
00000180: 954a 5c3d 5593 c23c 4c57 fb3c 204e 5f3b
00000190: b6b0 88bc b2de b8bd d212 933c 9465 3b3c
000001a0: dc2c 303d 9901 4c3c ed22 503d d8e2 6fbc
000001b0: 9ced e3bc b2de 59bd ed04 fdbc 06fa 42bd
000001c0: 7575 283b a321 debc 7e04 14bc a4a5 e83c
000001d0: 9af6 103d 276e d8bc bb8f e53c 909c c7bd
000001e0: 746b f93c 81fc 443d df20 bb3c 2b08 86bc
000001f0: e91f edbc c6e4 bc3c 0631 4bbb 6fee 9abd
00000200: db19 1ebd 199b 2c3d 7c2f 5cbb d4df 143d
00000210: 66fa 0bbd c87a 083d 043c c8bc 415d 233d
00000220: ccdc ad3c 4fab 8dbd 4a97 12bd 801a dbb9
00000230: 7c3b bfbc 0584 dd3c 30c0 3dbd cbb0 3bbd
00000240: bf5c 0e3e f397 883d c292 b7bc 0b00 373c
00000250: 0008 05be c092 9a3c bc5b d1bc 6c89 b1bc
00000260: 28e9 a2bc cbcb 47bd dbaf bfbb d945 9cbd
00000270: 58ed c7bc 78c2 79bc 3bed 4e3d 875e 54bc
00000280: 2d56 bf3b 8d2a cebc 9426 c33d 6037 703c
00000290: 3f10 36bd c41a b23b 9fa7 93bd c45b 6c3c
000002a0: 6865 d63b ff11 b6bd 272f 2e3d f9fe 01bd
000002b0: 5999 853c e60b 6abd 6bf8 953a 6cd7 46bc
000002c0: 462d 8d3d b83c 563d be2a 8d3d bf16 513c
000002d0: 0690 013d 8855 16bc 267c 77bd a992 4d3c
000002e0: 8304 f5bd f92e 183d 79e7 c2bc e489 0fbd
000002f0: 9c88 443d e0f9 2fbd 3ad4 873b 0cd2 c9bc
00000300: f0b2 48bc ec15 72bc d983 e9bc 8ba2 6fbc
00000310: 5768 403d 3e34 d6bd cdc0 b5bc b032 fabd
00000320: b01f 6fbd 0ad9 dabc 331e 51be 1d2d a73c
00000330: 2660 3c3c 9d34 02bc f4d1 333d 2a9a e73c
00000340: 2a56 453c 339b 34bd ac8d ddbc 7fef 4a3d
00000350: 5066 99bb 0947 7d3d cad5 38bc ce00 dcbd
00000360: 13fc 193d af0e 06be 4b2a 8c3c 6de8 0b3d
00000370: 4ed4 4dbe ec14 fb3c 998c 2b3d 991c cd3c
00000380: d7ca 083d eeaf ff3c 7e09 203d f3c4 96bd
00000390: f604 aa3d 1e57 00bd ae57 613d bbd4 04bd
000003a0: fd55 a3bd c26a 49bd 0d6b aabd 0076 56be
000003b0: a46a febc 21f4 3c3c 478b 4fbe 5411 1c3d
000003c0: e7fb 133d 5947 f2bd 32d5 1ebd c0df 45bc
000003d0: e9b6 2fbd 1bdd bfbd 56d8 adbc 55f6 043d
000003e0: 6720 563d 470f 57bc 8054 b6bd f0f4 5bbd
000003f0: 4d7f 5cbd 9ea5 8ebd fd90 9f3c 9223 4cbd

bias f4 [6]
-0.023979407 -0.028079133 0.053371396 0.11848037 0.09639183 0.17045596
00000000: 7670 c4bc 3606 e6bc f79b 5a3d d6a5 f23d
00000010: 1469 c53d 028c 2e3e

weight f4 [1, 6]
-0.5243239 2.1845567 -0.81482625 -1.6975042 -1.533008 -2.5331497
00000000: 173a 06bf c7cf 0b40 7498 50bf d147 d9bf
00000010: 9b39 c4bf 201f 22c0
