Data/Torch models/Model Records/P2_20240716_L_channel0_fold2_round4.pt (torch, 10967 bytes, 5 tensors)

weight f4 [18, 4]
0	0xbe1b1118	-0.1514324
1	0xbf0292b4	-0.510051
2	0xbea12044	-0.3146993
3	0x3f836cf9	1.0267631
4	0xbed6d592	-0.41959816
5	0xbd643790	-0.05571705
6	0xbe8eac80	-0.27865982
7	0x3e781f04	0.24230582
8	0x3f0ec2c8	0.5576596
9	0x3f6cdd89	0.92525536
10	0x3e9c1ff1	0.3049312
11	0xbf74e161	-0.956564
12	0x3f97be83	1.1855015
13	0xbe34cd08	-0.17656338
14	0xbdf7f3ab	-0.12107023
15	0xbf615f05	-0.88035613
16	0x3a00f40a	0.0004919177
17	0x3e7439ed	0.23850222
18	0xbd94a9b2	-0.07258929
19	0x3cfcbd3a	0.030851949
20	0xbf11225d	-0.5669306
21	0x3f2a8e00	0.66622925
22	0xbf265e90	-0.6498804
23	0xbec566a5	-0.38554874
24	0xbf1202f2	-0.57035744
25	0x3f40f1a3	0.7536871
26	0xbef78024	-0.4833995
27	0xbeee6f85	-0.46569458
28	0xbd8a0864	-0.06739882
29	0x3f32a8da	0.697889
30	0x3d84e030	0.06488073
31	0x3f8fff8c	1.1249862
32	0xbed09c70	-0.40744352
33	0x3db77218	0.089573085
34	0xbec4af1a	-0.38414842
35	0x3c13c700	0.009019613
36	0x3fa551e1	1.2915612
37	0x3f11ef52	0.570058
38	0x3f0443f3	0.5166618
39	0xbe46e61b	-0.19423716
40	0xbd81b7b0	-0.06333864
41	0xbe8e53f2	-0.2779842
42	0x3ed6bde2	0.41941744
43	0xbeaf37cc	-0.34222257
44	0xbecc5418	-0.39907908
45	0x3e927cfa	0.28610975
46	0xbf1354be	-0.5755118
47	0x3b1b864f	0.0023731177
48	0x3eb40dae	0.35166687
49	0x3da17bcf	0.07884943
50	0xbf612848	-0.8795209
51	0x3f40791f	0.75184816
52	0xbea1ff29	-0.31639984
53	0x3e768ee6	0.24077949
54	0x3ece463c	0.4028796
55	0x3ee58d43	0.44834337
56	0x3fa57819	1.2927276
57	0x3fa8402a	1.3144581
58	0xbeef3b14	-0.4672476
59	0x3f8ed1ca	1.1157773
60	0xbea66ba6	-0.32504004
61	0xbe8994e3	-0.26871404
62	0xbe8f60c2	-0.28003508
63	0x3e06e13a	0.13171855
64	0x3eac2c4b	0.33627543
65	0xbe9430d8	-0.28943515
66	0xbf8b0382	-1.0860445
67	0x3e89db02	0.26924902
68	0x3cb11cd6	0.021620195
69	0x3fc21019	1.5161163
70	0x3f4845e6	0.78231657
71	0x3fb4f41a	1.4136994

bias f4 [18]
0	0x3f5f9cd5	0.8734868
1	0xbe0b8178	-0.13623607
2	0xbf0ec084	-0.55762506
3	0x3f049cb8	0.51801634
4	0x3dac0ed0	0.08401263
5	0x3f6fbdb6	0.9364885
6	0x3f442142	0.7661325
7	0x3d4142c2	0.047182806
8	0xbeeab5da	-0.45841867
9	0x3eddb0ad	0.43298855
10	0xbe970124	-0.29493058
11	0x3eea6452	0.45779663
12	0x3ebf5f2d	0.373773
13	0xbeac3656	-0.33635205
14	0xbb9b0d08	-0.004731778
15	0x3e956b3d	0.2918338
16	0x3f4c0297	0.7969145
17	0xbc782be2	-0.015147181

weight f4 [6, 324]
0	0x3c5fbbf4	0.013655651
1	0x3d434009	0.04766849
2	0x3d51a288	0.051180393
3	0xbd4a74ed	-0.049427915
4	0xbd19bd93	-0.037534308
5	0x3ddab515	0.1067907
6	0x3dd51158	0.10403699
7	0xbccd25d8	-0.02504246
8	0x3d606799	0.0547863
9	0x3c3efb17	0.011656544
10	0xbd4fb25e	-0.050707214
11	0x3db936af	0.09043633
12	0xbddf4e7c	-0.109036416
13	0x378edeaf	1.7031414e-05
14	0xbe7d212a	-0.24719682
15	0x3d40278e	0.046912722
16	0xbcbb0ba4	-0.0228327
17	0x3ccc900c	0.02497103
18	0x3def1eb4	0.11675778
19	0xbd066c29	-0.032817993
20	0xbd07d6c6	-0.03316381
21	0xbe11a1b3	-0.1422184
22	0x3d2cf37d	0.042224396
23	0x39c5a9e6	0.00037701352
24	0x3d120bb1	0.03565568
25	0x3eb35c95	0.35031572
26	0xbd193b70	-0.0374102
27	0x3e48e147	0.19617186
28	0x3d5d9bfb	0.054103833
29	0xbd1e03ba	-0.038577773
30	0x3e356735	0.17715152
31	0xbb6d6b23	-0.0036227189
32	0x3ecc721b	0.39930806
33	0xbd029b2c	-0.031886265
34	0x3d62c1c3	0.055360567
35	0x3f1b0319	0.605516
36	0xbe426f99	-0.18987884
37	0xbc56f2a4	-0.0131193735
38	0x3e139bd5	0.14414914
39	0x3d5d1218	0.053972334
40	0x3d4ca624	0.04996313
41	0xbd617567	-0.055043604
42	0xbcc0dfca	-0.023544211
43	0x3ce8c8d2	0.028416071
44	0xbc84a84a	-0.016193528
45	0x3ebd4f1f	0.36974427
46	0xbd4c93d5	-0.04994567
47	0xbd98042e	-0.07422672
48	0xbdb875b2	-0.090068236
49	0xbd273855	-0.040825207
50	0x3ebfd328	0.37465787
51	0xbd9c3658	-0.07627553
52	0xbdb964c1	-0.090524204
53	0x3ee8e39a	0.45486146
54	0xbeddfcbd	-0.43356887
55	0x3d4c9ec3	0.049956094
56	0x3e9be844	0.30450642
57	0x3f0326de	0.5123118
58	0x3d03c95f	0.032174464
59	0xbe01a2e7	-0.12659799
60	0xbd934bf3	-0.071922205
61	0xbe81cc9c	-0.25351417
62	0xbcc41876	-0.023937445
63	0x3f046447	0.5171551
64	0xbc69d2dc	-0.014271464
65	0xbd8a8028	-0.06762725
66	0xbe95bc73	-0.29245338
67	0xbdc0d2cc	-0.09415206
68	0xbcffa079	-0.031204449
69	0xbd510934	-0.051034167
70	0xbe26c68b	-0.16286676
71	0xbdf44e6d	-0.11929021
72	0xbe436014	-0.1907962
73	0x3d479037	0.04872152
74	0x3eea23e9	0.45730522
75	0x3ece567e	0.40300363
76	0x3d77ef08	0.060530692
77	0x3e60c8cc	0.21951598
78	0x3e9856a1	0.29753593
79	0xbd7e792c	-0.062127277
80	0x3d3a9ac5	0.045557756
81	0x3ea4a8d1	0.32160047
82	0x3d43bfa7	0.047790196
83	0xbb676d8e	-0.0035313102
84	0x3c8c9198	0.017159268
85	0xbdd6cd42	-0.104883686
86	0x3ea4a3d0	0.3215623
87	0x3c94074c	0.018069886
88	0x3d44fdd4	0.048093632
89	0x3c8dc166	0.017304134
90	0xbd986840	-0.07441759
91	0x3d3f4277	0.046694245
92	0x3e44a817	0.19204746
93	0x3f0d763f	0.55258554
94	0x3d1a8505	0.037724514
95	0x3dcdded7	0.10052269
96	0x3d89a903	0.067216896
97	0xbe93c076	-0.28857774
98	0xbd5a55c4	-0.05330445
99	0x3ea7cdcf	0.32774207
100	0xbafafbc0	-0.0019148514
101	0xbb9da7c0	-0.004811257
102	0x3c6096cd	0.013707829
103	0x3cbd94a8	0.023142174
104	0x3d0f94c2	0.035053976
105	0xbd523f32	-0.0513298
106	0x3e7b5657	0.24544655
107	0xbe9e229b	-0.30885777
108	0xbce2b349	-0.02767338
109	0xbd5ef6a7	-0.054434445
110	0x3e5f91ff	0.21833037
111	0x3dc7e2b6	0.097600386
112	0x3d234ff5	0.039871175
113	0x3d8ab384	0.06772521
114	0x3d603984	0.05474235
115	0xbcf001cf	-0.029297737
116	0xbcf6fb92	-0.030149255
117	0x3e80d848	0.2516501
118	0x3cfff742	0.031245831
119	0x3d6f7787	0.0584636
120	0x3d1d097e	0.03833913
121	0x3c0602c6	0.008179372
122	0x3e4196c2	0.18905166
123	0x3d50636f	0.050876077
124	0x3d6dbff4	0.05804439
125	0x3e2aae92	0.16668156
126	0x3da4836a	0.08032878
127	0x3d179dd5	0.037015755
128	0x3c008bc2	0.007845821
129	0x3db56dce	0.08858834
130	0xbce96af1	-0.028493376
131	0xbd012183	-0.0315261
132	0x3b150fac	0.0022744937
133	0xbd5c2fac	-0.0537564
134	0x3cce1dc6	0.025160681
135	0x3e59bd23	0.21263556
136	0x3d4ed449	0.05049542
137	0xbd8c6695	-0.068555035
138	0xbd595e1c	-0.053068265
139	0xbc9110ef	-0.01770827
140	0xbd25456b	-0.040349405
141	0xbcc0dd6b	-0.02354308
142	0xbd125f97	-0.035735693
143	0x3d0928e1	0.03348625
144	0x3e477270	0.19477248
145	0x3b362600	0.0027793646
146	0xbdb964e5	-0.09052447
147	0xbc792548	-0.015206642
148	0xbb20dfd9	-0.0024547486
149	0xbd885462	-0.0665672
150	0xbd187c91	-0.03722817
151	0x3dad51e1	0.08462883
152	0x3c390664	0.011293028
153	0x3daf670a	0.08564575
154	0x3d3dd18d	0.04634242
155	0xbdbfce64	-0.09365538
156	0x3d16bbf9	0.03680036
157	0xbc25fd7d	-0.010131237
158	0xbd7bb5b3	-0.06145258
159	0x3d77607a	0.06039474
160	0xbd72c71e	-0.059271924
161	0x3dbfe4d4	0.093698174
162	0xbdd8e53a	-0.105905965
163	0xbc84e2f8	-0.016221508
164	0x3dbd0bfc	0.092308015
165	0x3e50d04e	0.20391962
166	0xbbd30e39	-0.0064409045
167	0x3e12f013	0.14349394
168	0x3e59e750	0.21279645
169	0xbe8a2a43	-0.26985368
170	0x3d13f0d1	0.036118332
171	0x3d9c2fef	0.0762633
172	0x3d4f905f	0.050674792
173	0x3cbd3923	0.023098534
174	0xbcba047b	-0.022707215
175	0xbe15a38e	-0.14613172
176	0xbe4ddcd4	-0.2010377
177	0x3c5d6c0f	0.013514533
178	0x3df7e91b	0.12105008
179	0xbedcb488	-0.43106484
180	0x3e783d84	0.24242216
181	0x3d0d1a19	0.034448717
182	0xbe36e764	-0.17861706
183	0x3ddd7b6e	0.10814558
184	0x3c7973ff	0.0152254095
185	0x3e128ce3	0.14311557
186	0x3dc068d8	0.09394997
187	0xbe3e5b36	-0.18589482
188	0xbd395130	-0.045243442
189	0xbd938ead	-0.072049476
190	0x3d133173	0.03593583
191	0x3dacbeec	0.08434853
192	0x3de4951e	0.11161254
193	0x3d748d24	0.059704915
194	0xbe743582	-0.23848537
195	0x3da2e276	0.0795335
196	0x3e949983	0.2902337
197	0xbec1f632	-0.37883145
198	0x3dd60388	0.10449892
199	0xbd2e7806	-0.042594932
200	0xbd1b2cc2	-0.03788448
201	0x3e915ec0	0.283926
202	0xbd84fb56	-0.06493251
203	0x3e441a94	0.19150764
204	0x3de7d25f	0.11319422
205	0xbea3fce8	-0.3202889
206	0xbd13f137	-0.036118712
207	0xbdcae070	-0.09906089
208	0xbc92a172	-0.017899249
209	0xbc15745e	-0.009121982
210	0x3d5d091e	0.053963773
211	0xbdd68b8c	-0.10475835
212	0xbef37236	-0.47548074
213	0x3c0535e3	0.008130523
214	0x3eaccb22	0.33748728
215	0xbf28ebae	-0.6598462
216	0xbd349a79	-0.04409263
217	0xbd2cbc76	-0.042171918
218	0x3e7eeeac	0.24895734
219	0x3dcc6b30	0.09981382
220	0xbd1c2cb6	-0.038128577
221	0x3e9ff577	0.31241962
222	0x3e860e48	0.2618277
223	0xbe8a2df5	-0.26988187
224	0xbce01fa0	-0.02735883
225	0xbde892b1	-0.11356104
226	0xbd194af7	-0.037425008
227	0x3e18be77	0.14916407
228	0xbda59ec0	-0.0808692
229	0xbd71d76c	-0.059043333
230	0xbeedbe07	-0.46434042
231	0x3e036a05	0.12833412
232	0x3d9dd9f2	0.077075854
233	0xbecc7d90	-0.39939547
234	0x3dae5c9f	0.0851376
235	0xbd111850	-0.035423577
236	0xbd8c50ea	-0.06851371
237	0x3da553bf	0.08072614
238	0x3c11ca24	0.008898292
239	0xbdfaa1bb	-0.12237879
240	0xbd3baed3	-0.045821022
241	0xbdd13995	-0.10216061
242	0x3d086d39	0.033307288
243	0xbb1aa359	-0.0023595898
244	0xbd1ca77a	-0.038245656
245	0xbcf68be1	-0.030095996
246	0xbe5aa566	-0.21352157
247	0x3d9b1655	0.07572619
248	0xbeaf2df9	-0.34214762
249	0x3d47be88	0.04876569
250	0xbdfc722e	-0.123264655
251	0xbd8799b3	-0.06621113
252	0xbdbfa328	-0.093572915
253	0x3d509aa1	0.050928716
254	0x3e3588e8	0.17728007
255	0xbde9acd9	-0.11409921

bias f4 [6]
0	0x3dc37f0b	0.09545716
1	0xbd700cbc	-0.058605894
2	0x3e287297	0.16449963
3	0xbcd32ea9	-0.025779085
4	0xbd45d3ab	-0.048297565
5	0xbce10ea9	-0.02747281

weight f4 [1, 6]
0	0xc0282abc	-2.6276083
1	0xbdf5e1f3	-0.12005987
2	0xc0508156	-3.257894
3	0x3fdfe689	1.7492229
4	0x3fe06b96	1.7532833
5	0xbfc9fb48	-1.577981
