Data/Torch models/Model Records/P2_20240716_L_channel2_fold0_round2.pt (torch, 10967 bytes, 5 tensors)

weight f4 [18, 4]
0.8509048 0.83725893 -0.48167923 -0.22350463 0.55366313 -0.4184557 -0.34740803 0.7775808
-0.41733056 -0.122522645 -0.6123381 -0.37667483 0.6665993 0.09377144 1.2775865 1.0931461
2.1150908 1.2552835 -0.01090575 -0.06457229 1.087722 1.3530235 -0.4568462 1.1447972
-1.6084917 0.15041858 0.6790173 0.17018075 -0.0040039006 0.33737847 1.0940138 -0.6147847
-0.36287802 -0.29305118 -0.35767937 -0.067647874 1.364899 -1.2505888 -0.43924898 0.08395303
-0.32745254 -0.07235527 -0.39523226 -0.0013025403 0.77800393 -0.78883266 -0.42469895 -0.72392637
0.88712865 0.34237814 -0.0039873966 -0.859764 0.49346507 -0.91312474 0.32426676 -0.47611412
-0.024955256 1.3220184 0.8024225 0.0687635 -0.3195511 -0.47952098 0.0693779 0.25792843
1.1765143 -0.53861547 0.9594971 1.2352875 0.3659925 -0.38764173 0.020821154 0.047478437
00000000: e6d4 593f 9a56 563f a99e f6be 66de 64be
00000010: debc 0d3f d33f d6be 77df b1be 890f 473f
00000020: 5aac d5be 27ed fabd 31c2 1cbf 86db c0be
00000030: 40a6 2a3f 3e0b c03d f487 a33f 36ec 8b3f
00000040: a65d 0740 21ad a03f 08ae 32bc 7a3e 84bd
00000050: 793a 8b3f e02f ad3f bfe7 e9be b788 923f
00000060: 0ee3 cdbf 5407 1a3e 14d4 2d3f dd43 2e3e
00000070: 2733 83bb dfbc ac3e a508 8c3f 8862 1dbf
00000080: 26cb b9be ce0a 96be c021 b7be f88a 8abd
00000090: 03b5 ae3f 4b13 a0bf 3ee5 e0be 91ef ab3d
000000a0: dca7 a7be 002f 94bd e25b cabe 00ba aaba
000000b0: 442b 473f f0f0 49bf 2472 d9be 3d53 39bf
000000c0: dd1a 633f 304c af3e b5a8 82bb 7e19 5cbf
000000d0: 74a7 fc3e 8bc2 69bf 4b06 a63e 3bc5 f3be
000000e0: f76e ccbc e637 a93f 906b 4d3f e1d3 8c3d
000000f0: 349c a3be c683 f5be 0016 8e3d 320f 843e
00000100: 0598 963f b4e2 09bf 9aa1 753f e71d 9e3f
00000110: 5e63 bb3e fa78 c6be 2091 aa3c c078 423d

bias f4 [18]
0.75590074 0.7284108 0.7847692 0.69825536 4.4209883e-06 -0.6201788 1.7014481 0.06702362
-0.4442091 0.3249581 -0.1767677 1.1595196 0.025869742 0.57196206 -0.31968722 -0.41464674
-0.12757637 -0.37546808
00000000: b682 413f 2179 3a3f a2e6 483f ddc0 323f
00000010: 0058 9436 0ac4 1ebf 0dc9 d93f ae43 893d
00000020: 606f e3be e860 a63e 9802 35be 236b 943f
00000030: c8ec d33c 1b6c 123f 0bae a3be 944c d4be
00000040: 61a3 02be 5a3d c0be

weight f4 [6, 324]
-0.31661916 0.37915087 0.06559374 0.43765298 -0.3805242 -0.00021764747 0.14302027 -0.16986787
-0.0043430254 0.2607773 -0.042900655 -0.08548894 -0.34670496 0.035676595 -0.081687056 0.02571642
0.5328105 0.049707126 0.07114051 0.14289466 0.080788374 0.27912763 0.07481821 0.13555357
0.13598992 -0.07386601 -0.010486968 -0.06693058 -0.045217104 -0.15912782 -0.108258694 -0.06809941
0.2228029 -0.0009832047 0.20863326 0.053054202 0.18435618 0.025050595 0.0071343235 0.009807139
0.08260099 0.036958113 0.10198193 0.042211894 -0.05353764 -0.16544214 0.040809464 0.02961366
0.101915516 -0.025019716 -0.017998302 -0.046760004 -0.10354502 -0.03628423 0.23492342 0.031782802
0.04341967 0.13651629 0.20079283 0.014430804 0.03857343 -0.002783779 -0.045989614 0.02458893
0.037695285 0.11994021 0.16297016 0.07623922 0.093199395 0.053315606 -0.10195746 0.026131522
0.13094835 0.12436031 -0.013701573 0.31996715 0.146509 0.08252803 0.08975876 0.11475779
-0.03624277 -0.07076167 -0.049582854 -0.13526836 0.009574222 -0.05669728 0.13547975 -0.0047294833
0.21204896 0.019466367 0.001477433 0.03468545 0.05780773 0.26709202 -0.09631298 -0.048951652
0.21354356 0.04339223 0.05495773 -0.07132681 -0.019718196 -0.082550004 -0.07404323 0.039266657
-0.07696437 -0.035474174 0.10700514 -0.028844602 -0.01594013 0.21642047 0.01171743 0.27313423
-0.06708834 0.12857284 0.086423695 -0.0749865 -0.005942151 0.04343693 -0.009296577 0.015592505
-0.1332044 0.012159026 -0.09556823 -0.026476251 0.29382378 -0.016907439 0.13769688 0.09181345
-0.14174479 0.4733001 0.4197531 0.18146473 -0.061436534 0.15750937 -0.022856481 -0.04085007
0.021326307 -0.12806198 0.0984614 -0.027954742 0.19765586 0.054806035 0.42786744 -0.01712466
0.17534736 0.27132607 0.07786039 0.058323335 0.021756997 0.10374947 0.041782595 -0.19229434
-0.047322735 0.34769088 -0.0067526437 0.22126949 -0.030357275 0.1212287 -0.26089114 -0.01753046
0.11146334 0.028862152 0.27398825 -0.063985154 0.15182309 -0.09789262 0.22416557 0.08004274
0.054993816 0.08052297 -0.024552504 -0.07184752 -0.02793134 0.07644527 0.23104644 -0.048876047
0.30338496 0.02578583 -0.24238074 -0.048229285 0.14226313 0.008345788 0.007841227 0.27559438
0.20966536 -0.031186974 0.10719575 0.28075612 0.037980262 -0.023533674 -0.02506035 0.065155104
0.1354712 0.13801397 0.17931421 -0.052111376 0.13241121 0.0028313212 -0.097017705 0.06574279
0.14827324 -0.16003335 -0.42164943 -0.4767248 0.16980211 0.0038023149 0.053364117 0.2417016
-0.014716063 0.36883828 0.023322843 0.33253995 -0.22273447 -0.0104716495 -0.1888979 -0.052687287
0.038360443 -0.16270679 0.09355315 0.15442052 0.033316515 0.19687366 0.25934273 0.16552372
0.03440811 -0.50290555 0.034528833 -0.3459351 -0.105793305 -0.2532313 0.28292337 -0.038972966
-0.0792973 -0.040866118 -0.054475967 -0.0017744161 -0.092237025 0.17494562 -0.12739366 -0.036648884
0.20810053 0.09445164 -0.013174374 -0.11348494 -0.043581985 -0.0040514795 -0.023235561 0.03484107
0.08163649 0.035277482 0.075767145 0.0045226887 0.056265857 0.22444947 0.22948033 -0.22939998
00000000: e81b a2be 1020 c23e 0356 863d 0d14 e03e
00000010: 11d4 c2be 4c38 64b9 e873 123e d8f1 2dbe
00000020: f04f 8ebb 9a84 853e 99b8 2fbd d314 afbd
00000030: 5083 b1be 9f21 123d 8b4b a7bd 3eab d23c
00000040: 4566 083f b399 4b3d 1eb2 913d fa52 123e
00000050: 6074 a53d d1e9 8e3e 4a3a 993d 8ece 0a3e
00000060: f140 0b3e 1047 97bd 88d1 2bbc e612 89bd
00000070: 9235 39bd 67f2 22be bcb6 ddbd b477 8bbd
00000080: 7226 643e e0de 80ba f5a3 553e 5d4f 593d
00000090: dec7 3c3e e836 cd3c 0bc7 e93b 1fae 203c
000000a0: b52a a93d 6461 173d e7db d03d 61e6 2c3d
000000b0: 494a 5bbd aa69 29be d327 273d 5998 f23c
000000c0: 15b9 d03d 26f6 ccbc 2d71 93bc 6b87 3fbd
000000d0: 690f d4bd c69e 14bd c48f 703e af2e 023d
000000e0: d3d8 313d edca 0b3e a39c 4d3e 2e6f 6c3c
000000f0: 2cff 1d3d 1070 36bb 9b5f 3cbd b96e c93c
00000100: 5f66 1a3d 36a3 f53d a6e1 263e 4f23 9c3d
00000110: 53df be3d 7761 5a3d 13cf d0bd c611 d63c
00000120: 5317 063e 9eb0 fe3d 907c 60bc bcd2 a33e
00000130: 7506 163e 7504 a93d 71d3 b73d 2206 eb3d
00000140: 4c73 14bd 7feb 90bd 6417 4bbd ca83 0abe
00000150: 33dd 1c3c 683b 68bd 34bb 0a3e c8f9 9abb
00000160: 5d23 593e ee77 9f3c 6da6 c13a 5512 0e3d
00000170: ccc7 6c3d 49c0 883e bd3f c5bd 8781 48bd
00000180: 2aab 5a3e 0dbc 313d 5b1b 613d ca13 92bd
00000190: 0e88 a1bc fa0f a9bd faa3 97bd 13d6 203d
000001a0: 7f9f 9dbd 5e4d 11bd 8325 db3d 844b ecbc
000001b0: e094 82bc 549d 5d3e 77fa 3f3c 40d8 8b3e
000001c0: 9d65 89bd 99a8 033e e8fe b03d 8692 99bd
000001d0: 60b6 c2bb ecea 313d ac50 18bc b577 7f3c
000001e0: bc66 08be a736 473c 47b9 c3bd b9e4 d8bc
000001f0: 1270 963e 7881 8abc 6900 0d3e b108 bc3d
00000200: 8c25 11be 6454 f23e e1e9 d63e e4d1 393e
00000210: e0a4 7bbd 234a 213e 843d bbbc 6752 27bd
00000220: 82b4 ae3c ae22 03be 21a6 c93d 5801 e5bc
00000230: 4c66 4a3e 4b7c 603d 7111 db3e 0449 8cbc
00000240: 428e 333e 40eb 8a3e 4575 9f3d 73e4 6e3d
00000250: bb3b b23c 9a7a d43d 3a24 2b3d cfe8 44be
00000260: 7cd5 41bd 8a04 b23e 4845 ddbb 7894 623e
00000270: d2af f8bc c146 f83d 8693 85be 0a9c 8fbc
00000280: e446 e43d 5270 ec3c 3048 8c3e a60a 83bd
00000290: 8377 1b3e ed7b c8bd a98b 653e 73ed a33d
000002a0: 3241 613d 3ae9 a43d 5522 c9bc cb24 93bd
000002b0: 44d0 e4bc 568f 9c3d 7097 6c3e 4032 48bd
000002c0: 4655 9b3e ce3c d33c a832 78be 128c 45bd
000002d0: 6dad 113e c6bc 083c 7d78 003c b51a 8d3e
000002e0: 84b2 563e d37b ffbc 7289 db3d 44bf 8f3e
000002f0: 3191 1b3d b1c9 c0bc 5d4b cdbc 0a70 853d
00000300: f6b8 0a3e 8953 0d3e 259e 373e bd72 55bd
00000310: ce96 073e b08d 393b 38b1 c6bd 28a4 863d
00000320: f1d4 173e c8df 23be 6fe2 d7be 4615 f4be
00000330: 9be0 2d3e 4230 793b 5594 5a3d a080 773e
00000340: a41b 71bc 5fd8 bc3e 8c0f bf3c ad42 aa3e
00000350: 8114 64be 4891 2bbc 736e 41be a0ce 57bd
00000360: d71f 1d3d 9c9c 26be cb98 bf3d 6a20 1e3e
00000370: e676 083d 4099 493e 92c8 843e 0d7f 293e
00000380: 85ef 0c3d 6bbe 00bf 1b6e 0d3d 681e b1be
00000390: 29aa d8bd 88a7 81be 55db 903e 1ea2 1fbd
000003a0: 9f66 a2bd 3b63 27bd 3122 5fbd 8693 e8ba
000003b0: c4e6 bcbd f224 333e 7c73 02be 241d 16bd
000003c0: 4e18 553e dd6f c13d 54d9 57bc cb6a e8bd
000003d0: 0683 32bd 46c2 84bb 8158 bebc 83b5 0e3d
000003e0: 0831 a73d 1f7f 103d ce2b 9b3d 1033 943b
000003f0: 0777 663d 15d6 653e e4fc 6a3e d4e7 6abe

bias f4 [6]
0.19306228 0.27264982 0.25362164 -0.067094184 -0.09130773 0.03836047
00000000: 1eb2 453e c298 8b3e b2da 813e ad68 89bd
00000010: 8cff babd de1f 1d3d

weight f4 [1, 6]
-1.9296637 -2.1049001 -2.8735833 0.07493777 2.4458814 2.2082553
00000000: 38ff f6bf afb6 06c0 cae8 37c0 f978 993d
00000010: 5289 1c40 0e54 0d40
