Data/Torch models/Model Records/P2_20240716_L_channel8_fold1_round0.pt (torch, 10967 bytes, 5 tensors)

weight f4 [18, 4]
000000 9c 24 a0 be 44 f6 c9 be dc d6 de 3e f0 37 6b 3d
       -0.3127793 -0.39445698 0.435233 0.057426393
000010 cc 2b 36 bf 2a e5 fe be 63 f0 99 be 75 44 fe be
       -0.7116058 -0.49784213 -0.30066213 -0.49661604
000020 4d f0 ab bd d6 51 ae 3e cd 11 86 3d ce fb a8 be
       -0.08395443 0.3404681 0.06546364 -0.33004612
000030 e0 85 c6 3d a0 ae c3 be 20 a7 18 3e fa c9 b7 be
       0.096935034 -0.38219166 0.14907503 -0.35896283
000040 ea 84 d3 be 84 c4 c0 be e2 fd c7 3e c8 d3 96 3e
       -0.41312343 -0.3764993 0.39060885 0.2945845
000050 c0 26 9b bd 0a 3f dd be 76 0d a3 be cc 9a 48 be
       -0.0757575 -0.43212157 -0.31846207 -0.195903
000060 82 b9 08 3c 31 e8 93 3e c6 47 2d be b6 2b 57 bc
       0.00834501 0.28888085 -0.1692191 -0.01313298
000070 b0 6e 09 be 00 0e 21 3d 60 43 2d bd f0 9f a5 3e
       -0.1342113 0.039319992 -0.042300582 0.32348585
000080 60 7f be bc b6 87 c2 be b8 ce 82 3d c8 d5 ff 3d
       -0.023254097 -0.37994164 0.06387085 0.124919474
000090 20 ee 17 be d2 75 fe be 32 5b 9f 3e d0 61 37 be
       -0.14836931 -0.49699265 0.31124264 -0.17908406
0000a0 31 bc 76 3e 06 14 37 3e 0a ba 2e 3f 4d 80 61 3f
       0.24095227 0.17878732 0.68252623 0.88086396
0000b0 48 27 4c 3e 2d 76 f6 be b1 81 22 be f5 39 90 be
       0.1993686 -0.48137036 -0.15869786 -0.28169218
0000c0 98 70 6b 3f 45 74 73 3f ea 56 b0 be d9 3a af 3e
       0.9196868 0.9509929 -0.3444131 0.34224585
0000d0 c6 a9 47 3f 5b 54 79 3f cf b8 d6 be 23 73 83 bd
       0.7799343 0.9739434 -0.41937873 -0.06418445
0000e0 cc 8f 00 be aa 43 a7 3d 05 0f e5 3e 2d d0 75 3f
       -0.12554854 0.08167203 0.44738021 0.96020776
0000f0 3c 35 df be 28 d5 4d be 98 99 1a be 38 80 03 3e
       -0.43595302 -0.20100844 -0.15097654 0.1284188
000100 15 a8 0e 3f da 3e 6b 3e 05 29 10 bf de 42 97 be
       0.5572522 0.22973195 -0.5631259 -0.29543203
000110 86 d1 89 be 90 8d 4c 3e ce d8 e4 be dc 2d c6 be
       -0.26917666 0.19975877 -0.4469666 -0.38706863

bias f4 [18]
000000 56 b3 f0 be 7c 4c c1 3f 75 ae 04 3c 0c 6e 5d be
       -0.47011822 1.5101466 0.008098234 -0.21624011
000010 0c 9c dd be 00 22 f5 bb 87 37 f9 3e b4 65 cc be
       -0.43283117 -0.0074808598 0.48675177 -0.39921343
000020 64 2e e3 be 2c b7 5c be a3 bc 76 be cc b7 57 3f
       -0.4437133 -0.2155425 -0.24095397 0.84264827
000030 0f 0a 31 be 34 3b 9b be ea 8d 00 3e 00 86 df bb
       -0.17288993 -0.30318606 0.12554136 -0.006821394
000040 fc ed 04 3f 0a aa d0 be
       0.51925635 -0.4075473

weight f4 [6, 324]
000000 02 a1 f0 3c 17 fc ff 3a ad f5 7b bb a1 ea 11 3d
       0.02937365 0.0019530085 -0.0038445995 0.03562415
000010 f5 4b 33 3d 09 e2 16 bd 78 84 7d bd f0 76 0a bd
       0.04377361 -0.036836658 -0.06189391 -0.033804834
000020 37 a9 2b bd 13 8a 04 3d 2c ca 88 3b 4d 20 01 bd
       -0.041909423 0.03235824 0.0041744914 -0.031524945
000030 97 0a 19 bd ef a2 d7 bd f9 39 cf bc 94 1c 63 bc
       -0.037363615 -0.10529124 -0.025296198 -0.013861794
000040 cb 6b be bc 99 4a 1c 3d 50 97 09 bd 93 e6 68 3c
       -0.023244759 0.03815708 -0.03359157 0.014215129
000050 6d 90 84 3b 88 d8 fc 3b 37 30 30 3d 3f f0 62 3d
       0.004045537 0.007716242 0.04301473 0.055404898
000060 9a b0 62 bd 9e 66 9b 3c 60 f4 a3 bc 3e 1d 94 3c
       -0.0553442 0.01896983 -0.020013988 0.01808035
000070 f6 71 ba bc cd a5 c4 3c 2c 0a 93 bb c7 a5 f9 3c
       -0.022759419 0.024004841 -0.0044872966 0.030474557
000080 f8 ae 20 bd 60 37 9b ba 67 bf da bc 23 bf 02 3d
       -0.039229363 -0.0011842065 -0.026702596 0.031920563
000090 00 4b 14 bc a7 b4 9f 3c 27 0f 19 3d 20 92 ad bb
       -0.0090510845 0.019495321 0.037367966 -0.0052969605
0000a0 e5 1e 4f 3d 14 55 63 3c 3a 8d ca bb bb 43 19 3d
       0.050566573 0.013875265 -0.0061813863 0.03741811
0000b0 30 7e 51 bc 47 28 5a 3d 46 23 1e 3d 09 2d 7f bd
       -0.012786433 0.053261068 0.038607858 -0.06229881
0000c0 23 97 44 bd 3f 06 8c bd 06 a6 6c 3d e4 38 2c bd
       -0.047995698 -0.06837129 0.05777552 -0.042046443
0000d0 ec ce ea 3b 02 6d e6 3c 3a 39 00 bd a4 b5 45 3d
       0.0071657803 0.02812815 -0.031304576 0.04826893
0000e0 cd 58 4c bb 1c f2 76 bc 10 dc ad 3b ac 25 55 3c
       -0.003118086 -0.015072372 0.0053057745 0.01300947
0000f0 e1 91 85 bb b7 2e 4d bd 94 c7 3c bc 00 50 75 b7
       -0.004076228 -0.05009338 -0.0115221925 -1.4621764e-05
000100 5d 8c 46 3c 34 bd f5 bc 7c 40 e4 bc bf 03 e7 3c
       0.012118426 -0.029997446 -0.02786278 0.028200028
000110 dd ee c4 bb c0 d7 bd ba 82 b8 92 bc 74 fb 10 3c
       -0.00600992 -0.0014483854 -0.017910246 0.008849014
000120 4a 51 04 bd 40 f6 b6 ba 64 5e 41 bc 40 de 05 bd
       -0.032304086 -0.0013958886 -0.01180229 -0.032682657
000130 4a d5 84 bc e5 ce 55 3d 66 df 26 bc ca 58 f9 3c
       -0.016214985 0.052199263 -0.010185098 0.030437846
000140 c0 3d 42 ba 2f f8 16 3d 83 66 dc 3b ee b3 8e bd
       -0.0007409714 0.03685778 0.0067260875 -0.069679126
000150 36 93 60 bc e8 a6 96 3c cb 7b d3 3c 20 df e9 ba
       -0.013706973 0.018390134 0.025815865 -0.0017842986
000160 44 bc ca 3b c2 5c e3 3c 50 55 6c 3b 6d e8 fb bc
       0.006186994 0.027754191 0.0036061592 -0.030750478
000170 59 1f 3d ba e4 2f 61 bc e6 48 a2 3c 94 2a 1d 3c
       -0.0007214449 -0.013744328 0.019810151 0.009592671
000180 86 9d 07 bd f2 53 80 3c 55 71 2d 3d 02 c4 85 3c
       -0.03310921 0.015665028 0.04234441 0.016328815
000190 f4 9e 22 bb 9a 81 0e ba b3 c2 b8 bc ed db 92 bd
       -0.0024813982 -0.0005436182 -0.022553777 -0.07170854
0001a0 9e 46 88 bc 71 d6 11 3d ea fc b2 3a a8 69 cf 3b
       -0.016635235 0.035604898 0.0013655697 0.006329734
0001b0 9c 42 09 bc b6 0c 42 3c 02 41 29 bd ce 89 92 bc
       -0.008377697 0.011843851 -0.041321762 -0.017887976
0001c0 e3 09 0a 3d df cd 08 3d 0d 32 9f bd 28 1d e4 3b
       0.033700835 0.03339946 -0.07773218 0.0069614835
0001d0 66 05 2e bd 25 49 0b 3d 16 9f 30 3d 59 34 5d 3b
       -0.042485617 0.034005303 0.043120466 0.0033753125
0001e0 66 3b c9 bd 52 80 af bd 1a 19 2e 3d 3e d9 b5 3c
       -0.098257825 -0.08569397 0.042504407 0.022198316
0001f0 7f 59 7d bd e7 41 2c bd 96 39 11 bd 27 78 8e 3d
       -0.06185293 -0.042055037 -0.03545531 0.06956511
000200 f9 6f 10 bd 48 2f 50 bc a1 33 23 3d c8 11 20 bc
       -0.035263035 -0.012706585 0.03984416 -0.009769864
000210 01 e7 9e bd 29 e1 1f 3d 5f 17 16 3d 76 3b 8d bc
       -0.07758904 0.03903309 0.036643382 -0.017240267
000220 9e 57 0c bc c7 60 02 3d bc ca 36 bd cd c1 c4 bd
       -0.008565811 0.031830575 -0.044626936 -0.09607277
000230 6a 24 f5 3c d9 9b 06 3d 65 f8 bd bd be 29 da 3c
       0.02992459 0.03286347 -0.09275893 0.026631232
000240 d0 dd 48 bc 32 cc 56 3d a3 25 46 3d 48 88 ec 3b
       -0.0122599155 0.05244083 0.048375737 0.0072183944
000250 53 d0 60 3d 90 f7 ba bb 13 a2 90 3c 9e 9a 9a 3c
       0.054886173 -0.0057057813 0.017655408 0.018872555
000260 58 71 ce bb 2e a3 9b 3c e3 7a 95 bd 9a 59 c8 b9
       -0.0063001327 0.018998709 -0.072988294 -0.0003821373
000270 b1 95 b2 bb 56 c1 16 3c d0 10 45 bd 82 f9 bc 3c
       -0.0054499735 0.009201368 -0.048111737 0.023068193
000280 a4 af 22 3c 44 35 1e bd 07 8d 50 bd 65 50 07 bd
       0.009929571 -0.038625017 -0.050915744 -0.033035655
000290 6b 54 08 3d 32 f7 b7 3c 7e 6b 48 bd 9c 94 ad bc
       0.033283632 0.02245674 -0.048930638 -0.021189027
0002a0 97 96 2e 3d 29 ed 1a bd 21 0a 2b 3d cb 30 34 bd
       0.042624082 -0.03782383 0.041757707 -0.043991845
0002b0 fe 32 08 3d f8 d8 0c 3d d2 f3 7e bd bd 96 1a bb
       0.033251755 0.034386605 -0.062244244 -0.0023588382
0002c0 46 21 73 3c 34 af 17 bd a9 17 8e bd 04 c3 71 3c
       0.014839476 -0.03703232 -0.069381066 0.014755968
0002d0 67 58 3f bd 43 d3 56 3c fe f0 e4 bc c5 c6 30 3d
       -0.046715166 0.013111892 -0.027946945 0.04315831
0002e0 04 19 70 3c a0 63 f4 bb c9 59 fc 3c 87 f2 ee bc
       0.014654402 -0.0074581653 0.030804532 -0.02916838
0002f0 29 e0 55 bd ce 65 01 bd 1d a5 07 3d a8 c5 9f 3c
       -0.05221573 -0.03159123 0.03311645 0.01950343
000300 06 c6 99 bc 45 6c 63 bd a2 74 b8 bc 6e 6e a2 3c
       -0.018771183 -0.055523176 -0.022516552 0.019828048
000310 90 d2 4a bb 0a 2f 9b bc c6 3e 39 bd fd 7a ac ba
       -0.003094826 -0.018943328 -0.04522588 -0.0013159212
000320 0d b8 4b bd f5 42 50 3d a0 4c c8 bc 17 af 13 bd
       -0.04973607 0.050845105 -0.0244506 -0.03605565
000330 f3 21 52 bd 5c 5c 0c bd 58 47 ca bb 21 82 45 3d
       -0.051301908 -0.03426777 -0.0061730556 0.048219804
000340 58 c5 95 bc 1d f3 e2 3c 99 11 56 bd 3c 16 a6 bc
       -0.018282577 0.027703816 -0.052262876 -0.020274274
000350 bb 4f 9d bd 57 82 21 3d 11 7f 46 3d 64 ce e6 bc
       -0.07681223 0.039430942 0.048461024 -0.028174587
000360 78 93 76 bc 2f 6b cf 3c 0d 06 21 bd 19 47 5e 3d
       -0.015049808 0.025319664 -0.03931241 0.054267023
000370 10 aa 52 bd d3 2f 37 3d a0 76 de 3c 44 57 c4 bc
       -0.051431715 0.044723343 0.027156174 -0.023967393
000380 fc 19 21 3c bd 28 4b 3d c3 8c 17 bd 7b 45 ff 3c
       0.009832855 0.049599398 -0.036999475 0.03116106
000390 a7 cf 06 bd 30 03 0b bd 9d 09 ec 3c d8 02 e3 3b
       -0.032912876 -0.033938587 0.028813178 0.0069278292
0003a0 01 6d ab ba 61 bb 38 3d d6 6e aa bc 8d 63 d0 bc
       -0.001307875 0.045100573 -0.020804804 -0.025438095
0003b0 3d 4d 2c 3d f9 98 16 3d 8f 6f 23 3d 10 1f a0 bb
       0.042065848 0.03676698 0.039901312 -0.0048865154
0003c0 b3 68 80 bd b4 ce 68 3c fc 93 32 3c 8c 5a 3b 3c
       -0.0626997 0.014209438 0.01089954 0.011435162
0003d0 a4 aa 81 bd 2a 7b d3 3c 79 2b a2 3c 6b c4 0c bc
       -0.06331375 0.025815565 0.01979612 -0.008591752
0003e0 32 79 64 3c a9 80 2f bd ad ba 78 bc a5 8c 0d 3d
       0.013944911 -0.04284731 -0.015181226 0.034557957
0003f0 aa 45 af bc e0 98 d7 bc e8 1f 2f bc ac 50 30 bc
       -0.021395523 -0.026318014 -0.010688759 -0.010761421

bias f4 [6]
000000 08 6a d9 3c 2a d8 50 3e fb 9b ef 3d 10 e0 99 bc
       0.026539817 0.2039496 0.11699673 -0.0187836
000010 8d 05 a4 3d 06 dc 73 3e
       0.08008871 0.23814401

weight f4 [1, 6]
000000 58 15 b5 3d 78 81 90 bf d7 78 2c bf 1e b8 3d 3c
       0.088419616 -1.1289511 -0.67371887 0.0115795415
000010 9c d3 10 bf 37 98 b9 bf
       -0.5657289 -1.4499577
