Data/Torch models/Model Records/P2_20240716_L_channel10_fold0_round0.pt (torch, 10967 bytes, 5 tensors)

weight f4 [18, 4]
000000 e8 53 08 3e c0 31 2f 3e 7c 5f 45 3e ed f4 6a bd
       0.13313258 0.17108822 0.19274706 -0.057362486
000010 e5 26 d6 be 3e 07 8c 3c 0c ff 03 3f 0f 49 6a 3f
       -0.4182655 0.017093297 0.51561046 0.9151773
000020 a4 e0 0e be 07 a8 09 be 6b dd 7f bd 24 69 c3 be
       -0.13952881 -0.13443004 -0.06246702 -0.38166153
000030 68 b0 d4 be d2 16 89 3e 92 60 ca be 8c c7 a2 be
       -0.41540837 0.26775223 -0.39526802 -0.31792867
000040 24 e9 fd bc 6a 94 a5 bd dd 37 ea be 03 6e 98 be
       -0.03099496 -0.08084948 -0.45745745 -0.29771432
000050 ed 4d 85 bf 7f 4a 8d be eb e6 58 3f ba 7f 39 3f
       -1.0414406 -0.27595899 0.8472735 0.7246052
000060 68 11 02 bf 44 e8 e6 be 7c bd 1c 3e 0f ed aa bc
       -0.5080781 -0.4509908 0.15306658 -0.020864991
000070 38 85 c2 bd ac 0b 30 3d ea 59 d1 be a5 0f 84 be
       -0.09498066 0.04297988 -0.4088891 -0.25793186
000080 b7 eb ae bd 83 d2 05 3f e7 fc 84 3e ad f7 f7 3e
       -0.08541053 0.5227434 0.259742 0.4843115
000090 e0 c2 46 be be 79 db be 50 48 3c bd c0 84 40 3d
       -0.19410276 -0.4286632 -0.0459674 0.0470016
0000a0 d7 ee 6b 3f 23 51 a6 3f 6a 1e 16 be f1 62 f1 3e
       0.92161316 1.2993511 -0.1466004 0.471458
0000b0 f6 bb 37 bf e4 55 2d bd 1a fa 83 be b7 d1 71 be
       -0.7177118 -0.04231824 -0.2577675 -0.23615156
0000c0 06 13 cd 3e b4 7a be be 8c 52 6b be 50 45 51 be
       0.40053576 -0.3720299 -0.22980708 -0.20436597
0000d0 ed a4 4f 3e bd cd 1b 3f 70 f9 56 3f ee d8 bf 3e
       0.20277758 0.60860807 0.8397436 0.37470192
0000e0 c9 ec 4e 3e 77 e5 3b be 4f 1e 92 be 6a 85 02 be
       0.20207514 -0.18349253 -0.2853875 -0.12746206
0000f0 06 f4 c1 be 5e 16 fd be f2 c8 bc be e0 50 d5 3e
       -0.37881488 -0.49431127 -0.3687206 0.41663265
000100 a6 0b ef 3c 64 4e 51 3e e5 3c 78 3d 6e f4 dd 3e
       0.02918036 0.2044006 0.06060495 0.43350548
000110 2c 05 78 be 5f f1 86 be d9 3e 15 3f 89 72 c8 be
       -0.24220723 -0.26356027 0.5829902 -0.39149883

bias f4 [18]
000000 ae 73 fe be 4a 88 ea bd a6 e1 0e 3e 40 46 2d bd
       -0.49697632 -0.11451776 0.13953266 -0.042303324
000010 cb 12 62 3f 6b fe 9d 3f 39 86 75 3f 34 36 24 3f
       0.88309926 1.2343267 0.9590793 0.6414521
000020 ed 18 3a be b0 51 ec be 3f c8 28 3e 7b be 37 3f
       -0.18173571 -0.46156073 0.16482638 0.71775025
000030 88 16 cf be 13 17 ac 3d d6 ce d8 3e 6c ba 5e be
       -0.40446877 0.084028386 0.42345303 -0.21750802
000040 da 41 c8 bd 2e b1 0b 3f
       -0.09778185 0.5456723

weight f4 [6, 324]
000000 f1 b3 3b 3d ba 31 31 3e b4 04 18 bd 52 7c fa bc
       0.045825902 0.17304125 -0.03711386 -0.030576859
000010 0e 0f ca 3d 5a 1c 77 3e 73 02 a6 3d a0 de dd 3d
       0.09866153 0.24131909 0.08105936 0.10833478
000020 0a 64 77 3d 8b de 42 3d b8 35 34 3d 9f 0f 91 3d
       0.06039814 0.047575515 0.043996543 0.070830576
000030 a4 90 d7 bc be f1 80 bd ae 68 e3 3d e0 34 0b bb
       -0.026314087 -0.06296109 0.111039504 -0.0021241233
000040 5f 7b 00 3d 68 86 49 bd 00 04 fb bc bf 5a cc 3d
       0.031367656 -0.049200445 -0.030641556 0.09978246
000050 bd 8e ce 3d fa 7b 03 bd 40 d4 18 bd 98 10 c1 3e
       0.10085819 -0.032100655 -0.037311792 0.37707973
000060 5a a3 f0 3d f1 8f d2 3c 20 d9 b5 3d a1 95 18 3d
       0.11749907 0.025703402 0.08879304 0.037252072
000070 10 b4 ba 3d 9b 4f 80 3e f0 04 c5 bb d3 0c 1d 3e
       0.091163754 0.25060734 -0.0060125515 0.15336923
000080 51 b6 16 be e6 67 bb 3c a5 53 cd 3d f3 61 7b 3d
       -0.14717986 0.022876691 0.100257196 0.06137271
000090 88 67 ab bc ff 82 0d 3e ee 8e 60 3d 19 c0 5f bd
       -0.020923391 0.13819502 0.05482381 -0.054626558
0000a0 0c 18 96 bc 32 9e ac 3e 5d 9f 17 3e 13 f5 56 3d
       -0.018322013 0.33714443 0.14806886 0.052479815
0000b0 06 f6 7b 3c ea ea e4 3c c3 35 69 bd 70 9e 41 3e
       0.015378481 0.027944047 -0.056936037 0.18908095
0000c0 71 ae 03 3d a9 cd d4 3d 37 ed 09 3b 3f 8d 24 3d
       0.032148782 0.10390789 0.0021045932 0.040173765
0000d0 36 1a 86 3b fb b8 53 3d db c9 0e 3d 4f 50 0d be
       0.00409248 0.051690083 0.034860473 -0.13800167
0000e0 d0 17 64 3d 24 22 b9 bc 35 db e6 3d 26 42 69 3d
       0.055686772 -0.022599287 0.11272279 0.05694785
0000f0 a9 fd 03 bd 83 5d e3 3d dc 9f d3 3b 75 6c 47 3d
       -0.03222433 0.1110182 0.0064582657 0.048687417
000100 42 23 ac 3d 6d d5 29 3e f1 6f 1f 3d 01 70 32 3d
       0.084051624 0.16585322 0.038925115 0.043563846
000110 59 79 ed bb 8b 79 60 bd 3f 7c d0 bc 23 0c a9 3d
       -0.007247132 -0.054803412 -0.02544987 0.08254268
000120 d7 a9 14 bd ff fa de 3d 3e 44 97 3c 44 39 aa bc
       -0.036294784 0.108877175 0.018465158 -0.02077926
000130 44 22 9f bd f3 7e 08 3f 2e be 6f 3e 6e 17 86 3c
       -0.077702075 0.5331871 0.23412392 0.016368594
000140 17 41 f0 3d 1a 32 1b bd 49 c7 e8 be 16 6e 19 3e
       0.11731165 -0.037889577 -0.45464543 0.149834
000150 38 c8 c2 bc 2e fa 0b 3b 84 27 6d bd 96 17 3b bd
       -0.023777112 0.0021358836 -0.057899013 -0.04567679
000160 28 d7 15 3d 15 54 26 3e 50 77 5e bd cd a4 d4 3d
       0.036582142 0.16243012 -0.054313004 0.10382996
000170 78 b1 11 3d 37 cc 49 3d 79 1a 19 be 24 e7 dc 3e
       0.035569638 0.04926702 -0.14951505 0.43145096
000180 1c 68 09 3e 21 93 b2 bd e6 bb 91 3c d2 ae 98 bc
       0.13418621 -0.08719469 0.017789792 -0.018638048
000190 4d 57 48 be c5 58 42 3d 0e 2d ec 3c 94 c9 27 3e
       -0.19564553 0.04744794 0.028830077 0.1638549
0001a0 44 a2 c6 bd d8 1f 8e bc af 3b e6 3a 56 18 1f 3e
       -0.096989185 -0.017349169 0.0017565395 0.15536627
0001b0 df 32 e0 3c 02 8c 07 bd 6a 6a 8d 3d 53 59 14 3d
       0.027368007 -0.033092506 0.069050625 0.036218
0001c0 04 86 e2 bc 5e 66 2e 3e 40 15 97 3d ec d3 ab bc
       -0.027651794 0.17031237 0.073771 -0.020975076
0001d0 50 3f fe bb 17 13 06 3d ba 19 bd 3d 9d 1e 55 3d
       -0.0077590123 0.03273305 0.092334226 0.05203115
0001e0 a4 2f 2d 3c 36 01 20 3e df 42 37 3c 57 b9 12 3d
       0.01057044 0.15625462 0.011185377 0.035821285
0001f0 5f 00 ae 3b b5 1f 2e 3d 7a 69 06 bd 0c c3 b9 3c
       0.005310103 0.042510707 -0.032815434 0.022676013
000200 6a 1f bd 3c d2 c4 4f bd e1 c6 3b 3d 9b 2d 9b 3e
       0.023086268 -0.05072481 0.045843963 0.30308232
000210 fd 1e c5 3d 43 cc 05 bd c3 24 08 bb f7 fc 40 bd
       0.09625051 -0.032665502 -0.0020773865 -0.047116246
000220 8a df e4 bd 68 52 a5 3c d9 ce eb bc 4b 3b 23 3d
       -0.11175449 0.020180896 -0.028785156 0.039851468
000230 e6 32 b5 3c 5d 89 ed bc 5a 4a d6 bc 98 aa 9d 3d
       0.022118997 -0.028996164 -0.0261585 0.07698554
000240 f8 16 6e 3c fb a2 00 be a1 68 71 bd 64 16 e2 bc
       0.014531843 -0.12562172 -0.058937673 -0.027598567
000250 95 94 29 3e 4b 88 3a bd ee 5b 30 bd de 9f 19 bd
       0.16560586 -0.045540135 -0.04305642 -0.037505977
000260 42 f0 39 bd f1 d0 2d 3d 4c f6 2a bd 15 7d d6 bc
       -0.045395143 0.04243559 -0.041738793 -0.02618269
000270 3e a0 2a bd 6c 18 9e bb e3 cd 2e 3d a2 84 b4 3c
       -0.041656725 -0.0048246887 0.042676818 0.0220359
000280 bd d4 88 bd db ea e1 3d a1 c2 e3 bc a2 a7 35 3d
       -0.066812016 0.11031123 -0.027802767 0.04434932
000290 c2 04 58 ba 80 37 fa bc f9 bd dd 3d d5 c6 7e bc
       -0.0008240455 -0.030544043 0.1082725 -0.015550335
0002a0 37 77 29 bd 40 ba 87 3d 70 e5 a7 bc 70 33 1d bc
       -0.041373458 0.06627321 -0.020495147 -0.009594783
0002b0 eb 11 65 3e 35 f0 f2 3b 99 d0 2d 3d 61 dd 89 3d
       0.22370116 0.007413889 0.042435262 0.06731678
0002c0 f2 e4 e4 3a 36 f8 0a bd 0c f5 32 3d 1f 87 62 bd
       0.001746325 -0.03392812 0.043690726 -0.055304643
0002d0 5d a0 fa 3c a7 31 cf bd da 25 4c bd 60 91 58 bd
       0.030594045 -0.10116892 -0.049840786 -0.052873015
0002e0 53 fb 23 3d 90 07 ed 3c 9c bc 24 3d 1f 66 04 bd
       0.040034603 0.02893427 0.040218934 -0.032323953
0002f0 c7 eb a7 3c 26 42 0e bd a4 eb ec 3b c7 86 87 3d
       0.02049817 -0.034731053 0.007230239 0.066175036
000300 cd f3 11 3d 2e a7 87 3c b4 42 2c bc d4 94 2f bc
       0.035632897 0.01655921 -0.01051395 -0.010716636
000310 3c 49 6c bd dd 31 3b 3e 69 39 ee 3c 9a bd 05 be
       -0.05768703 0.1828074 0.02908011 -0.13060609
000320 ab 11 a8 3c 00 99 f0 bc 8f 6b fc 3d df 43 88 3d
       0.020516237 -0.029369831 0.12325203 0.066535704
000330 ff 3e ab 3d ec 1e 7b bc 21 44 74 bc 1f 5e 02 3d
       0.08361625 -0.015327197 -0.014908821 0.031828042
000340 bb 04 1f bd 32 30 52 3c 4b 09 cd bc 51 26 1d bb
       -0.03882287 0.0128288735 -0.025028845 -0.0023979137
000350 5b 70 c3 3d 5c b3 2d bc 32 2b 3f bd 53 f5 41 3e
       0.095429145 -0.010601845 -0.046672054 0.1894124
000360 9a 3a 41 bd 76 10 f2 bd 85 81 3b 3d 42 a4 af 3c
       -0.047175027 -0.11819546 0.045777816 0.021440629
000370 a4 bd 2d 3e 26 7b 52 bd 12 4d fa 3d fc 6b 0f 3e
       0.16966873 -0.051386975 0.12221731 0.14006037
000380 08 f6 16 be 58 11 b4 bb 05 40 5c be 98 b1 25 3d
       -0.14742291 -0.0054952316 -0.21508797 0.04045257
000390 c6 4b 8a 3c 68 d7 ee bd bc a5 36 3d f3 e6 44 3d
       0.016881835 -0.11662179 0.04459165 0.048071813
0003a0 ef 0f e6 bd 4c 29 9d 3d 3e bc 45 bd 7a f1 9a 3d
       -0.11233508 0.076738924 -0.048275225 0.07565589
0003b0 2a 16 15 bd a6 e9 ce 3c 0b d9 89 3d f8 8c 8c 3e
       -0.03639809 0.025257897 0.06730851 0.274513
0003c0 4f d1 a8 3d d3 5d 8c bd bc 94 41 3d 60 db a3 ba
       0.082430474 -0.06853833 0.047260985 -0.0012501292
0003d0 1c 21 e8 bb 68 70 02 bc 66 4d 01 bd f6 28 0a 3e
       -0.007084025 -0.00796137 -0.031567954 0.13492188
0003e0 6b 72 a8 3c f6 91 cb 3c 75 70 a8 3d 82 ab b1 3d
       0.020562371 0.024849873 0.082245745 0.08675291
0003f0 f7 a2 45 bd 17 4d 9c be d7 ef 25 3d ad 2d 4a 3d
       -0.04825112 -0.30527565 0.040511932 0.049359966

bias f4 [6]
000000 49 1e 2d 3e 1d 75 18 3e 2d b5 7d 3c bb 54 1b 3d
       0.16906084 0.14888425 0.01548509 0.037922602
000010 e1 67 f1 3d 3a e1 df 3d
       0.117873915 0.109316304

weight f4 [1, 6]
000000 d6 a0 02 c0 fd df f0 bf d2 1d ab 3e 31 23 fa be
       -2.0410666 -1.8818356 0.3342119 -0.48854974
000010 1d 5f 59 bf 6d 7d e5 bf
       -0.84910756 -1.7928902
