Data/Torch models/Model Records/P2_20240716_L_channel11_fold3_round1.pt (torch, 10967 bytes, 5 tensors)

weight f4 [18, 4]
-0.14596748 -0.032113135 -0.4795565 0.10379487 0.25924098 -0.48874146 -0.20800298 -0.17117792
0.453824 -0.36915243 -0.6633298 0.34200186 0.79409444 1.0459534 -0.21811843 0.295935
-0.19489057 -0.525972 -0.5237954 -0.21306586 -0.074786745 -0.077671185 0.54351544 1.022308
0.064564526 -0.27253997 -0.45060688 -0.14599174 0.05799602 -0.40558398 -0.34199595 0.1524688
0.7948163 0.30620977 -0.45426643 -0.4117204 0.72615016 0.2731919 -0.34703353 -0.78528285
-0.40247637 -0.49294746 -0.17308038 0.15319389 0.18053147 -0.46384487 -0.2605745 -0.1482078
0.42877072 -0.4635534 -0.037581258 0.048318062 -0.31460595 -0.42183635 0.14508198 -0.5709402
0.090605624 -0.43919015 -0.24781653 -0.42879957 -0.10919739 0.6866474 0.7770103 1.3489975
-0.4799407 0.3974052 0.06980932 -0.25053763 0.6900171 -0.6541749 -0.69144505 0.2909164
00000000: 8078 15be 1089 03bd 6e88 f5be 6892 d43d
00000010: 3cbb 843e 523c fabe bcfe 54be 4449 2fbe
00000020: 9f5b e83e 8c01 bdbe fbcf 29bf de1a af3e
00000030: c649 4b3f cde1 853f 705a 5fbe cb84 973e
00000040: 6591 47be 1aa6 06bf 7517 06bf f02d 5abe
00000050: cb29 99bd 1212 9fbd d423 0b3f fdda 823f
00000060: 683a 843d 5c8a 8bbe f2b5 e6be dc7e 15be
00000070: 3c8d 6d3d b4a8 cfbe 181a afbe c820 1c3e
00000080: 1579 4b3f 87c7 9c3e 9c95 e8be 04cd d2be
00000090: fae4 393f cfdf 8b3e 61ae b1be 4c08 49bf
000000a0: 6211 cebe 9c63 fcbe fc3b 31be dcde 1c3e
000000b0: 3edd 383e 137d edbe 056a 85be c9c3 17be
000000c0: d687 db3e df56 edbe ceee 19bd 29e9 453d
000000d0: 0814 a1be effa d7be 5f90 143e 2329 12bf
000000e0: 718f b93d 88dd e0be 9ec3 7dbe 9e8b dbbe
000000f0: e2a2 dfbd 20c8 2f3f 26ea 463f f3ab ac3f
00000100: caba f5be b278 cb3e 30f8 8e3d 7846 80be
00000110: f6a4 303f 0278 27bf 8b02 31bf fff2 943e

bias f4 [18]
-0.04451835 -0.39032948 0.49755841 0.027209623 0.84277755 0.0981069 -0.15717423 0.10423909
-0.0027617204 0.13297886 -0.36330438 0.6363905 0.034799393 1.0593146 0.98235595 -0.16544299
-0.28303313 0.5864743
00000000: e058 36bd 44d9 c7be fabf fe3e b7e6 de3c
00000010: 45c0 573f 45ec c83d 48f2 20be 4e7b d53d
00000020: fbfd 34bb 9c2b 083e 0803 babe 7dea 223f
00000030: cf89 0e3d 9f97 873f ae7b 7b3f e369 29be
00000040: b8e9 90be 2e23 163f

weight f4 [6, 324]
0.0067779236 -0.019627586 0.026539955 -0.1395413 0.17219606 -0.083632275 -0.04102552 -0.018596396
-0.053540472 0.00705351 -0.03243868 0.13183989 -0.06067669 0.22579163 0.1592408 -0.21714033
-0.0008225255 0.025603658 -0.044723116 -0.032189652 -0.011432174 -0.091126904 0.09569287 0.10599622
-0.042039335 -0.034427375 -0.07081482 -0.1586523 0.017781574 0.021060633 -0.02189827 0.08264518
0.06074537 0.17048417 0.04600432 -0.0026519059 -0.044525377 -0.039222613 0.04807429 -0.24914983
0.1585436 0.03591545 -0.010995388 -0.018663676 -0.035373222 -0.032633044 0.030381937 0.17676528
0.11915866 0.2562513 0.16758981 -0.036751848 -0.05250934 0.19371542 -0.055205397 0.031702
0.13417839 0.1525661 0.06989813 -0.11946652 -0.021712814 -0.030755503 0.1557302 0.1381231
0.026802283 0.11177106 0.0007955893 0.061896235 0.07399671 -0.1282562 -0.048967652 0.21790884
0.053179447 -0.031541623 -0.009411512 -0.18990558 0.12069765 0.08661585 0.025609966 0.009453084
-0.16320491 -0.11742106 0.012201611 0.043892592 -0.033692025 0.16084464 0.111375675 0.11606591
-0.047056675 -0.11380105 0.052881505 -0.04945381 0.042684775 -0.0907457 0.068502985 -0.20017128
-0.026374288 0.0047085956 0.092184335 0.12220977 -0.038033273 0.06475648 0.026079543 0.1885841
0.23231585 -0.17242078 0.03266902 0.07434614 0.0030960962 -0.03968869 0.026678089 -0.035989746
0.0509059 -0.078295484 0.028543096 0.00013889091 0.03803892 0.090749 -0.0022945665 0.06961069
-0.012735758 0.089842044 0.16417873 -0.05927368 -0.012763064 0.08039021 0.0048045926 0.0153233
0.098002866 -0.16268088 0.14523697 0.052591037 0.0062958524 -0.02277948 -0.07040733 -0.15363593
0.030593421 0.1481464 0.053404655 0.11103424 0.18461609 -0.014205836 -0.019681156 0.098431066
0.0068988875 0.033843007 0.14804183 0.05853802 0.0217085 0.08294091 -0.032699108 -0.02552702
0.08980776 -0.019217178 -0.032477275 0.05252305 0.052887574 0.042461872 0.072918236 0.12697476
-0.035745647 0.20392953 -0.04843636 0.0353912 0.09014942 -0.020861499 -0.011900657 -0.2663636
-0.020814463 -0.027949128 0.1539658 0.21529314 -0.010022357 0.03412096 0.051229868 0.086395584
0.14726634 -0.34793103 0.04957163 0.1244991 0.020270038 0.036350247 -0.025005978 -0.016426759
-0.015475651 -0.16575116 -0.022492632 -0.013150011 0.14770064 0.24823156 -0.005934939 0.07479532
-0.041767165 0.14765929 0.16321653 -0.24510844 0.015921745 0.025729422 0.038926337 -0.011851773
0.010222143 0.03814121 0.03105403 -0.12555347 0.007835869 0.038748838 0.07658598 0.20993276
-0.0045738965 0.07693552 0.049444843 0.0763551 0.14745931 -0.17866035 0.04700355 0.053244397
0.020163957 -0.0018810704 0.16909294 0.0027023728 0.15198794 -0.07039321 0.011586953 -0.030511342
0.03435471 0.03718752 -0.018459361 0.10246459 0.047021024 0.11284446 0.16555934 -0.12299779
0.012976643 0.22212666 0.03237212 -0.016063802 0.16299535 0.16189788 0.040581807 -0.040818837
0.039843407 -0.022724144 0.16500212 0.15650062 -0.0040591024 0.106159456 0.07973898 0.10834657
0.08774925 -0.119009554 -0.023798995 0.19197273 -0.0011303425 -0.048094247 -0.015545439 0.18756683
00000000: 5819 de3b 08ca a0bc 526a d93c eae3 0ebe
00000010: 2a54 303e 6647 abbd 600a 28bd 7857 98bc
00000020: 414d 5bbd 2121 e73b 6cde 04bd 0901 073e
00000030: 1f88 78bd ec35 673e 0510 233e 095a 5ebe
00000040: c09e 57ba c3be d13c 962f 37bd 4cd9 03bd
00000050: 034e 3bbc bea0 babd a0fa c33d 8c14 d93d
00000060: 7031 2cbd b803 0dbd 5c07 91bd c075 22be
00000070: aaaa 913c 5987 ac3c 0064 b3bc e041 a93d
00000080: 23d0 783d 6793 2e3e 076f 3c3d 99cb 2dbb
00000090: 3e60 36bd e4a7 20bd 8ce9 443d 2221 7fbe
000000a0: 4159 223e 141c 133d 0026 34bc 91e4 98bc
000000b0: 83e3 10bd 3aaa 05bd 8ae3 f83c f501 353e
000000c0: 7509 f43d 5f33 833e aa9c 2b3e 1b89 16bd
000000d0: 0914 57bd 565d 463e 0e1f 62bd f5d9 013d
000000e0: 0f66 093e 4a3a 1c3e c026 8f3d ddaa f4bd
000000f0: 12df b1bc f7f2 fbbc bd77 1f3e 2470 0d3e
00000100: 7690 db3c 3ae8 e43d 188f 503a e886 7d3d
00000110: 968b 973d 9855 03be 4e92 48bd 7f23 5f3e
00000120: b1d2 593d ca31 01bd be32 1abc 9c76 42be
00000130: 5430 f73d a763 b13d fecb d13c 1ce1 1a3c
00000140: 301f 27be 747a f0bd 44e9 473c b8c8 333d
00000150: a600 0abd 75b4 243e ee18 e43d f7b3 ed3d
00000160: 80be 40bd 8610 e9bd 479a 583d 1490 4abd
00000170: 3bd6 2e3d e2d8 b9bd 4b4b 8c3d b3f9 4cbe
00000180: e40e d8bc 904a 9a3b 24cb bc3d 1e49 fa3d
00000190: c7c8 1bbd 0c9f 843d c4a4 d53c 311c 413e
000001a0: 35e4 6d3e 138f 30be f3cf 053d ca42 983d
000001b0: e0e7 4a3b 9c90 22bd 028c da3c fc69 13bd
000001c0: b482 503d 6259 a0bd 36d3 e93c 3fa3 1139
000001d0: b3ce 1b3d 9dda b93d 7060 16bb 0d90 8e3d
000001e0: a4a9 50bc 1bff b73d 781e 283e f5c8 72bd
000001f0: 2c1c 51bc 9fa3 a43d d86f 9d3b 940e 7b3c
00000200: bab5 c83d d195 26be 00b9 143e b369 573d
00000210: 704d ce3b 089c babc b831 90bd bd52 1dbe
00000220: 0e9f fa3c b1b3 173e d7be 5a3d eb65 e33d
00000230: 000c 3d3e 98bf 68bc 603a a1bc 3a96 c93d
00000240: 1010 e23b f79e 0a3d 4798 173e 90c5 6f3d
00000250: 06d6 b13c ecdc a93d 80ef 05bd 0b1e d1bc
00000260: 22ed b73d 586d 9dbc e406 05bd 6922 573d
00000270: a4a0 583d 80ec 2d3d 2856 953d ac05 023e
00000280: 076a 12bd e7d2 503e 3465 46bd 5df6 103d
00000290: 42a0 b83d bce5 aabc f9fa 42bc cf60 88be
000002a0: 1883 aabc 92f5 e4bc 36a9 1d3e ce75 5c3e
000002b0: d034 24bc 6bc2 0b3d 69d6 513d 2bf0 b03d
000002c0: fdcc 163e 0424 b2be 9f0b 4b3d 62f9 fe3d
000002d0: 5a0d a63c ffe3 143d 56d9 ccbc 6991 86bc
000002e0: 968d 7dbc acba 29be 7842 b8bc 2573 57bc
000002f0: d63e 173e 6a30 7e3e e079 c2bb 4a2e 993d
00000300: 0c14 2bbd ff33 173e 3c22 273e b5fd 7abe
00000310: 526e 823c 82c6 d23c 3971 1f3d f02d 42bc
00000320: c67a 273c f539 1c3d 0565 fe3c 1791 00be
00000330: 0462 003c 1ab7 1e3d 1cd9 9c3d 9df8 563e
00000340: a0e0 95bb 5f90 9d3d ad86 4a3d 1060 9c3d
00000350: 93ff 163e bdf2 36be cb86 403d cc16 5a3d
00000360: e22e a53c 408e f6ba b326 2d3e 4b1a 313b
00000370: baa2 1b3e 512a 90bd 34d7 3d3c ecf2 f9bc
00000380: 86b7 0c3d f151 183d 1638 97bc f4d8 d13d
00000390: 1e99 403d ff1a e73d 6388 293e 44e6 fbbd
000003a0: fc9b 543c 2c75 633e a198 043d 3c98 83bc
000003b0: 41e8 263e 8fc8 253e 1c39 263d a731 27bd
000003c0: d732 233d fc27 babc 51f6 283e b341 203e
000003d0: 3802 85bb 216a d93d 314e a33d cee4 dd3d
000003e0: e1b5 b33d 48bb f3bd 1cf6 c2bc 8094 443e
000003f0: 0028 94ba 79fe 44bd 4cb2 7ebc 8511 403e

bias f4 [6]
0.12880962 0.094277546 -0.048153687 0.07833822 0.038492743 0.08645045
00000000: abe6 033e 9614 c13d cd3c 45bd ca6f a03d
00000010: 91aa 1d3d ef0c b13d

weight f4 [1, 6]
-1.4534551 -1.4481238 1.5034193 -1.2868547 -0.7937231 -0.9786832
00000000: d10a babf 1f5c b9bf 0b70 c03f a8b7 a4bf
00000010: 7031 4bbf fb8a 7abf
