Data/Torch models/Model Records/P2_20240716_L_channel7_fold0_round1.pt (torch, 10967 bytes, 5 tensors)

weight f4 [18, 4]
000000 37 fd d0 be 25 ab 2a bd f9 3c f4 be 1f 42 8b be
       -0.40818188 -0.041667122 -0.47702768 -0.27198884
000010 f0 5f 9d be 4c ef 87 3e 34 39 1c be 42 74 b7 3e
       -0.30737257 0.26549757 -0.15256196 0.35830885
000020 97 07 1c 3e 34 36 64 3f 45 98 14 3f 96 3f 78 bd
       0.1523727 0.8914521 0.58044845 -0.060607515
000030 ea 20 aa 3e 90 a0 e3 be 90 37 ca 3d c0 6f f1 3c
       0.33228236 -0.44458437 0.09873879 0.029472232
000040 93 a8 c2 bd 77 46 42 3e 04 ce 7d 3e 25 1f e4 be
       -0.09504809 0.18972193 0.2478562 -0.4455501
000050 15 6f dc 3c 20 05 3a bf 24 71 ad 3d 44 50 53 3f
       0.026908437 -0.7266407 0.084688455 0.8254435
000060 4b 9c 4f 3e de d7 4e be 5f 87 94 bd d3 42 58 bf
       0.20274465 -0.20199534 -0.072523825 -0.84476966
000070 b0 8a d2 3d 0e 61 c6 be fc 98 2e be 2c 9f a7 be
       0.10280359 -0.38745922 -0.17050546 -0.32738626
000080 ad 98 1e 3f 89 19 a7 3f b9 4c 0d 3e 97 b7 d5 3e
       0.61951715 1.3054668 0.13798799 0.4174163
000090 36 98 08 3f 01 a2 63 bf af fe 13 bf f6 2c d9 be
       0.53357255 -0.88919073 -0.5781049 -0.42417115
0000a0 ab 83 46 be a8 50 85 3e 91 2d 25 bd 24 bd 3b 3f
       -0.19386165 0.26038098 -0.04032666 0.7333548
0000b0 65 26 1d 3f 88 b7 37 3e c7 26 5a be 80 fb f8 be
       0.6138671 0.17941105 -0.21303855 -0.4862938
0000c0 1e ec 44 3f cb 18 7c 3d 2e 91 ee bd 3d 95 5f bf
       0.76922786 0.061547082 -0.116487846 -0.87337095
0000d0 47 47 da 3d 77 00 1e bd bd 16 0f 3f c0 aa 0f 3f
       0.10658126 -0.038574662 0.5589407 0.5611992
0000e0 35 d6 35 bc 29 17 10 3f c0 bd eb bd 7d b3 ef 3e
       -0.011098434 0.5628534 -0.11510801 0.46816626
0000f0 55 52 a0 be 1f bf 7d 3e 5a 97 9d 3e 7c af 8b be
       -0.31312814 0.24779938 0.30779535 -0.2728232
000100 0b 05 73 3e 75 f5 10 3e f6 e5 76 be ce f7 97 be
       0.23732392 0.14156134 -0.2411116 -0.29681247
000110 e8 5d 16 3e 68 7a fc bd c4 57 32 be 48 10 55 be
       0.1468426 -0.12328035 -0.17416292 -0.20806992

bias f4 [18]
000000 71 30 e4 3e 30 ad f8 be 07 15 ff bd 9a e1 bc be
       0.44568208 -0.48569632 -0.124551825 -0.3689087
000010 7a 41 28 be 9b 21 33 3f 66 a3 6a 3f 86 d2 c7 be
       -0.16431227 0.6997315 0.91655576 -0.39027804
000020 c8 04 c2 bc 1f cd 87 3f 4b 2e 43 3c 95 1e 11 bd
       -0.02368392 1.0609473 0.011912893 -0.035429556
000030 53 c2 b6 3e 3e 71 e4 3e b6 26 52 bd d6 54 fc 3c
       0.35695133 0.44617647 -0.05130645 0.030802172
000040 50 31 03 bd 40 c8 17 be
       -0.03202945 -0.14822483

weight f4 [6, 324]
000000 b0 8f ba 3c b6 ac 30 bd 41 e8 93 3d b2 af b3 3c
       0.022773594 -0.04313346 0.07222033 0.021934364
000010 f8 30 f1 3b 4f 00 44 3c 79 cc c6 bd a4 1f 3b bd
       0.007360574 0.011962964 -0.09706969 -0.04568447
000020 71 e7 ad 3d a1 99 a0 bd 0f 52 b3 3d 1f de 52 bd
       0.084914096 -0.078418024 0.08755886 -0.051481362
000030 8d 93 84 bd c4 1a de bb d9 97 c3 3d dd 9e a7 3c
       -0.064734556 -0.006778093 0.09550447 0.020461494
000040 1c a6 4c bd 97 39 24 bd 3f 99 28 3b f5 bb f7 bc
       -0.0499631 -0.040093984 0.0025726107 -0.030240992
000050 32 bf ad bb 60 1f ad bb e9 c8 81 3c 6f 63 9a bd
       -0.0053023333 -0.005283281 0.015842872 -0.07538497
000060 3b b5 32 3d 64 1e 02 bd b7 c6 0a 3d 35 16 ca 3d
       0.043629866 -0.031767264 0.033880915 0.09867517
000070 f9 25 60 bd 9d a0 6f 3c ae 90 d0 3d 3e 34 25 bd
       -0.054723714 0.0146256955 0.101838455 -0.040333025
000080 02 17 fc 3c 14 a9 76 3d e8 99 86 bc 6c f9 0c 3c
       0.03077269 0.06021984 -0.01643081 0.008604389
000090 49 2d c3 bc a2 e9 f8 3c e1 ba ac 3d 91 2d 52 3d
       -0.023825305 0.030384842 0.08434082 0.051312987
0000a0 d1 d6 ec bc e9 51 ba bd 3c a4 22 3d 0e ce c8 bc
       -0.028911026 -0.09097654 0.039707407 -0.024512317
0000b0 1b 2a d8 3d 00 37 e3 bc c6 a0 32 3c 62 5d f8 3c
       0.10554906 -0.027736187 0.010902589 0.030317966
0000c0 6f 20 4f 3c f2 f1 00 3d dd c4 ee 3c 64 78 7e 3d
       0.01264201 0.031480737 0.029146606 0.062126532
0000d0 b4 d9 57 bd c6 b0 23 bd 5c c2 15 3d 0c 3b 12 bd
       -0.052697852 -0.039963506 0.03656231 -0.035700843
0000e0 d3 aa e1 bc 15 93 28 3d 79 e4 41 3d 85 27 7c bd
       -0.027547276 0.041155893 0.04733703 -0.061561126
0000f0 6f 48 f0 3c f8 af 1a bc ee b1 ba 3c 63 f9 ac 3a
       0.029331414 -0.009441368 0.022789922 0.0013196882
000100 fb 47 28 3d ba 0f fb 3b c3 96 9f 3b f7 66 38 bd
       0.04108427 0.007661787 0.004870267 -0.04502007
000110 1f f4 46 3c f7 ea fb bb 52 19 19 39 50 62 7c 3b
       0.012143164 -0.007687922 0.0001460065 0.0038510747
000120 1c 8b 18 bc 00 a4 33 3a fb b6 9a 3d fd 72 ed bc
       -0.00931051 0.0006852746 0.07554432 -0.028985495
000130 30 ca 68 3c 2d 85 06 3d f0 09 2c bd 85 b0 59 3d
       0.0142083615 0.03284185 -0.042001665 0.053146858
000140 49 e3 37 3e 21 18 84 bd 3f 5f 38 3d 1c b1 db bb
       0.17957796 -0.06449915 0.04501271 -0.0067044627
000150 87 de 3b bd 88 36 1e 3d 74 84 6a 3d dc cb 72 bd
       -0.045866515 0.038626224 0.057255223 -0.059276447
000160 bd 63 f9 bc 51 39 58 3d 01 5c 49 b9 5d 82 19 3d
       -0.030443067 0.052789036 -0.00019203128 0.03747784
000170 d2 0d 6b 3d 86 04 3f bd 4a 4b 11 bd 80 f4 91 bd
       0.057386227 -0.046635173 -0.035472192 -0.07126713
000180 30 d2 c5 bc 80 f5 dc ba 3b 3c 8b 3c ee 78 d9 bc
       -0.024148077 -0.0016857833 0.016996494 -0.026546922
000190 7b 15 10 3d 16 2c 27 bc 09 95 12 3b a3 be 75 3c
       0.035176735 -0.010203382 0.0022366664 0.014999065
0001a0 a2 72 20 bc 37 a4 60 bc 22 5a 7b 3c 44 a8 bf bc
       -0.009792956 -0.013711027 0.015341314 -0.023395665
0001b0 0d a6 d1 bb e2 34 9b 3c a8 08 d5 3c be 25 c4 3c
       -0.0063979686 0.018946115 0.026005104 0.023943778
0001c0 18 98 a1 3c cc e6 d3 bd 84 ae 00 3d d5 7e 49 3d
       0.019725844 -0.103467554 0.03141643 0.049193222
0001d0 f3 a3 f5 3b 53 3f 1b bd 40 e5 51 bd ec 73 6b bc
       0.007496351 -0.037902188 -0.05124402 -0.0143709
0001e0 21 b5 87 bc 71 a4 3c bd 14 02 46 3d da c1 bd 3b
       -0.016565861 -0.04605526 0.048341826 0.005790931
0001f0 ca f3 b4 bc 92 86 a2 3c c6 65 e7 bb 31 9e 3e 3d
       -0.022088904 0.019839559 -0.007061693 0.04653758
000200 74 da 83 3c e1 20 17 3d 0a 2b f0 3b 78 19 87 bd
       0.016095378 0.03689659 0.0073293494 -0.06596655
000210 d4 3a 7f bc 80 50 ac bb 3d 26 0f 3d c4 2c f1 bc
       -0.015577991 -0.00525862 0.034948576 -0.029440291
000220 32 4b 87 3c 44 4a fe 3b 57 61 07 3d 87 74 15 3d
       0.016515348 0.007760318 0.033051815 0.036488082
000230 4d ba f3 bb 8c 7f 51 3d 66 33 22 3d 70 72 63 bb
       -0.0074379803 0.05114703 0.0395998 -0.0034705661
000240 fc 17 fd 3c 18 f3 83 bc 0a 7a e8 3d b9 45 13 bd
       0.030895226 -0.016107127 0.11351402 -0.035955165
000250 f3 d8 cc bc 63 da ae bd cd 73 a7 3c 02 64 12 bd
       -0.025005793 -0.08537748 0.02044096 -0.035739906
000260 55 c3 9c 3b 1f 93 9d 3c f3 aa 65 bd fb d8 42 bd
       0.0047840276 0.019235192 -0.056071233 -0.04757021
000270 76 56 88 3d 5b 77 76 bc 4d 4b 90 bc 53 c1 94 3c
       0.06657116 -0.015043105 -0.017614031 0.01815859
000280 24 01 cd 3b 72 05 5c bd f7 23 70 bc 44 43 0a 3c
       0.0062562395 -0.05371613 -0.014657012 0.008438889
000290 70 a0 8b 3d b0 40 41 bd 40 51 a9 3c 58 99 5b 3d
       0.068177104 -0.04718083 0.020668626 0.053613037
0002a0 b8 f4 ce bc 80 a9 33 bd de f2 23 3d e3 4b 16 bd
       -0.025263175 -0.04386282 0.040026538 -0.036693465
0002b0 53 58 a7 3d 37 40 21 3d 3e f3 36 bd e9 a1 48 3d
       0.081711434 0.03936788 -0.044665568 0.048982535
0002c0 a1 be af bc d2 2b 6f bd df fc 4d bd b9 49 ce bc
       -0.021453204 -0.0583914 -0.050289985 -0.025181638
0002d0 29 42 55 bd a6 3a 2a bd a9 02 52 3d 50 44 4f 3b
       -0.05206505 -0.041559838 0.05127207 0.003162641
0002e0 a3 f2 11 3c 20 e8 b9 3c 75 af a6 3b 90 1a ee bb
       0.008907947 0.022693694 0.005086834 -0.00726635
0002f0 01 56 3e 3d 6e b5 68 bd e1 c2 38 3d 6a 63 43 bd
       0.04646874 -0.05681365 0.045107726 -0.04770223
000300 c9 69 42 3c d6 dd 45 3d 6e 52 ae 3c d1 8b 37 3b
       0.011866041 0.048307262 0.02127954 0.002800692
000310 52 45 02 bd 80 66 b2 bc 9c d2 fa 3c 09 f8 52 3d
       -0.03180439 -0.021777391 0.030618005 0.051506076
000320 c1 9a a4 3d 8a 0e 91 bc da 70 27 3d 77 a7 a6 3c
       0.080373295 -0.017707128 0.040879108 0.020343525
000330 ef f3 ae bd 5a b3 da 3c 52 7a b0 3d 0f 17 a3 bc
       -0.085426204 0.02669685 0.08617081 -0.019908456
000340 ff 43 ec 3c df e6 2b bd f6 6d 89 bd 36 c8 af 3d
       0.028841017 -0.041968223 -0.067104265 0.08583109
000350 b1 ad 94 3d 26 78 bb bc c2 d8 5c bd 7f 72 61 3d
       0.072596915 -0.02288444 -0.053917654 0.055040833
000360 67 9d 5b bd 80 6c 0d bd b3 39 c8 3d 10 5d d4 bb
       -0.053616907 -0.0345273 0.0977663 -0.0064808205
000370 59 cd 29 3c 0f 19 01 3d 52 b2 b0 bc 84 1f 0f 3c
       0.0103639 0.03151804 -0.021569405 0.008735541
000380 de 2f 6d 3c ea a8 11 3b 24 4f 5b bd 34 5b b0 bc
       0.014476744 0.0022225925 -0.05354227 -0.021527864
000390 36 e8 6d 3d ec a5 e7 3c 69 04 62 3d dc c6 99 bc
       0.05808278 0.02827736 0.055179987 -0.018771581
0003a0 15 e7 a7 bc 3e 7c 43 bd 9f 42 3f 3c b0 3e 4f bc
       -0.02049593 -0.04772591 0.011673599 -0.012649223
0003b0 b6 ea 76 3c 1c 44 60 3c c9 13 30 bd 1e b3 2f 39
       0.015070608 0.013688114 -0.04298762 0.00016756027
0003c0 32 47 af bc 54 61 5b bd 34 43 4b 3c 05 59 26 3d
       -0.021396253 -0.053559616 0.012406159 0.04061224
0003d0 c8 bc c6 bc 1e 4d 77 3c 49 7e 27 bd c1 f0 4a bd
       -0.02425994 0.01509407 -0.04089192 -0.049546007
0003e0 b4 6f 02 bd bd 9f 40 3c 28 b0 47 3c 04 b8 b1 bc
       -0.03184481 0.011756835 0.012187995 -0.02169419
0003f0 e6 6e b0 bb 15 40 58 3d 05 5f c6 3c be 79 f9 3c
       -0.005384314 0.05279549 0.02421523 0.030453559

bias f4 [6]
000000 80 99 46 bc 26 5d 0a 3e 5c 1e 9f bd ba 9a a6 3d
       -0.012121558 0.13512096 -0.077694625 0.081349805
000010 64 cd 01 3e de f8 e2 3d
       0.12676007 0.11082624

weight f4 [1, 6]
000000 cb d2 a2 3f 4d d5 a7 bf 62 a5 75 3b 8d 07 cb bf
       1.2720579 -1.3111969 0.003748261 -1.5861679
000010 97 33 d2 bf 56 77 d6 bf
       -1.6421994 -1.6755168
