Data/Torch models/Model Records/P2_20240716_L_channel0_fold1_round2.pt (torch, 10967 bytes, 5 tensors)

weight f4 [18, 4]
0	0x3fa93c9a	1.3221619
1	0x40058572	2.0862699
2	0x3f9261ce	1.1436098
3	0xbe43bcb3	-0.19114952
4	0x3d106410	0.035251677
5	0x3dab0890	0.083512425
6	0xbebe7d20	-0.37204838
7	0x3df57608	0.11985403
8	0xbedbca06	-0.4292757
9	0x3ee2c594	0.44291365
10	0xbd58db49	-0.0529435
11	0xbe85685e	-0.26056188
12	0x3f3859bc	0.72011924
13	0x3e1bc29a	0.15210953
14	0xbf131f11	-0.5746928
15	0xbf8bf40b	-1.0933851
16	0x3f361605	0.7112735
17	0xbf066d54	-0.5251057
18	0xbe2a37b6	-0.16622815
19	0xbf5ac5c1	-0.85458
20	0xbf1d6770	-0.6148596
21	0xbe3677d5	-0.1781915
22	0x3e5e8f2b	0.21734302
23	0xbe73891c	-0.23782772
24	0x3f917265	1.1363035
25	0xbf8463b0	-1.0342922
26	0xbf41e22c	-0.75735736
27	0xbdb4a80c	-0.08821115
28	0xbe618b37	-0.22025762
29	0x3ee87534	0.4540192
30	0xbf21aed9	-0.6315742
31	0x3e837752	0.25676972
32	0x3d8f34f1	0.0699252
33	0xbf653a81	-0.89542395
34	0x3e6c30a9	0.23065437
35	0x3fa9df48	1.3271265
36	0x3ed92f8d	0.4241909
37	0x3f5a653d	0.8531073
38	0xbf52c7bc	-0.8233602
39	0xbe9cc128	-0.30616117
40	0x3e3f4c20	0.18681383
41	0xbeceb382	-0.4037133
42	0xbe946b1e	-0.28987974
43	0x3e7e21a8	0.24817526
44	0xbf06f805	-0.527222
45	0xbdf40f0e	-0.11916934
46	0xbf20bdb8	-0.6278949
47	0xbf1645af	-0.5870008
48	0xbe88e7f0	-0.26739454
49	0x3e045df6	0.12926468
50	0x3ea2b744	0.31780446
51	0x3dd23d1b	0.10265561
52	0xbeec4f20	-0.46154118
53	0xbe1500a1	-0.14551021
54	0xbf1c540a	-0.61065733
55	0x3e507c1f	0.20359848
56	0x3f7a9df6	0.9789728
57	0x3f2ae083	0.6674883
58	0x3eb245c7	0.3481886
59	0x3fd6351b	1.6734957
60	0xbe4a1073	-0.19732837
61	0xbe720980	-0.23636436
62	0xbda6b2cd	-0.08139572
63	0x3eae53c8	0.34048295
64	0xbe43495a	-0.1907095
65	0x3f0f5381	0.5598679
66	0xbf1be22d	-0.6089199
67	0x3d37abd8	0.044841617
68	0xbe2a3810	-0.16622949
69	0x3eef8798	0.46783137
70	0xbe9a5064	-0.30139458
71	0xbe680238	-0.22657096

bias f4 [18]
0	0x3e029c30	0.12754893
1	0xbe66edd0	-0.22551656
2	0xbcfd0ad3	-0.03088895
3	0x3f5fc8b6	0.87415636
4	0x3f69802a	0.9121119
5	0x3ebd9b2f	0.37032458
6	0x3e598d83	0.21245389
7	0x3e619173	0.2202814
8	0x3f02d7a1	0.51110274
9	0xbe025034	-0.12725908
10	0xbed94c5e	-0.42441076
11	0x3f75d833	0.9603302
12	0xbe90b478	-0.28262687
13	0x3f81cf6c	1.0141425
14	0xbdc88e8e	-0.09792815
15	0xb7019506	-7.723696e-06
16	0xbd45fbf9	-0.048336003
17	0xbee1caa0	-0.44099903

weight f4 [6, 324]
0	0xbe912f06	-0.2835619
1	0xbc075f88	-0.0082625225
2	0xbd119beb	-0.035549086
3	0xbe697344	-0.22797877
4	0xbe375aaa	-0.1790568
5	0xbd29f180	-0.041490078
6	0x3dc9ed7b	0.09859749
7	0x3bea5442	0.0071511576
8	0x3eaddeaf	0.33958957
9	0xbd5ffc15	-0.054683764
10	0x3d03bcf1	0.03216261
11	0xbd1ea693	-0.038733076
12	0x3cb54c30	0.022131056
13	0xbd20479e	-0.0391308
14	0x3e965245	0.29359642
15	0xbc991264	-0.018685527
16	0xbd4fc681	-0.050726417
17	0x3d0438c3	0.032280695
18	0x3efc5433	0.4928299
19	0xbd429ee6	-0.04751482
20	0x3bd5041d	0.0065007345
21	0x3e4a0958	0.19730127
22	0x3d05b413	0.032642435
23	0xbbef7b48	-0.0073083974
24	0xbd9672ae	-0.07346092
25	0xbd5e1806	-0.05422213
26	0xbea3fa10	-0.3202672
27	0x3dfce64a	0.12348612
28	0xbd067ac7	-0.032831933
29	0xbe12283d	-0.14273162
30	0x3b6d46c5	0.0036205512
31	0xbe573942	-0.21017936
32	0xbda0eb00	-0.07857323
33	0x3cd9e96c	0.026600562
34	0x3d8b6754	0.06806818
35	0xbd451acb	-0.048121255
36	0xbe338075	-0.17529471
37	0xbcbf36b6	-0.023341518
38	0x3c272e44	0.010203902
39	0xbd9929fb	-0.0747871
40	0xbd5da2bf	-0.054110285
41	0xbc920945	-0.017826686
42	0x3dde1982	0.10844709
43	0x3d0efb5e	0.03490769
44	0x3e9168c0	0.2840023
45	0x3cc5c3a9	0.02414115
46	0xbc808220	-0.015687048
47	0xbc9d2e9d	-0.019187266
48	0x3ca05062	0.01956958
49	0xbd8f94d5	-0.07010809
50	0x3e0905a0	0.13381052
51	0xbd455ba7	-0.04818311
52	0x3db3d9ec	0.087818
53	0x3d53ea41	0.051737074
54	0xbe435479	-0.19075193
55	0xbd567459	-0.05235705
56	0x3ce2052b	0.027590355
57	0xbc3269c7	-0.010889477
58	0xbdc1662c	-0.09443316
59	0xbb042431	-0.0020163173
60	0x3ad6405b	0.0016346084
61	0xbd3e2b81	-0.046428207
62	0x3d685c2b	0.056728523
63	0x3d2821f8	0.04104802
64	0x3c98d602	0.018656734
65	0xbcfba4e8	-0.030718282
66	0xbc14622f	-0.009056612
67	0xbd81cf8d	-0.06338415
68	0xbd370ef7	-0.044692006
69	0x3d01c999	0.0316864
70	0x3d2e19dc	0.04250513
71	0xbd611ace	-0.054957204
72	0x3e877c88	0.26462197
73	0x3bb71a80	0.005587876
74	0xbd486ac0	-0.04892993
75	0x3e01f32b	0.12690417
76	0x3cac3786	0.02102257
77	0xbe0a7d56	-0.13524374
78	0x3de6b818	0.11265582
79	0x3a8a526a	0.0010553126
80	0xbd5da79c	-0.054114923
81	0x3db6e194	0.08929744
82	0x3c743adc	0.014906611
83	0xbd97568f	-0.073895566
84	0xbb90d120	-0.004419461
85	0xbdd4c80d	-0.10389719
86	0x3e40d796	0.1883224
87	0x3cb75bcd	0.022382641
88	0x3d70ab86	0.058757327
89	0xbb829328	-0.0039848275
90	0x3d8a4978	0.06752294
91	0xbc91868a	-0.017764349
92	0xbb0c0150	-0.0021363087
93	0xbe445e3c	-0.19176573
94	0xbd317d2b	-0.04333226
95	0x3bdbf108	0.006712083
96	0x3d086954	0.033303574
97	0xbde76f5e	-0.113005385
98	0x3d3541ab	0.04425208
99	0xbdb26674	-0.08710948
100	0x3b9dc610	0.0048148707
101	0xbe7ce133	-0.24695282
102	0x3d1e30d2	0.038620777
103	0xbe1e5319	-0.15461387
104	0x3e1535d2	0.14571312
105	0xbb656bc8	-0.003500687
106	0xbde77184	-0.11300948
107	0x3d4e8cd9	0.05042729
108	0xbdf74d74	-0.1207532
109	0x3d5606e7	0.052252676
110	0x3cc4b7a0	0.02401334
111	0x3dd1fb12	0.10252966
112	0x3c13dc90	0.009024754
113	0xbd95dd7e	-0.07317637
114	0x3d626b35	0.05527802
115	0x3d0d89c1	0.0345552
116	0xbe0fa705	-0.14028557
117	0x3e0483ef	0.12940954
118	0x3d2955db	0.041341644
119	0xbc962b78	-0.018331274
120	0x3d0f0811	0.034919802
121	0xbdadd15f	-0.084872
122	0xbe677a47	-0.22605239
123	0xbce79e71	-0.028273793
124	0x3dcf5c53	0.10125031
125	0xbd31bc64	-0.043392554
126	0x3f30de0d	0.6908882
127	0xbd2c25bc	-0.042028174
128	0xbd28b163	-0.041184794
129	0x3d948be9	0.07253248
130	0xbe117e3b	-0.1420831
131	0x3ce8caf8	0.028417096
132	0xbe6db58d	-0.23213787
133	0x3c961a84	0.01832319
134	0xbe62af2e	-0.22137138
135	0x3e5c2421	0.21498157
136	0xbb6e6900	-0.0036378503
137	0xbdca0e0f	-0.09865963
138	0xbd439e51	-0.047758404
139	0xbe300a2d	-0.17191382
140	0x3e353b2e	0.17698357
141	0xbaca65f2	-0.0015441759
142	0xbc134d71	-0.008990631
143	0x3c849b72	0.016187403
144	0xbc5526af	-0.013009711
145	0x3c797f14	0.015228052
146	0xbcd8003c	-0.0263673
147	0xbe573065	-0.21014555
148	0xbe082e94	-0.13299018
149	0x3c8810d7	0.016609592
150	0x3cd3ad3e	0.025839444
151	0xbd69d9cb	-0.05709247
152	0x3da99db8	0.082820356
153	0xbe81a0d4	-0.25318015
154	0x3b58bc70	0.0033071302
155	0xbd1d37ca	-0.038383283
156	0x3c3d1b95	0.011542221
157	0xbe35670b	-0.17715089
158	0x3d26cae1	0.040720824
159	0x3d25d3b3	0.040485095
160	0x3c0de8ff	0.008661508
161	0xbd34268e	-0.04398208
162	0xbdee30a6	-0.11630373
163	0xbbe3f110	-0.006956227
164	0xbae58417	-0.0017510679
165	0xbe4aae32	-0.19793013
166	0xbde36ad3	-0.111043595
167	0xbd4696fa	-0.048483826
168	0xbb545976	-0.0032401956
169	0x3cc0880d	0.023502374
170	0x3e180fa5	0.14849718
171	0xbc314f84	-0.010822181
172	0x3ca61406	0.02027322
173	0x3d74115d	0.05958687
174	0x3c187b24	0.009306703
175	0xbd54c2ed	-0.05194371
176	0x3dd4eecb	0.10397109
177	0x3d3b220a	0.04568676
178	0x3d7af30e	0.06126695
179	0x3d40ad6d	0.04704039
180	0x3d51dee2	0.05123795
181	0x3d3cf0cd	0.046128083
182	0x3b666340	0.0035154372
183	0xbe725290	-0.23664308
184	0xbe213b3b	-0.15745251
185	0x3ca9ae01	0.020712854
186	0xbde84cf6	-0.11342804
187	0xbd5d00cd	-0.05395584
188	0xbca64961	-0.020298662
189	0xbe0703b4	-0.13185006
190	0x3cf86faa	0.030326683
191	0xbe00a7b4	-0.12563974
192	0x3d43dfa5	0.047820706
193	0xbdda7373	-0.106665514
194	0x3d92504b	0.07144221
195	0x3ae054c4	0.0017115106
196	0x3cc5bce6	0.024137925
197	0xbd1434a7	-0.036183026
198	0x3cf21353	0.02955023
199	0x3d15d961	0.03658426
200	0xbc1235d4	-0.008923966
201	0xbe4d0ffb	-0.20025627
202	0xbe05a0cf	-0.13049625
203	0xbb681d33	-0.0035417795
204	0x3c5f9b56	0.013647875
205	0xbdc81898	-0.09770316
206	0x3d955bc3	0.07292893
207	0xbdc90bd6	-0.09816711
208	0x3d610355	0.05493482
209	0xbd9daaf6	-0.07698624
210	0xbd06263b	-0.032751303
211	0xbdc01542	-0.093790546
212	0x3de40b5d	0.1113498
213	0xbd47a9a9	-0.048745785
214	0x3d08579f	0.033286687
215	0x3cdb322e	0.026757326
216	0xbdc801e5	-0.09765986
217	0xbce94c92	-0.028478894
218	0xb909b200	-0.00013131648
219	0xbd6c6b0b	-0.05771927
220	0xbe4882a4	-0.19581085
221	0xbdca8ade	-0.09889768
222	0xbe855146	-0.2603857
223	0x3d6199c1	0.05507827
224	0xbd55fc93	-0.052242827
225	0x3e5f8cd4	0.21831065
226	0xbc5b655c	-0.013390865
227	0xbdb665a1	-0.08906103
228	0xbc484f92	-0.012226002
229	0x3c8e19d2	0.017346296
230	0xbdaa98dc	-0.08329937
231	0xbcc27ca9	-0.023741083
232	0x3dc8581c	0.097824305
233	0xbd5a8eb0	-0.053358734
234	0xbf10ce55	-0.5656484
235	0xbd4733fc	-0.04863356
236	0x3d1095f3	0.035299253
237	0xbe9049f5	-0.28181425
238	0xbe54da3f	-0.2078638
239	0x3e0b4f79	0.13604535
240	0xbe88d0d8	-0.26721835
241	0xbd5cca4f	-0.053903874
242	0xbc93a015	-0.018020669
243	0xbe13ee81	-0.14446451
244	0xbbdaaf28	-0.0066737123
245	0x3d9ddcc6	0.07708125
246	0xbca04245	-0.01956285
247	0x3db6be89	0.089230604
248	0xbecae40c	-0.3962711
249	0xbd1a733b	-0.03770755
250	0xbc57f8d6	-0.013181886
251	0xbc84bcaa	-0.016203243
252	0x3e0c9006	0.13726816
253	0xbd44fffc	-0.04809569
254	0x3cc2d9ec	0.023785554
255	0x3d5c6586	0.053807758

bias f4 [6]
0	0xbd6d7653	-0.05797417
1	0xbd030910	-0.031991065
2	0x3d3089bc	0.043100104
3	0xbbfbb1c1	-0.007681102
4	0x3d88fcba	0.06688829
5	0x3e12fc87	0.14354144

weight f4 [1, 6]
0	0x4018317f	2.378021
1	0xbfb36eb8	-1.4018164
2	0xbfeb56f0	-1.8385906
3	0x3f8f73e3	1.1207241
4	0xc02ec36d	-2.7306778
5	0xc007fa2c	-2.1246443
