Data/Torch models/Model Records/P2_20240716_L_channel2_fold4_round1.pt (torch, 10967 bytes, 5 tensors)

weight f4 [18, 4]
000000 54 b7 50 3f 5f ba 06 3f 93 b5 0b bf 76 bc 95 3f
       0.81529737 0.5262813 -0.54573935 1.1698139
000010 c8 b4 09 be 04 af 61 3e 88 00 50 3e 28 4a 69 be
       -0.13447869 0.2203942 0.20312703 -0.22782195
000020 4e 38 96 be be 3a 43 3e 4d 53 14 3f 22 4b cc be
       -0.29339832 0.19065377 0.57939607 -0.39901072
000030 3c 16 de be c4 9c fc 3e a8 89 0c be 76 61 e7 be
       -0.43376338 0.49338353 -0.13724387 -0.45191544
000040 ae ee de 3f 9b 64 a2 3f cf 27 61 3f 58 28 31 3f
       1.7416589 1.2686952 0.8795137 0.69202185
000050 e0 b6 57 bd 00 60 4b bc 88 28 d3 3d ae 84 8d be
       -0.052664638 -0.012413025 0.10310465 -0.2764029
000060 ce a9 0a 3e 8c 07 aa bd c6 4f 17 3f d0 59 3c 3c
       0.13541338 -0.08302221 0.591061 0.011496022
000070 73 c9 23 3f 31 dc 98 bf 6c 08 40 be 3d cc 42 bd
       0.6397926 -1.1942197 -0.18753213 -0.047558058
000080 21 73 f3 bf 86 e2 12 3f 96 b2 c9 3e 05 23 b6 be
       -1.901951 0.573769 0.39394063 -0.35573593
000090 50 3f b0 be 68 59 e7 be c8 4c 45 3e 88 2e 9a 3d
       -0.34423304 -0.451854 0.19267571 0.075284064
0000a0 fe f5 80 be 10 ac d3 be 6c cf b8 be e0 2f 30 bd
       -0.25187677 -0.4134221 -0.3609575 -0.043014407
0000b0 f6 34 4d bf e7 75 c2 bd 18 e5 9e 3f 9e ee 88 3f
       -0.80158937 -0.09495144 1.2413664 1.069782
0000c0 94 0e dd be 18 c9 b8 3e d8 c6 8b 3e c0 44 38 bc
       -0.43175185 0.36090922 0.27300143 -0.01124686
0000d0 81 ca 7d be 4f 50 ca 3f e3 89 95 3e 04 75 82 3f
       -0.2478428 1.5805758 0.29206762 1.019196
0000e0 38 d1 fb be 7e 02 2e 3f 5b e2 ef be 57 5d 52 3f
       -0.4918306 0.6797255 -0.46852383 0.82173675
0000f0 bb 1a 2b 3f 13 95 91 3e 6e 34 4d bf cf 46 1e bf
       0.6683766 0.28434047 -0.80158126 -0.61826795
000100 65 f4 67 3f ce 9e fd 3f cf 2f 8e 3f c7 37 1d 3e
       0.9060729 1.9814088 1.110834 0.15353309
000110 6e 6d ba 3e f2 09 1e 3f a2 ca 57 bf 15 75 69 bf
       0.36411613 0.61733925 -0.8429357 -0.9119428

bias f4 [18]
000000 d2 b3 ef be 02 f1 fb be 57 23 3c bd 3a 09 e4 be
       -0.4681688 -0.49207312 -0.04593214 -0.4453829
000010 a2 d6 6b bb 38 61 f9 bd ba 2c 19 3f 89 d1 32 3e
       -0.0035986085 -0.12176746 0.5983387 0.17462744
000020 51 73 f3 3f 70 a1 38 be fe 5c e8 be 8b 47 85 3f
       1.9019567 -0.18030334 -0.45383447 1.0412458
000030 ec 04 f7 be 8f c2 67 be 16 00 d9 3e 73 6d 9f 3d
       -0.48245943 -0.22632812 0.42382878 0.07784548
000040 38 80 a4 37 be e1 5e 3f
       1.961003e-05 0.87063205

weight f4 [6, 324]
000000 b5 6e de be 10 0d a5 bb 45 a2 bd 3d 2e cd 8a bc
       -0.43443838 -0.0050369576 0.09259466 -0.01694354
000010 4a df 46 bd 90 dd 00 bc 12 28 11 3d 97 d6 b3 3b
       -0.04855279 -0.007865325 0.035438605 0.0054882276
000020 20 13 98 3e 1e 88 dd 3c 0a 77 eb 3c 54 11 ab 3d
       0.2970209 0.027042445 0.028743286 0.083529145
000030 2a 00 cb 3c 4d d2 8a bd 9f d6 48 be 42 78 08 be
       0.024780352 -0.06778393 -0.19613121 -0.13327125
000040 95 41 32 3e 02 69 e0 bc 9e 8e 60 3c 33 eb 1c 3d
       0.1740783 -0.027393822 0.013705878 0.03831024
000050 b6 24 c8 bb f8 c3 b5 bc 38 18 86 3d 9e d0 86 3c
       -0.006107892 -0.022188172 0.06547588 0.016456898
000060 64 4a 1a 3a 51 06 99 be c8 e0 91 3c 25 1d 5e 3d
       0.0005885719 -0.29887632 0.01780738 0.054227013
000070 a6 79 de 3c d9 4a 19 be 48 7d 86 bb 6d a1 27 be
       0.027157616 -0.14969958 -0.00410429 -0.16370173
000080 5d e2 58 bd c6 b2 7f 3d e2 ba 40 3e 6d d0 24 3e
       -0.05295025 0.06242635 0.1882129 0.16095133
000090 9f 60 53 be 80 61 fd ba 03 50 8c 3d ca af c9 3c
       -0.20642327 -0.0019331425 0.068511985 0.024619956
0000a0 ac 0d e4 3d 54 26 38 bd 02 27 a2 3d 83 b7 d7 bd
       0.1113542 -0.044958428 0.079175964 -0.10533049
0000b0 9c 33 95 3e f4 70 10 bd 37 a9 0d 3d d8 c4 1b 3e
       0.29140937 -0.03526397 0.034585204 0.15211809
0000c0 a2 b3 cf 3c c3 72 97 3d 58 a8 56 bd 18 80 5d be
       0.02535421 0.07394936 -0.05240664 -0.21630895
0000d0 18 05 a7 3e 64 af 9f bd d6 2d 30 bd a7 74 63 bd
       0.32621074 -0.07797125 -0.043012463 -0.05553117
0000e0 e2 8a 3c 3d 74 7f 7c 3c 52 56 bc 3e 52 b5 84 3c
       0.046030886 0.015411247 0.36784607 0.016199742
0000f0 75 48 2d 3e 92 1b a5 bb 45 14 fa 3d 57 60 45 bd
       0.16922171 -0.005038687 0.12210897 -0.04818758
000100 64 f1 6b bc 2a 47 af 3e 12 51 be 3c 3d 5c 2d 3e
       -0.014400814 0.3423398 0.023232017 0.16929717
000110 47 c9 b1 bd 3b 4f 1a be a9 1a e9 3e 9f 9c 88 be
       -0.08680969 -0.15069287 0.45528153 -0.26681992
000120 03 fe e1 bc 18 8c ac bc 32 39 95 3d f7 2b 32 3d
       -0.027586943 -0.021062896 0.072863 0.04349896
000130 54 62 83 3e 00 70 29 3a b6 0f 94 3c 88 70 67 be
       0.25660956 0.00064635277 0.018073898 -0.22601521
000140 02 ff 41 3e ad f6 57 3d 39 e8 43 bd d9 65 26 3d
       0.18944934 0.052725483 -0.047828887 0.040624473
000150 24 2d 9a bc f1 0c 03 3e 91 34 8c 3d 5c e0 2f bd
       -0.018820353 0.12797906 0.06845964 -0.042938575
000160 03 9c e4 3e 6f a5 91 3d c0 a4 92 be cd a4 61 3d
       0.44650277 0.07111632 -0.2864132 0.055088807
000170 03 cb e7 3d 41 28 40 3d 3c 0e 7b be d8 b5 f6 bb
       0.11318018 0.04691339 -0.24517149 -0.0075290017
000180 1a 2c f1 3c 60 4d 1c 3e ff dd af 3e b4 89 11 bd
       0.029439975 0.15263891 0.34349057 -0.035531715
000190 f6 99 a1 bc 19 35 9d bd c3 f1 38 3d ba f9 ab 3c
       -0.019726735 -0.07676143 0.045152437 0.020993102
0001a0 47 4c 6b bd 76 88 06 3d 4d 6e 17 be d7 a9 e4 3c
       -0.05744579 0.032844983 -0.1478817 0.027913017
0001b0 dd b8 8c bd 59 c5 2c bd 58 c0 b4 3d f5 54 50 bd
       -0.068711974 -0.042180393 0.08825749 -0.05086227
0001c0 2b ab a2 be 40 6d 6a 3a 3c 72 a4 bc ca 7d ad be
       -0.31771216 0.0008942671 -0.020074002 -0.33885032
0001d0 ec 44 d8 3e 8e 5f 96 3c db b9 3f bd 43 ae 0b 3e
       0.42240083 0.01835611 -0.046808105 0.13640694
0001e0 2e 32 81 3c 14 aa 8e 3d eb c6 17 3e 89 3f 3b be
       0.015770998 0.069660336 0.14821975 -0.18285955
0001f0 26 72 37 be b2 d0 f4 bd 32 98 44 bd d8 fa ca bb
       -0.17914638 -0.11953868 -0.047996707 -0.0061944537
000200 63 89 3f bd be e0 40 bd b0 51 be bd 81 3a 58 3d
       -0.04676188 -0.04708933 -0.092929244 0.05279017
000210 c7 68 01 be 86 bd db bd 3a f4 60 3d e2 20 0b bd
       -0.12637626 -0.10729508 0.054920413 -0.033966906
000220 d9 01 06 bd 7c 09 3f be 0c 1d 63 3c ef 95 43 be
       -0.032716606 -0.18655962 0.013861906 -0.19100164
000230 d1 25 36 3c ec 3b 95 3d 90 2e 9a 3c 1a 06 02 3e
       0.011117415 0.0728682 0.01882103 0.1269764
000240 e1 3a 27 3e 4a 47 ca 3c 53 98 86 bd 3e 3e b2 3c
       0.16331054 0.024692196 -0.06572022 0.021758195
000250 cd a0 ba bb e5 ce 5f bd a8 7b 98 bd 99 61 16 3d
       -0.0056954385 -0.05464067 -0.074454606 0.03671417
000260 dc b0 e8 3c 23 2a 3d 3d 24 e9 57 bd 18 67 de 3d
       0.028404646 0.046182763 -0.052712575 0.10859507
000270 79 d7 d4 bc 9d 37 99 3e bf 93 81 3d 2c 45 c4 bc
       -0.025981652 0.29925242 0.063270085 -0.023958765
000280 4b e6 8d 3b de 5e c6 bd 1d 72 8d 3e 80 ea cd bb
       0.0043304316 -0.09686063 0.27626124 -0.006284058
000290 fd 5e cd bd af 47 42 3d 93 56 08 bb 19 1e 03 3d
       -0.10027883 0.047431644 -0.0020803555 0.032011125
0002a0 99 21 96 bd 5b c4 16 bd 3d 69 4d be f7 cf 4b bd
       -0.07330627 -0.036808353 -0.20059676 -0.049758878
0002b0 c0 c6 62 bb 61 96 38 3e 9e 08 1b bd a3 65 c4 bd
       -0.0034603328 0.18026115 -0.037850015 -0.09589698
0002c0 99 23 17 3e f3 25 d8 3d 66 0f 4c be ae 87 6d be
       0.14759673 0.10554113 -0.19927749 -0.23196289
0002d0 00 79 77 3e 00 9f 51 ba f8 8a da bd aa 80 b0 bc
       0.24167252 -0.000799641 -0.106710374 -0.021545727
0002e0 41 db d6 bd 19 dd 1a 3d 9e a5 f6 bd 56 57 20 be
       -0.10491038 0.03780851 -0.12043308 -0.15658316
0002f0 28 2a 8e 3e a0 74 8f 3a fb 6c 4f 3d 74 49 c8 bc
       0.27766538 0.0010944791 0.05064104 -0.024449088
000300 86 32 fd 3c cc ad 5e 3e 75 31 8f 3e c4 8c d7 3d
       0.03090788 0.21745986 0.2796742 0.10524896
000310 ff 90 61 bc 25 49 b5 bd 71 1a c4 bd 0a 7c 08 bd
       -0.01376748 -0.08851842 -0.09575356 -0.033321418
000320 e9 41 a2 3d 64 1c 8d bc f7 b0 4c bd 20 5e 7c 3b
       0.079227276 -0.017225452 -0.049973454 0.0038508251
000330 36 33 5d bd 44 4e 27 3e e6 81 14 be a9 93 43 bd
       -0.054003917 0.1633845 -0.14502677 -0.04774824
000340 80 78 56 bd e1 ee 85 be 54 c7 47 3c 91 43 25 be
       -0.05236101 -0.26158813 0.01219352 -0.16139056
000350 a7 c7 0e be 6e 17 21 3e 55 0b a9 bd 37 45 14 3e
       -0.13943349 0.15731594 -0.082541145 0.14479528
000360 37 0b 1e 3e 2f de 46 3d 8a 72 29 be 57 fb 0d bd
       0.15433966 0.048551735 -0.165476 -0.034663524
000370 71 14 bb bc 74 99 7f 3c 13 12 49 3c d4 5b 18 3e
       -0.022836896 0.015600551 0.012272376 0.1487878
000380 66 4f fa 3b 7a 80 8e 3c 34 87 58 3c 0f 66 31 3e
       0.0076388596 0.017395247 0.013215829 0.17324089
000390 58 fa a0 3b 82 17 ac 3e e1 5b dc 3d 44 55 51 be
       0.004912656 0.33611685 0.10759712 -0.20442683
0003a0 72 4f ae bd 25 f7 58 be 92 70 3b be 74 e4 04 bd
       -0.08511247 -0.21188028 -0.18304661 -0.032444432
0003b0 54 db ac 3d 80 31 d6 bb ea cc 4c be 48 62 65 bc
       0.08440271 -0.0065366626 -0.20000044 -0.014000483
0003c0 a2 44 9d 3d 46 66 bf bd 1e 33 b8 3c 01 d7 0f 3d
       0.07679106 -0.09345679 0.022485312 0.035117153
0003d0 91 19 2e 3d 0c c7 96 3c c0 23 57 bc cf 06 82 be
       0.04250485 0.01840546 -0.013131082 -0.2539582
0003e0 b9 b0 df bd a9 9b 05 3d 66 94 19 be 4e 9d c0 bd
       -0.10922379 0.032619152 -0.14998016 -0.094050035
0003f0 6d 8a 18 3e 84 d3 02 3c bc 77 0d 3d 74 92 58 3c
       0.14896555 0.007985 0.034538016 0.013218511

bias f4 [6]
000000 c5 b8 f3 bc 76 77 45 3d a6 47 9a 3e be a1 5f 3e
       -0.02975119 0.04820963 0.30132788 0.21839043
000010 6a 8f 5f 3e 10 cf b7 bc
       0.21832052 -0.022437602

weight f4 [1, 6]
000000 87 18 54 40 df 54 bd bf 49 1e 25 c0 db 2a ca bf
       3.313997 -1.4791526 -2.5799735 -1.5794328
000010 fa 5b 0f c0 df fa 44 bf
       -2.2399888 -0.769453
