Data/Torch models/Model Records/P2_20240716_L_channel1_fold2_round4.pt (torch, 10967 bytes, 5 tensors)

weight f4 [18, 4]
-0.72981304 -0.00033088477 -0.5272007 0.3345359 -0.12339759 0.042179823 -0.11202699 0.29814208
-0.16141343 0.93798995 1.0253772 1.242711 -0.33293822 0.3357041 0.24775925 -0.44609964
0.3679674 1.5604831 1.2652717 -0.1537659 0.5247152 -0.41790274 -0.17978942 -0.26417977
-0.22479087 -0.05511993 -0.39335448 0.49401695 0.37885058 1.1017814 0.2617966 1.1078826
1.6483347 -0.97729933 -0.4056648 -0.26587948 -0.30239248 0.12574619 -0.16810012 0.36810994
0.64560163 -0.32204872 -0.5482738 -0.6347227 -0.65243137 0.14875956 0.8626962 0.50792855
0.27969226 -0.22944458 -0.0768978 -0.3531463 -0.26908565 0.0018672943 -0.4906677 -0.321531
0.7337613 1.7807369 0.5628724 -0.65938586 1.1325585 0.08504517 0.91176134 -0.20528427
1.1619228 0.57268804 0.22449388 1.7741467 0.051065646 -0.22865559 0.47483036 -1.2482471
00000000: 07d5 3abf 9a7a adb9 a0f6 06bf 4a48 ab3e
00000010: e0b7 fcbd c0c4 2c3d 686e e5bd 14a6 983e
00000020: 9049 25be 1c20 703f 8f3f 833f 2711 9f3f
00000030: e176 aabe 68e1 ab3e 9ab4 7d3e 2c67 e4be
00000040: 3966 bc3e e9bd c73f 6cf4 a13f cf74 1dbe
00000050: bc53 063f 59f7 d5be b81a 38be 9242 87be
00000060: 942f 66be 70c5 61bd c265 c9be caef fc3e
00000070: b4f8 c13e 2c07 8d3f 340a 863e 19cf 8d3f
00000080: a2fc d23f 4a30 7abf 4cb3 cfbe 5b21 88be
00000090: 30d3 9abe 9cc3 003e 7022 2cbe e878 bc3e
000000a0: 2646 253f 92e3 a4be ac5b 0cbf 307d 22bf
000000b0: be05 27bf 6d54 183e a8d9 5c3f 9b07 023f
000000c0: d333 8f3e 85f3 6abe 987c 9dbd 98cf b4be
000000d0: 98c5 89be 00c0 f43a cc38 fbbe b69f a4be
000000e0: c8d7 3b3f 30ef e33f 6818 103f 83cd 28bf
000000f0: adf7 903f 292c ae3d 3169 693f 0a36 52be
00000100: e3b9 943f af9b 123f b9e1 653e 3d17 e33f
00000110: 362a 513d b124 6abe f71c f33e 90c6 9fbf

bias f4 [18]
0.72886693 -0.24963927 -0.23049532 -0.25062165 0.10655915 -0.21338186 -0.33374214 0.03636245
0.0005244977 -0.41855788 0.85526586 0.6363323 -0.2797899 -0.21080303 -0.00046289456 0.6072655
0.032733783 0.94900405
00000000: 0697 3a3f 70a1 7fbe f706 6cbe 7b51 80be
00000010: af3b da3d c680 5abe 40e0 aabe cbf0 143d
00000020: 727e 093a 384d d6be b4f2 5a3f ace6 223f
00000030: 9f40 8fbe c0dc 57be a8b0 f2b9 c075 1b3f
00000040: dc13 063d eef1 723f

weight f4 [6, 324]
0.05678219 -0.026371446 0.051803943 0.044728458 0.13527535 -0.045590665 -0.023736827 0.16300838
0.04016456 -0.0019689947 -0.02099927 0.07547631 -0.032289535 -0.04047274 0.046233088 0.05923474
0.17622823 -0.056170914 0.120724104 -0.016373582 0.2144997 -0.0017064549 0.05387923 -0.14326642
-0.05295411 0.21391775 -0.21196592 -0.010433171 -0.19557242 0.099992774 0.03221835 -0.012852959
-0.057750996 -0.18023963 0.12045512 -0.22738573 0.08669946 -0.051234465 0.03557311 -0.0012848362
0.3465509 -0.25743538 0.025258403 0.26246858 -0.32479596 -0.009633116 -0.1928273 0.20685427
0.04468513 -0.040488515 0.2953494 0.04726449 0.27089834 -0.14188679 -0.26935026 0.027180832
-0.3358254 0.024448788 0.6185587 -0.04816461 0.01787724 -0.14079072 0.32889208 0.042106386
0.19634812 -0.1243253 -0.03468984 -0.01587389 0.71227133 0.6582128 -0.28715262 0.57397
-0.028863758 -0.02853026 -0.2080996 -0.017124098 0.01668998 0.0061669564 0.033179406 -0.052465808
-0.110025056 0.040979963 0.037142675 -0.08957584 -0.0492703 0.026981521 0.121046685 -0.046373393
-0.19557112 0.07332975 -0.1934494 -0.021075025 -0.3776647 0.018401401 -0.018741012 0.03221154
0.016638163 -0.2355616 0.38390142 -0.05307732 0.29640135 -0.32397452 0.04353465 0.022871774
0.16656975 0.14579634 -0.26786357 0.24862815 -0.01155086 0.038274866 0.030090889 -0.0010700746
0.17478713 0.04435225 0.038611893 0.17952707 0.06256352 0.0010368042 -0.041986007 -0.03193481
-0.048442885 0.009262789 0.13787197 0.103209615 0.2678269 -0.08752283 -0.1005445 0.019164968
0.3058224 -0.040278774 0.21607044 0.003613789 -0.032299586 0.14454918 0.16890386 -0.032211646
-0.097964734 0.12535015 0.04166938 0.05477074 0.028859051 0.19853233 0.27887022 -0.036060337
0.10260486 0.021280836 0.24284908 -0.041833896 0.08830559 -0.031336922 -0.039264582 -0.040768612
-0.14469723 -0.04758805 -0.04134261 0.20688666 -0.05396517 0.020068284 -0.17207243 0.13192874
-0.10363038 0.17487848 0.0866839 -0.041603766 -0.02764687 0.02408717 0.24709077 -0.051837936
-0.0064336397 -0.13671339 -0.17565995 0.024383787 -0.050535023 0.06483885 -0.028955162 0.026273523
0.27771044 0.08702273 -0.36865517 0.2737448 -0.009856292 -0.03860602 -0.1926859 -0.029816395
-0.21511514 -0.061787672 0.004270375 -0.24080095 0.14534187 0.03951055 0.101203166 -0.051749468
0.034695927 0.052384194 -0.33879313 -0.10270547 -0.17217955 0.10262555 -0.09967583 -0.016355172
-0.39228874 -0.014196512 -0.40177026 0.020370124 -0.012181632 -0.40145987 0.31481275 -0.009998143
0.23397607 -0.18511501 -0.03784928 0.054291073 -0.278985 0.003347142 -0.3820283 0.29045007
0.13882747 0.042129498 -0.32956174 -0.012395031 -0.14296113 -0.08919402 -0.032646373 -0.30098045
0.08458531 -0.022549503 0.20136157 -0.2217432 0.05258503 0.04291511 0.09801536 -0.05027264
-0.5834976 0.32410726 0.14375104 -0.033789113 0.22011498 0.043724783 0.12598914 0.0258035
-0.010802608 -0.12205346 -0.2718664 0.013431769 -0.10626903 0.2512746 -0.039152134 -0.010678608
0.0009600719 0.1024369 -0.25767937 0.23163544 0.18405324 -0.04845194 -0.020109413 0.013300374
00000000: 7194 683d ee08 d8bc 5f30 543d 3035 373d
00000010: 9f85 0a3e 47bd 3abd bc73 c2bc abeb 263e
00000020: 9883 243d 400a 01bb a906 acbc 5393 9a3d
00000030: 0842 04bd bec6 25bd e85e 3d3d 20a0 723d
00000040: 2c75 343e 7913 66bd 333e f73d e421 86bc
00000050: cfa5 5b3e 20ab dfba 78b0 5c3d 6fb4 12be
00000060: 69e6 58bd 410d 5b3e 980d 59be e4ef 2abc
00000070: 2344 48be 03c9 cc3d 63f7 033d 3895 52bc
00000080: 4f8c 6cbd bd90 38be 2db1 f63d ced7 68be
00000090: 7d8f b13d 3bdb 51bd 1cb5 113d f367 a8ba
000000a0: 1f6f b13e 92ce 83be b6ea ce3c 4862 863e
000000b0: a84b a6be 38d4 1dbc 8574 45be 9bd1 533e
000000c0: c107 373d 49d7 25bd 0938 973e 6998 413d
000000d0: 30b3 8a3e c54a 11be 47e8 89be 56aa de3c
000000e0: 4ff1 abbe d348 c83c dd59 1e3f 4148 45bd
000000f0: 4a73 923c 712b 10be 8b64 a83e bf77 2c3d
00000100: 7b0f 493e 439e febd ef16 0ebd f609 82bc
00000110: 6a57 363f a280 283f ab05 93be b3ef 123f
00000120: b073 ecbc 4bb8 e9bc 1018 55be d647 8cbc
00000130: 6db9 883c 2e14 ca3b 21e7 073d 63e6 56bd
00000140: d154 e1bd 9bda 273d eb22 183d 8a73 b7bd
00000150: a7cf 49bd 5a08 dd3c 53e7 f73d 07f2 3dbd
00000160: cc43 48be e82d 963d 9917 46be 88a5 acbc
00000170: 445d c1be 89be 963c c086 99bc 3ff0 033d
00000180: c24c 883c 0f37 71be ba8e c43e 9b67 59bd
00000190: ebc1 973e fddf a5be 6451 323d 965d bb3c
000001a0: 4391 2a3e a34b 153e 6a25 89be 6198 7e3e
000001b0: d13f 3dbc 1bc6 1c3d 2b81 f63c bf41 8cba
000001c0: 66fb 323e b4aa 353d 8127 1e3d f2d5 373e
000001d0: 4e21 803d 60e5 873a 85f9 2bbd 13ce 02bd
000001e0: 0c6c 46bd f4c2 173c 4f2e 0d3e 905f d33d
000001f0: 9c20 893e 2b3f b3bd 46ea cdbd daff 9c3c
00000200: c194 9c3e 5bfb 24bd 9241 5d3e 52d5 6c3b
00000210: 924c 04bd b304 143e 22f5 2c3e 5cf0 03bd
00000220: bca1 c8bd ca5b 003e 83ad 2a3d 4957 603d
00000230: d169 ec3c 0f4c 4b3e 14c8 8e3e 01b4 13bd
00000240: 7f22 d23d 2655 ae3c 6ead 783e 055a 2bbd
00000250: 90d9 b43d 255b 00bd e6d3 20bd fdfc 26bd
00000260: 832b 14be b0eb 42bd de56 29bd 19da 533e
00000270: 950a 5dbd 3e66 a43c c133 30be 5418 073e
00000280: 2a3c d4bd 5813 333e 5487 b13d b668 2abd
00000290: b07b e2bc 7552 c53c 5d05 7d3e 0454 54bd
000002a0: 48d1 d2bb 98fe 0bbe 34e0 33be 82c0 c73c
000002b0: d0fd 4ebd 3bca 843d 6033 edbc 923b d73c
000002c0: 1030 8e3e f938 b23d 5fc0 bcbe 4728 8c3e
000002d0: 497c 21bc 5921 1ebd 744f 45be 8341 f4bc
000002e0: 2547 5cbe 1215 7dbd 80ee 8b3b 8694 76be
000002f0: 80d4 143e d1d5 213d 9b43 cf3d 40f7 53bd
00000300: 511d 0e3d cf90 563d 4b76 adbe 3f57 d2bd
00000310: d64f 30be 582d d23d d722 ccbd 48fb 85bc
00000320: 12da c8be 7d98 68bc d5b4 cdbe 3fdf a63c
00000330: 7895 47bc 268c cdbe 232f a13e 40cf 23bc
00000340: 6c97 6f3e ca8e 3dbe d907 1bbd 5160 5e3d
00000350: 1fd7 8ebe b95b 5b3b 3799 c3be dfb5 943e
00000360: ca28 0e3e fb8f 2c3d 51bc a8be 8714 4bbc
00000370: 6764 12be 5bab b6bd 34b8 05bd 1c1a 9abe
00000380: 103b ad3d bcb9 b8bc ba31 4e3e a610 63be
00000390: 6763 573d c1c7 2f3d 47bc c83d afea 4dbd
000003a0: 1960 15bf 63f1 a53e 7933 133e 7466 0abd
000003b0: d265 613e c218 333d 4c03 013e dd61 d33c
000003c0: 6cfd 30bc 2af7 f9bd 1332 8bbe ec10 5c3c
000003d0: 94a3 d9bd 10a7 803e fd5d 20bd 54f5 2ebc
000003e0: 56ad 7b3a 70ca d13d 8dee 83be d731 6d3e
000003f0: 7478 3c3e 8b75 46bd 7fbc a4bc d0e9 593c

bias f4 [6]
0.08099825 0.19452666 -0.026017018 -0.049940966 -0.021731775 0.15933552
00000000: 69e2 a53d ff31 473e a421 d5bc e68e 4cbd
00000010: d606 b2bc da28 233e

weight f4 [1, 6]
-2.5776298 -2.4696243 1.6804848 2.0540764 1.6085309 -2.6216624
00000000: e3f7 24c0 530e 1ec0 201a d73f fd75 0340
00000010: 57e4 cd3f 51c9 27c0
