Data/Torch models/P2_20230827_R_channel4_fold1_best.pt (torch, 10967 bytes, 5 tensors)

weight f4 [18, 4]
000000 8c 37 b8 be 00 2a f6 bc a4 6c 2f 3e 8a 68 a5 be
       -0.3597988 -0.030049324 0.17131287 -0.3230632
000010 4e 5d 05 3f 3a 0d 9d be a1 9c e1 3c fa d3 92 3e
       0.52095497 -0.30674154 0.027540507 0.2867735
000020 81 39 99 3d 42 80 81 bf 6a 92 cf be 91 49 e5 be
       0.07481671 -1.0117266 -0.40541393 -0.4478269
000030 a2 e1 3a 3f a3 1d 50 3e e9 ad f4 3d 33 8b 36 bf
       0.7300054 0.20323806 0.11947233 -0.7130615
000040 9a e3 31 3f 33 b0 bc bd db 28 33 bf 12 9f 93 3e
       0.6948792 -0.09213295 -0.69984215 0.288323
000050 72 72 c2 3e 61 f9 4f 3f 22 d5 68 3e 9d 5f a5 be
       0.3797794 0.81239897 0.22737554 -0.3229951
000060 2e d6 cb be fe 13 ef be 54 46 3c be 5b 08 d9 be
       -0.39811844 -0.4669494 -0.18386203 -0.42389187
000070 36 a9 c1 3d 08 51 93 b5 f8 d8 51 3d 50 0f 90 3e
       0.094561026 -1.0975937e-06 0.05123231 0.28136683
000080 35 ea fa 3e ef 61 a8 be 5c e0 00 3e 5c d6 24 3e
       0.4900681 -0.32887217 0.12585586 0.16097397
000090 bf f0 c7 3e 61 3c fa be 92 12 17 bd a8 8c 85 bd
       0.39050862 -0.4887419 -0.036882944 -0.06520969
0000a0 23 c6 06 bf 59 e1 58 be d5 1c 1e bd 52 85 57 be
       -0.5264608 -0.21179713 -0.038601715 -0.21046951
0000b0 47 71 76 3d ae 3c 50 bf ea e0 9a bb fc c3 a7 be
       0.060166623 -0.8134259 -0.004726519 -0.32766712
0000c0 f4 29 8e be a2 38 9e 3e 44 18 4d be 08 e2 cc 3d
       -0.27766383 0.30902582 -0.20028788 0.100040495
0000d0 1d b7 d9 3e 16 7d 23 be ce 41 41 be 00 09 04 bc
       0.42522517 -0.15965685 -0.18872759 -0.008058786
0000e0 b4 f1 66 be 10 1a cd bd 02 af 98 be b8 4b aa 3e
       -0.2255314 -0.10014737 -0.2982102 0.33260894
0000f0 76 f8 00 3f 1d 06 cf 3e 1b f9 30 bf 57 8b 59 3e
       0.5037912 0.40434352 -0.69130105 0.2124456
000100 4f 11 6e be e5 1b e6 be d8 cc d7 be c0 6c 3f bd
       -0.2324879 -0.44943157 -0.4214847 -0.04673457
000110 7b b4 1d 3e 4b 05 41 3e 92 b6 d1 3c ca dd 11 3f
       0.15400879 0.18849675 0.025599752 0.5697905

bias f4 [18]
000000 ec 94 aa be 9d 8d 0b be 2b cd ab 3f 5a 6e 07 bc
       -0.33316743 -0.1362824 1.3421987 -0.008266056
000010 35 e3 c6 3d a8 da 4c be 7f 74 5d 3f 97 a9 c1 bd
       0.09711305 -0.20005286 0.86505884 -0.09456175
000020 27 33 1f be 08 0d 99 be 40 00 3d 3f a4 08 42 3f
       -0.15546857 -0.29892755 0.73828506 0.75794435
000030 be 26 ca be 52 ce ac be f0 21 66 bd c3 0f 2b 3d
       -0.39482683 -0.3375116 -0.05618471 0.04176308
000040 48 f0 01 3e 27 48 f4 3e
       0.12689316 0.47711298

weight f4 [6, 324]
000000 ea 46 b5 bc 8c 9c 00 3d 2f 16 68 3e f7 f8 b7 3c
       -0.022128541 0.031399295 0.22664712 0.022457583
000010 dd f0 09 3e 43 5d 4a bd 04 a4 b1 3d 0b 1a 50 bd
       0.13470788 -0.049405348 0.086738616 -0.050806087
000020 96 c3 de bc 72 ad c8 3c 21 a2 4c bc 4b aa ac 3d
       -0.027192872 0.024496768 -0.012489826 0.08430918
000030 bc 5a 25 bd 59 8f 46 bd ee d1 ab 3c 85 cf f5 3d
       -0.040369734 -0.04847655 0.020974126 0.12002472
000040 ce c9 e6 3c a8 aa bf bd e0 bd 58 3b 8c 0b d3 bd
       0.0281724 -0.09358722 0.0033072159 -0.10304937
000050 f9 1d a9 bc 5f be 06 3d 55 51 11 bd b8 4d db 3d
       -0.020644175 0.032896396 -0.035477955 0.10708183
000060 cf fe 03 3d ed e4 60 bc 94 42 da bd f5 4b d2 3c
       0.032225426 -0.013726455 -0.1065723 0.025670985
000070 1b 20 c0 bc 18 df af bd 31 70 5e 3d ad d2 20 bd
       -0.02345281 -0.08587474 0.054306213 -0.039263416
000080 b0 7c 16 bc a8 3a c8 3d 33 05 2c bd c7 5c 47 3d
       -0.009185001 0.09776813 -0.041997146 0.048672464
000090 48 47 44 bc 29 b5 7d bc cc ed 39 bd d1 ad 7d 3d
       -0.011979885 -0.0154850865 -0.045392796 0.061933342
0000a0 21 9c 12 be 9e 91 c5 3d 81 07 3c 3d a0 36 d7 3c
       -0.14317371 0.09646915 0.045905594 0.026271164
0000b0 bb cc f2 ba 49 f2 f7 bb 4c 74 b3 3b 1a 9e a5 bc
       -0.0018524149 -0.0075667244 0.00547651 -0.02021699
0000c0 30 c6 52 bd 14 80 40 bd 73 03 30 3d cc 51 0f bd
       -0.051458538 -0.046997145 0.04297204 -0.034990117
0000d0 f6 70 ce 3c 28 d0 59 3d 9e 7b 3a bd 2f 6c 13 bd
       0.025200348 0.05317703 -0.045528047 -0.035991844
0000e0 00 ab 29 3d fa 1e 95 bd 4f f3 8e bc 5b a9 1a 3d
       0.041422844 -0.07281299 -0.017450003 0.037759166
0000f0 f2 f1 ad 3c c0 fb 89 bb 35 f0 44 3d 80 08 0c 3d
       0.021233533 -0.004210919 0.04808064 0.034187794
000100 32 49 4a 3d 42 7b 9f b9 c8 f6 cf 3b af 22 48 3d
       0.04938621 -0.00030418677 0.0063465573 0.0488612
000110 6a 62 f1 3c e9 6a 7a bc 62 17 5e bc 59 35 9c 3d
       0.029465873 -0.015284278 -0.01355538 0.07627363
000120 67 b4 21 bd 27 ad ce bc ca a9 84 3b af 81 86 bd
       -0.039478686 -0.02522905 0.0040485607 -0.06567704
000130 bf b0 8b bb 54 45 16 bc ad ea b3 3d 14 f7 42 3d
       -0.004263013 -0.009171803 0.08784995 0.047598913
000140 97 2c 87 3d 2a c8 1a 3d e3 0f 03 3d a8 62 04 3d
       0.06600302 0.037788548 0.031997573 0.03232065
000150 e0 56 81 3a 45 41 27 bd a4 7d 37 bd 1d e7 cf bd
       0.000986781 -0.04083373 -0.044797555 -0.10151503
000160 a8 e7 bd bc 13 b8 67 3d 85 7f 62 3d f8 92 90 3d
       -0.023181751 0.05657203 0.055297393 0.07059282
000170 be 06 b8 3d 30 41 9a bd cd 58 8e bc d1 f2 cf bd
       0.08985661 -0.07531965 -0.017376328 -0.101537354
000180 5a f4 8b 3c 94 dd ad 3d fc 25 b3 3d 3e 46 8e bb
       0.01708429 0.08489528 0.08747479 -0.0043418696
000190 6f 4b f6 3c ac 16 b7 3c 38 97 5d bc 85 39 9b bc
       0.030065266 0.022349678 -0.013524823 -0.018948326
0001a0 fc 2e 8f bc 35 2e 68 bd 23 cb 44 bd b3 85 52 3d
       -0.017478459 -0.05668469 -0.04804529 0.051397037
0001b0 00 6e a1 38 c1 43 bb bd fa 37 fa 3d 2b b3 e2 3c
       7.697567e-05 -0.091437824 0.12217708 0.027673325
0001c0 2c 44 67 3d d2 e8 9e 3c 8e a4 a7 3d b7 ba ee bc
       0.0564615 0.019398127 0.08185683 -0.029141767
0001d0 9a 5b 87 bd 1a cc 38 3b 90 b5 50 3d f4 53 c3 3d
       -0.066092685 0.0028197826 0.0509544 0.09537497
0001e0 5c 47 ac bc 7f 41 1f 3d 30 79 07 bc d0 cf 62 3d
       -0.02103012 0.03888082 -0.008268639 0.055373967
0001f0 59 3b 44 bd dc eb 2e bd 06 4a 3c bd 82 6c ed 3b
       -0.04790816 -0.0427054 -0.04596903 0.007245601
000200 5c f6 91 3e f3 fa 67 be f6 2b 1d 3e b9 57 09 be
       0.2850827 -0.22654323 0.15348801 -0.1341237
000210 62 7d 8d 3d fb bb ef 3c dd 95 38 3d f3 d6 2b 3d
       0.069086805 0.02926444 0.045064796 0.04195304
000220 d9 73 68 3d b2 d7 f7 3d 00 0f b7 bc ce f4 f7 3c
       0.056751106 0.121016875 -0.02234602 0.0302681
000230 60 fd c3 3a a5 ec cf 3d 46 60 20 bd fb b9 60 3d
       0.0014952831 0.10152558 -0.039154314 0.054864865
000240 24 5f 20 3c 28 9a 3e 3d e3 5e ce 3e 8b 94 06 be
       0.009788308 0.046533734 0.40306768 -0.13142602
000250 97 f3 c8 bc 76 57 63 be c9 b0 53 3e 51 f5 73 3b
       -0.024530215 -0.22201332 0.20672907 0.0037225077
000260 ce a3 82 bc 01 87 0b bd 11 fa 0f 3e 5f 43 9a 3e
       -0.015947249 -0.034064297 0.14060237 0.30129525
000270 40 76 24 3b 5f b9 ac bc b0 10 5b 3b 58 70 30 be
       0.0025094897 -0.021084486 0.0033426695 -0.17230356
000280 a3 4f 93 3c 0c 36 02 bd b8 47 a8 bb 9e ca 9b bd
       0.01798231 -0.031789824 -0.0051355027 -0.076070055
000290 7f a5 ae 3d a4 f3 a8 bd 25 da 52 bc 60 e1 a8 bb
       0.085276596 -0.08249596 -0.0128693925 -0.00515382
0002a0 b9 81 b3 3d e9 cd ab 3c bc d0 c5 ba f3 1d 88 bb
       0.08764977 0.020972209 -0.0015092115 -0.004153961
0002b0 57 97 48 3d 43 de 7c 3d a2 80 fd 3c 45 cd 24 3c
       0.048972454 0.061735403 0.030945126 0.010058706
0002c0 20 61 f4 3a 16 b1 15 bd ba dc 19 3d fd 71 31 3d
       0.0018644668 -0.036545835 0.037564017 0.0433216
0002d0 80 3a e5 ba f9 6d 99 bd a5 f9 2c ba 14 b7 f9 bd
       -0.0017488748 -0.07491679 -0.0006598479 -0.121931225
0002e0 41 ef e1 bd 9e 2f 0c bd 9b 9c bb 3d 77 8f 37 3d
       -0.11031962 -0.0342251 0.091607295 0.044814553
0002f0 5e 20 ea bd 7f 5e 88 bc 54 ae c9 3d 76 46 07 3c
       -0.11431955 -0.016646622 0.098477036 0.008256545
000300 e0 9e 84 bc cc be 3f bd 90 02 13 bd ba bd 91 3b
       -0.016189039 -0.046812817 -0.035891116 0.004447666
000310 7e 45 10 bd ad e3 40 bd 4b e7 22 3d be 9b 1d bd
       -0.035222523 -0.04709213 0.03977136 -0.038478605
000320 cb 13 ef 3d 1d d4 66 bd 49 b8 37 bd 43 73 f3 bb
       0.11673697 -0.05635463 -0.044853482 -0.0074295118
000330 7b c3 7c 3d f1 dd 00 3d 67 15 d8 39 5c 40 58 3d
       0.061709862 0.03146166 0.00041214676 0.052795753
000340 bd bf b1 3d 66 7b 89 3d 1a 9e cc 3c d0 c1 18 3d
       0.08679149 0.067129895 0.024977732 0.03729421
000350 48 dd 97 3b 86 06 35 bd 01 82 f2 3c a1 fe d4 bb
       0.004634533 -0.044195674 0.029603006 -0.0065000807
000360 2a 2c c1 bc f4 8b e3 bb b4 a2 a7 bc 85 94 c5 bd
       -0.02358063 -0.006944174 -0.020463325 -0.096474685
000370 e5 40 f1 bd 26 57 4c bd df 4f c6 3d 15 a8 06 bd
       -0.11779956 -0.0498878 0.09683203 -0.03287514
000380 c0 c5 2e bd 27 b1 0e 3d 05 6d fd 3d 3c 39 8a 3d
       -0.042669058 0.034836914 0.123743095 0.06749198
000390 1c 97 79 bc 01 47 cc bc 42 a1 b0 3c e8 a6 2b be
       -0.015233781 -0.024936201 0.021561269 -0.16762888
0003a0 bd e5 11 3d eb 5a e4 bc b8 3b e2 bb b5 05 91 3a
       0.035619486 -0.027875384 -0.0069040917 0.0011064323
0003b0 e1 68 32 3e e3 4f d9 bd 8e da 08 be fc 71 03 be
       0.1742282 -0.1061094 -0.13364622 -0.1283645
0003c0 ea 43 02 3e 5f 23 4b 3d c4 64 25 3c 4e 73 1c bd
       0.1272122 0.04959428 0.010094825 -0.0381959
0003d0 56 05 6a 3d ed 53 2b 3e 85 d7 60 3d 9a 85 44 3d
       0.057133995 0.16731234 0.054893035 0.047978975
0003e0 f8 e5 b0 bc ea 96 15 be 76 e5 2b bd da 87 11 bd
       -0.021594033 -0.1460835 -0.041966878 -0.03552995
0003f0 08 25 57 bc 78 30 9d 3d 45 3e 62 3e 1c 83 0c be
       -0.0131313875 0.0767526 0.22094066 -0.1372189

bias f4 [6]
000000 b3 5a cc 3d 7e 49 3d bb 68 47 f2 bc 2a 9a d4 3d
       0.09978237 -0.0028882916 -0.029575065 0.10380967
000010 31 07 18 3d 68 8a df 3d
       0.037116233 0.10915071

weight f4 [1, 6]
000000 d8 ae b0 bf 36 90 5f 3f 04 bd d1 3e 2c 24 e6 bf
       -1.3803358 0.87329423 0.4096452 -1.7979789
000010 2e 71 50 bf 16 e9 e0 bf
       -0.814227 -1.7571132
