Data/Torch models/P2_20230827_L_channel5_fold3_best.pt (torch, 10967 bytes, 5 tensors)

weight f4 [18, 4]
0.15103382 -0.4060315 -0.09175521 0.022135794 0.69181055 0.9397928 0.49556112 -0.18403246
0.43671656 0.24222788 0.13152047 0.5554547 -0.45185167 -0.6182335 -0.22985148 -0.1345546
0.22669609 0.42102438 -0.5014753 0.055241536 -0.027709873 0.5417079 0.44662702 0.5986594
0.1640379 0.4239071 -0.577958 -0.57557374 0.12445964 0.119284146 0.06953737 0.52605313
-0.4237356 -0.2143516 0.4159269 0.7625168 -0.37476307 -0.10673821 -0.38212222 0.3738399
-0.50857645 0.049926132 0.22459716 0.09817344 0.6765281 -0.44486523 0.083634645 -0.1907622
-0.479639 0.001147747 0.49144816 0.2693407 0.0010503526 0.66151905 0.6077604 0.34767503
-0.10698879 0.0034595132 0.16769499 0.29816866 0.67027277 -0.4770545 -0.27631512 -0.20181814
0.7058385 -0.64703107 -0.1661956 -0.014415956 0.32963663 0.87610793 0.5727947 0.8327775
00000000: 9ca8 1a3e 5ce3 cfbe 28ea bbbd 2056 b53c
00000010: 7f1a 313f 4396 703f 30ba fd3e 0173 3cbe
00000020: 5099 df3e 960a 783e 4dad 063e 4732 0e3f
00000030: 1a59 e7be 8d44 1ebf 305e 6bbe aec8 09be
00000040: 0523 683e 8290 d73e af60 00bf f344 623d
00000050: d1ff e2bc 5ead 0a3f 4cac e43e be41 193f
00000060: 8df9 273e 5a0a d93e 0ef5 13bf cd58 13bf
00000070: b2e4 fe3d 3f4b f43d 9c69 8e3d 6bab 063f
00000080: dff3 d8be fc7e 5bbe 5ff4 d43e 4d34 433f
00000090: f2e0 bfbe 9099 dabd 86a5 c3be f267 bf3e
000000a0: 1132 02bf 587f 4c3d ccfc 653e 280f c93d
000000b0: f230 2d3f 60c5 e3be a448 ab3d 2b57 43be
000000c0: 3e93 f5be 0070 963a 189f fb3e 06e7 893e
000000d0: fcab 893a 5059 293f 3096 1b3f 7602 b23e
000000e0: f01c dbbd 00b9 623b 3cb8 2b3e 90a9 983e
000000f0: ff96 2b3f 7d40 f4be 2d79 8dbe 6aa9 4ebe
00000100: d5b1 343f d4a3 25bf 2e2f 2abe e730 6cbc
00000110: 22c6 a83e 9c48 603f aca2 123f e830 553f

bias f4 [18]
-0.2695083 0.07528218 -0.40726906 1.0703646 0.6796152 0.24772649 0.5661622 0.2657197
0.3468885 -0.108133495 0.49787718 0.35498366 -0.34458703 -0.33024585 -0.4139313 -0.026232848
0.4197365 1.7380778e-05
00000000: fefc 89be 8b2d 9a3d 9285 d0be b501 893f
00000010: 43fb 2d3f 03ac 7d3e 02f0 103f 6a0c 883e
00000020: 5f9b b13e 1875 ddbd c2e9 fe3e 6bc0 b53e
00000030: b66d b0be fc15 a9be ceee d3be 45e6 d6bc
00000040: b4e7 d63e f0cc 9137

weight f4 [6, 324]
-0.039325476 -0.0039093993 -0.059362456 0.098808356 -0.00555745 -0.070972115 0.0582609 -0.086353645
-0.040044107 0.03727286 0.011577218 -0.08134174 0.03193145 -0.0005661721 -0.04832744 -0.077182464
-0.06828909 -0.10882656 0.04533076 0.0074153114 -0.04636953 -0.0139614185 0.029475117 -0.0069201007
0.078065746 0.041168243 -0.0062428657 0.03464121 0.021684611 0.038787965 -0.05433664 -0.034846827
0.008048784 -0.012634011 0.017422354 0.019530877 0.042290676 0.17672335 0.048505954 -0.037859004
-0.021381883 0.09702698 -0.022613453 -0.032788377 -0.09517594 -0.036765695 0.0033019166 0.01489141
-0.0101967715 0.012157294 0.005635161 -0.03241589 0.077539496 0.11969727 -0.036113665 0.13226077
0.041279074 0.009799591 -0.009814894 0.04674356 -0.028572652 0.069345005 0.04106185 -0.04168587
-0.03917929 0.071873866 -0.026080867 0.027288642 0.020313729 0.019149948 0.0057459823 0.04854687
0.021070931 0.09780254 0.024782993 0.01785632 0.0194677 0.10494318 0.09310084 0.016073205
-0.04505865 0.031342115 -0.0077441204 -0.029794408 -0.010128021 0.011967554 -0.05525904 0.0009816379
-0.0048872107 0.055401832 0.040183034 0.079579405 -0.07521284 0.0002607405 0.12591451 -0.0040565813
0.13842937 0.0052861846 -0.011962278 0.022483844 -0.028685888 0.019608792 0.044818725 0.011084935
0.00026790425 -0.018633509 0.009308286 0.020501027 0.041894455 -0.006727793 -0.01655632 0.017539874
-0.007277449 0.048681054 0.06304633 0.049059648 -0.063656054 0.050173204 0.068463095 -0.07443916
0.004758358 -0.038539536 0.027626764 -0.03407987 -0.05684877 -0.00017263014 -0.020559259 -0.011255167
-0.0151395295 0.013782903 -0.043911874 0.058954727 0.0008842332 -0.031813707 0.06809334 -0.03498318
0.072502024 0.0024078062 0.021843556 0.077735186 0.0077002384 0.019929389 -0.024498103 -0.017744206
0.053291958 -0.03633689 -0.025039935 0.11659718 -0.02285276 -0.08553184 0.08513884 -0.06979276
-0.024365429 -0.045393117 0.014897863 0.019063914 0.029734757 -0.036842756 -0.0119277425 -0.023187362
0.13158537 -0.16487595 0.030395035 -0.018151699 -0.057790376 0.014477463 0.012276326 -0.009150689
0.058232393 -0.0052808314 -0.06175823 -0.03963507 0.011510149 0.10449326 -0.0064421706 -0.023852134
0.014359038 -0.020044776 0.06563934 -0.10426641 -0.020902686 -0.050199628 -0.043475825 0.028074985
0.053891268 -0.065183066 0.09479907 -0.06747865 -0.012080726 -0.0305666 0.0025505575 0.1139129
0.0474608 -0.067317285 0.035689007 0.051535323 0.030565798 -0.17668734 0.009573702 -0.09276839
-0.03303286 0.05044326 -0.0080762245 -0.101071306 0.053649377 0.0025613827 -0.007606628 -0.013945714
-0.027542083 0.045379277 0.0419649 -0.05964778 -0.034875534 0.05489817 0.080213346 -0.15379873
-0.008453794 -0.13217162 -0.05266124 0.1580635 -0.016576283 0.01439078 -0.06126311 -0.0035710013
0.09763304 0.031970743 -0.00028532319 -0.02160223 -0.023099318 -0.08658294 -0.034040008 0.007666162
0.09489169 -0.065443516 0.004040044 -0.13904749 0.04202852 0.09567256 -0.008151784 -0.0090974
-0.08104666 -0.02739296 0.06464668 -0.055122238 -0.019962292 0.02759268 -0.036693625 -0.040346008
-0.04742057 0.007155186 0.067160085 -0.024829188 -0.007379703 -0.10996566 -0.033918127 0.10620953
00000000: c013 21bd 6b1a 80bb 0c26 73bd 095c ca3d
00000010: 451b b6bb d459 91bd fba2 6e3d 2eda b0bd
00000020: 4a05 24bd 6dab 183d 5fae 3d3c 8096 a6bd
00000030: 8dca 023d 2b6b 14ba fef2 45bd d711 9ebd
00000040: 27db 8bbd 76e0 debd bfac 393d 24fc f23b
00000050: faed 3dbd 6fbe 64bc cd75 f13c 03c2 e2bb
00000060: efe0 9f3d 08a0 283d f490 ccbb f1e3 0d3d
00000070: eda3 b13c 21e0 1e3d 1990 5ebd 8cbb 0ebd
00000080: 0cdf 033c e2fe 4ebc 53b9 8e3c 38ff 9f3c
00000090: fd38 2d3d f7f6 343e 2eae 463d 0b12 1bbd
000000a0: 0f29 afbc 15b6 c63d d93f b9bc 1b4d 06bd
000000b0: 9aeb c2bd a097 16bd f864 583b 1afb 733c
000000c0: 5c10 27bc 632f 473c 28a7 b83b 86c6 04bd
000000d0: 07cd 9e3d d823 f53d eceb 13bd 5e6f 073e
000000e0: 3f14 293d 778e 203c a6ce 20bc 2d76 3f3d
000000f0: 3211 eabc c104 8e3d 7830 283d cebe 2abd
00000100: 777a 20bd 9b32 933d 8ba7 d5bc 6e8c df3c
00000110: fa68 a63c 5ae0 9c3c cb48 bc3b 15d9 463d
00000120: f29c ac3c b34c c83d b405 cb3c 6b47 923c
00000130: ba7a 9f3c 73ec d63d a7ab be3d f4ab 833c
00000140: 6b8f 38bd 9760 003d 64c2 fdbb 6713 f4bc
00000150: 00f0 25bc 8f13 443c 4e57 62bd 4daa 803a
00000160: e524 a0bb 08ed 623d f796 243d 87fa a23d
00000170: 3109 9abd ffb3 8839 bcef 003e 12ed 84bb
00000180: 6ec0 0d3e bb37 ad3b 6efd 43bc 0a30 b83c
00000190: abfe eabc 9ea2 a03c d793 373d 969d 353c
000001a0: 8075 8c39 4da5 98bc c881 183c c5f1 a73c
000001b0: 8599 2b3d d174 dcbb 1fa1 87bc c8af 8f3c
000001c0: ab77 eebb c965 473d 6f1e 813d c5f2 483d
000001d0: 1b5e 82bd 6b82 4d3d 6136 8c3d 8f73 98bd
000001e0: 00ec 9b3b a2db 1dbd 8651 e23c 5597 0bbd
000001f0: 41da 68bd 0d04 35b9 e46b a8bc 9867 38bc
00000200: ca0b 78bc afd1 613c f0dc 33bd 837a 713d
00000210: e3cb 673a 174f 02bd 8574 8b3d 864a 0fbd
00000220: f17b 943d 49cc 1d3b 42f1 b23c a033 9f3d
00000230: 4852 fc3b f542 a33c 3fb0 c8bc 4c5c 91bc
00000240: ab48 5a3d fed5 14bd 8d20 cdbc 81ca ee3d
00000250: b635 bbbc 512b afbd 465d ae3d 82ef 8ebd
00000260: 029a c7bc 22ee 39bd 2b16 743c ed2b 9c3c
00000270: 4e96 f33c 6ee8 16bd 946c 43bc 6cf3 bdbc
00000280: 51be 063e 3ed5 28be 02ff f83c dfb2 94bc
00000290: 9ab5 6cbd e232 6d3c a522 493c c5ec 15bc
000002a0: 1785 6e3d d30a adbb 33f6 7cbd 6258 22bd
000002b0: 1095 3c3c 9000 d63d d818 d3bb 8d65 c3bc
000002c0: 2c42 6b3c f134 a4bc eb6d 863d a189 d5bd
000002d0: 1c3c abbc 209e 4dbd b513 32bd 83fd e53c
000002e0: 17bd 5c3d b37e 85bd 0426 c23d 3f32 8abd
000002f0: 3dee 45bc ce66 fabc 4127 273b 2b4b e93d
00000300: 4166 423d a5dd 89bd a32e 123d b416 533d
00000310: 2065 fa3c 87ed 34be 04db 1c3c 5bfd bdbd
00000320: 774d 07bd 989d 4e3d 2452 04bc 79fe cebd
00000330: 73bf 5b3d dfdc 273b 0541 f9bb 907c 64bc
00000340: ef9f e1bc 9fdf 393d 63e3 2b3d 3b51 74bd
00000350: a6d9 0ebd e7dc 603d e546 a43d 6a7d 1dbe
00000360: c881 0abc ff57 07be 50b3 57bd 66db 213e
00000370: fcca 87bc 4ec7 6b3c 07ef 7abd 7607 6abb
00000380: d5f3 c73d c1f3 023d 6e97 95b9 29f7 b0bc
00000390: c83a bdbc 6552 b1bd 896d 0bbd 6e34 fb3b
000003a0: 9356 c23d 4007 86bd 5862 843b 7762 0ebe
000003b0: 1926 2c3d faef c33d 0f8f 05bc 430d 15bc
000003c0: cbfb a5bd 3367 e0bc 7b65 843d dbc7 61bd
000003d0: f687 a3bc 0b0a e23c 0e4c 16bd db41 25bd
000003e0: 123c 42bd 0d76 ea3b 3a8b 893d 9566 cbbc
000003f0: 70d1 f1bb ad35 e1bd bced 0abd 6284 d93d

bias f4 [6]
0.0954834 0.1611971 0.0509857 0.16704313 0.070193216 -0.040840317
00000000: cd8c c33d da10 253e 62d6 503d 5b0d 2b3e
00000010: 76c1 8f3d 2d48 27bd

weight f4 [1, 6]
-0.85991824 0.78145814 -1.2862967 -2.0832295 -1.1973884 -0.47281578
00000000: 9a23 5cbf a40d 483f 5fa5 a4bf a253 05c0
00000010: 0644 99bf e914 f2be
