Data/Torch models/P2_20240716_L_channel11_fold2_best.pt (torch, 10967 bytes, 5 tensors)

weight f4 [18, 4]
000000 fc 2b 86 be e0 06 e9 bc fc eb 5e be 48 8f c4 be
       -0.26205432 -0.028445661 -0.21769708 -0.38390565
000010 d8 90 82 3d 10 a2 0c 3e dc 43 be be 20 b1 04 3e
       0.06375283 0.13733697 -0.37161148 0.12958193
000020 d8 98 31 3e 61 79 a6 3e 45 e0 1f bf cc 14 6a be
       0.17343462 0.3251448 -0.62451583 -0.22859496
000030 0a 85 06 bd 5d 17 2c be 93 b1 21 bc b0 7e 7b 3d
       -0.03284172 -0.16805787 -0.009868997 0.061400115
000040 bc cf 61 be 00 de ca bb 34 9c 2f 3e 50 7c 65 bd
       -0.220519 -0.0061910152 0.1714943 -0.056026757
000050 2f bb d1 bd 44 ef 1e bf 91 51 53 be 49 54 5f be
       -0.102407806 -0.6208384 -0.20636584 -0.21809496
000060 5a 29 80 3e f1 e2 a1 3e 73 a9 f7 be 80 40 d7 be
       0.2503155 0.31618455 -0.48371467 -0.42041397
000070 64 e0 78 be 61 3d 0b bf 76 01 e3 be 1c 44 0a 3c
       -0.24304348 -0.5439053 -0.44337052 0.00843909
000080 fc dc 1c be 2c 46 29 be 94 7d 30 3e be 05 e5 be
       -0.15318674 -0.16530675 0.17235404 -0.44730943
000090 b8 04 26 3e 47 39 6f 3f 5e da 15 3f 62 85 ba be
       0.16212738 0.93446773 0.58536327 -0.36429888
0000a0 a6 4e 04 bf de 7d 4f 3e cc 41 fe be 9b 06 81 3e
       -0.5168251 0.20262858 -0.49659574 0.25200352
0000b0 63 c0 3b 3e 04 c3 63 be 50 78 24 3f f1 43 4f 3f
       0.18335108 -0.22242361 0.6424608 0.80963045
0000c0 31 1e 8b 3b 95 91 d0 3e c2 ec ff 3c 5e 64 30 bf
       0.0042455425 0.4073607 0.031240825 -0.6890315
0000d0 20 2e a5 be 28 06 95 be ac 81 f5 be 7c c3 bb be
       -0.32261753 -0.2910626 -0.47950494 -0.3667258
0000e0 ef c3 53 3e b9 46 2d 3f 47 14 74 3f 07 a8 f1 3e
       0.20680211 0.6768604 0.9534344 0.47198507
0000f0 d4 c9 13 3e a4 34 0d bf 05 b5 4b be fc b4 02 3f
       0.1443246 -0.5515845 -0.19893272 0.5105741
000100 2e c7 bd be a0 c5 12 bd 57 cf 57 3e b2 6f 51 3f
       -0.37066025 -0.035833 0.21075188 0.8181106
000110 be 31 44 3f fb 4e 55 be 53 28 37 be 85 83 32 bf
       0.766384 -0.2083091 -0.17886476 -0.6973193

bias f4 [18]
000000 50 c6 7a bd b0 35 83 be e6 88 b5 3e ec f2 2b 3f
       -0.06122428 -0.25626898 0.35456008 0.67167544
000010 a0 0f 73 be 5b a5 56 3f ce dd ac 3e 46 ba 9c 3f
       -0.23736429 0.8384606 0.33762974 1.2244346
000020 80 7a 66 bd b1 0d 17 be e6 43 c8 3e 66 60 03 3e
       -0.05626917 -0.14751317 0.39114302 0.12829742
000030 2b 04 fc 3e 38 91 fc bd 1a d3 2d be 94 e3 e4 3e
       0.4922193 -0.12332386 -0.1697506 0.44704878
000040 32 90 ba 3e 9c e0 a2 3e
       0.36438137 0.31811988

weight f4 [6, 324]
000000 a3 0d 38 3d 38 2f 46 bc 9e a8 c3 ba c5 4a fb bb
       0.04493488 -0.012096219 -0.0014927571 -0.0076688253
000010 32 85 9a bc f3 92 c3 3d ea 47 40 3d 8d d2 02 3e
       -0.01886234 0.09549513 0.046943583 0.12775631
000020 ce 1d da 3c 37 28 b8 bd c2 9c 14 3d 8e fa 81 bd
       0.02662554 -0.089920454 0.03628231 -0.06346618
000030 71 3b 11 bd 38 25 9e bc eb 56 9b bd 06 91 3d 3d
       -0.03545708 -0.019304857 -0.07584938 0.046280883
000040 d1 20 6b 3b 78 d3 a4 3c 90 ec 6b bb 38 0c 87 bb
       0.0035877714 0.020120367 -0.0035999157 -0.0041213296
000050 3c 1b 4a 3c 48 74 95 3d fc 44 8c bc 79 04 72 3c
       0.012335595 0.072975695 -0.017122738 0.014771574
000060 c8 78 5c bd b5 62 4d 3d 10 17 38 bd 2c 6e 88 3c
       -0.053826123 0.050142962 -0.04494387 0.016654097
000070 9b 2d e0 3c 24 0b 00 3d a3 f4 00 bd 9d 0d f4 bc
       0.027365496 0.031260625 -0.031483304 -0.029791648
000080 9f e8 a2 bc 64 82 58 3d a6 38 af 3c ac 38 9d bd
       -0.019886313 0.052858725 0.021389317 -0.07676825
000090 e5 45 10 3d ea a4 ab 3c 1b 7c a7 bc 4d b1 b6 3c
       0.035222907 0.02095266 -0.02044492 0.02230134
0000a0 68 5b e7 3b d7 a4 8b 3d 28 5d 4d bd 5c 6a 94 3d
       0.007060457 0.0681855 -0.05013767 0.07246849
0000b0 f6 de a2 3c b2 92 66 bd 70 84 af 3c a9 e0 bb 3d
       0.019881707 -0.056292243 0.021425456 0.0917371
0000c0 c4 de 52 bd 25 f4 5b 3d 44 53 b7 3b 26 e9 7b 3d
       -0.051481977 0.05369963 0.005594643 0.061501645
0000d0 64 2b 01 3d fa 1f 23 3c fe 87 e5 3c ea d6 95 3c
       0.03153552 0.009956354 0.028018948 0.018290956
0000e0 b3 d9 a9 3d 96 00 08 bd a9 67 10 bd af a5 39 3d
       0.08293476 -0.033203684 -0.035255108 0.045324024
0000f0 2f fe 56 3d b6 99 32 3d 80 90 31 bc de 7e aa bb
       0.052488502 0.04360362 -0.010837674 -0.005203112
000100 f5 db 05 bd 33 ed 0f bd 6f 12 a0 bc 80 ad 07 bc
       -0.03268047 -0.03513832 -0.01954004 -0.008281112
000110 1a 97 87 bd b5 a9 8f 3d 8d ef 9b bb 9a 60 53 3d
       -0.06620617 0.07014791 -0.0047587813 0.0516058
000120 c8 88 a9 3b d8 72 a0 bc fd 08 fa 3a e6 f5 ae bc
       0.0051737763 -0.019586012 0.0019076165 -0.021357488
000130 20 85 39 bd 16 e1 2b 3d c5 f9 e6 bc a7 fb e2 3c
       -0.045292974 0.041962706 -0.028195271 0.027707888
000140 0d e6 5e 3d e0 2b 3c 3d 48 30 95 3d 7f 16 fc bb
       0.054418612 0.04594028 0.072845995 -0.0076931114
000150 51 4c 9d 3c 0e 9e f5 3c 40 23 97 bc e2 ce ee bc
       0.01920143 0.029982593 -0.018449426 -0.029151384
000160 05 90 b2 3d 64 c6 84 bd 4f f1 38 3d 80 ac f7 39
       0.08718876 -0.064831525 0.045152005 0.00047240034
000170 f7 d8 1f 3d 68 3f 02 bd ec a1 05 3c 78 2a 62 3d
       0.039025273 -0.03179875 0.008156281 0.055216283
000180 9b dc ab bb 58 b0 d5 3d 60 c8 bf 3b ee 96 d0 bd
       -0.005244804 0.104340255 0.005852744 -0.101850376
000190 3b ab 97 3c 6e 33 bd bd 31 06 06 bd c7 b7 1b bd
       0.018514266 -0.09238325 -0.03272075 -0.03801706
0001a0 61 85 02 be a7 1e a7 bc f1 be a0 bd e8 a0 d2 3b
       -0.12746193 -0.020400358 -0.07848919 0.006427873
0001b0 67 44 58 3d 32 2f 9f 3c f1 fd 1c bd 95 6e 27 3c
       0.05279961 0.019431684 -0.038328115 0.010219236
0001c0 28 16 ec 3b 8e 45 63 3d d4 9e f0 bc be 09 97 3d
       0.0072047897 0.055486254 -0.02937261 0.07374905
0001d0 6e 6b 8d 3c 39 a7 87 bd 60 0c f7 3c e3 26 f5 3b
       0.01726314 -0.06623692 0.030157268 0.0074814423
0001e0 51 22 80 bb 2e 58 b7 bc f1 28 6d bd c0 09 17 bd
       -0.003910341 -0.022380915 -0.057900373 -0.036874533
0001f0 18 99 6c bc 7d 40 79 bd dc 85 56 bc fc e6 51 bd
       -0.014440797 -0.060852516 -0.013093438 -0.051245674
000200 cc 17 c8 3c e5 66 83 3d 85 05 59 3d 18 91 40 3d
       0.02442541 0.0641611 0.05298378 0.047013372
000210 98 26 97 3c c4 8a d3 3d 29 12 0f 3d 6e d2 05 be
       0.01845102 0.10329202 0.03492943 -0.13068554
000220 1e b6 44 3d c2 37 22 bd dc 68 98 3c 66 41 ff 3c
       0.048025243 -0.039603956 0.018604688 0.031159114
000230 55 a9 86 bd be 9c 20 3c 7d 99 9e bb 65 10 05 3d
       -0.06575266 0.009802995 -0.0048400746 0.03248634
000240 70 f0 90 3b 40 14 41 bc 5d 22 37 3d ea 84 17 bc
       0.0044231936 -0.011784613 0.044710506 -0.009247998
000250 00 64 2f bd bd 98 a5 3d 96 49 b3 3c 55 cd 76 3d
       -0.042819977 0.08085773 0.021885674 0.060254414
000260 d6 37 a9 bc 8c b8 78 bd 51 4f d3 3c 10 59 9a bd
       -0.020656507 -0.060722873 0.025794657 -0.075365186
000270 f4 01 21 3d 60 df b0 ba 12 e9 df bd 70 39 36 3d
       0.039308503 -0.0013494305 -0.109331265 0.04448837
000280 c0 d2 65 bd 89 69 03 3d e0 ad 10 bd e0 10 df ba
       -0.05610919 0.032083068 -0.03532207 -0.0017018579
000290 14 4d 2e 38 0c 18 8b 3c 10 97 af 3b cc a1 39 3c
       4.1556617e-05 0.01697924 0.005358584 0.011330079
0002a0 7b 1c 29 3d d7 5e 9b 3d c0 ef 71 bb 49 6e 70 3c
       0.041286927 0.07586449 -0.0036916584 0.0146747315
0002b0 20 5f e1 3b 3d bb e0 bc 9b 51 c0 3c 5b 33 2f 3d
       0.006877795 -0.027433032 0.023476413 0.042773586
0002c0 c2 08 32 bd cd 3e 02 bd 5d 47 9c bd 80 73 28 3d
       -0.043465383 -0.031798173 -0.07630799 0.041125774
0002d0 e9 7f 3e 3d af 7b 5d 3d 3c 89 03 3d c7 af 18 bc
       0.046508703 0.054073032 0.0321133 -0.009319252
0002e0 22 59 51 bd 75 0f a9 bb ec 54 57 3d 23 c1 db 3c
       -0.051110394 -0.0051593133 0.052571222 0.026825493
0002f0 00 31 1a bb 9e fa 57 ba d6 f9 1c 3d cd 10 74 bc
       -0.0023527741 -0.0008238944 0.0383242 -0.014896584
000300 ec f6 bf 3d 18 e2 af bc ea 7b 9a bc 59 4c 56 bd
       0.093732685 -0.021470115 -0.018857915 -0.052318905
000310 ce c3 bd bc 3b 63 f6 3d ac d3 51 bd e1 b3 00 3d
       -0.023164656 0.120306455 -0.051227257 0.031421546
000320 58 ff f1 3b d0 66 7a bc b8 89 84 bb 2a a2 32 3c
       0.0073851757 -0.0152833015 -0.0040447377 0.010902921
000330 0f ff 25 3d f3 a0 68 bb 00 92 b7 bb dc aa b7 3c
       0.040526446 -0.0035496324 -0.0056021214 0.02242034
000340 09 a5 1e bd 91 12 f9 bd a3 61 aa 3d 94 7b 55 bd
       -0.03873161 -0.121617444 0.08319404 -0.052119806
000350 b2 60 f0 bd 85 0a 9e bd 0e 87 c5 bd 70 b6 1d 3d
       -0.11737193 -0.0771685 -0.096449 0.038504064
000360 92 58 a7 3c 89 08 53 bd 6c d0 00 3c e2 39 18 bd
       0.020427976 -0.05152181 0.007862192 -0.037164576
000370 c4 80 16 bd 6b 6f 75 3d 22 b8 34 bd 8b 97 ff 3d
       -0.036743894 0.05992071 -0.044120915 0.124800764
000380 5f bd 48 3d 91 08 d8 bc 07 1a 39 3d 5e b4 7c bc
       0.049008723 -0.026371272 0.045190837 -0.015423862
000390 5e 24 c0 bc 3f 3a 07 3d bf 1c 85 bd 40 c1 ef 3c
       -0.023454841 0.033014532 -0.064996235 0.029266953
0003a0 da 45 41 3d 81 5c 84 bb 0c e5 49 3c 80 2b 9d bc
       0.047185756 -0.0040393476 0.012322675 -0.019185781
0003b0 04 04 5e bc b9 01 dd 3c a3 1d 45 3d 8b 2e f1 3c
       -0.013550762 0.02697836 0.048123967 0.029441139
0003c0 7d 75 28 3d b4 0d 4a 3d 42 25 93 3c 63 2c 1d 3b
       0.04112767 0.049329475 0.017962102 0.0023982755
0003d0 36 a2 53 3d 48 05 47 bd d8 b8 62 bd ab 7f 1e 3d
       0.05166837 -0.04858902 -0.055352062 0.038695972
0003e0 2d 0e 4e bd ca c1 59 3d 2b 89 51 bd a5 0c e5 3d
       -0.050306488 0.053163327 -0.051156204 0.111840524
0003f0 a0 e9 89 bb 40 32 29 ba 3b 02 e5 bc e5 b6 1c bd
       -0.0042087585 -0.0006454326 -0.027955165 -0.03826036

bias f4 [6]
000000 b7 d1 68 3d 64 ec 22 3e 07 3b ef 3d 2b 5f 4b 3d
       0.056840625 0.15910488 0.116811804 0.049651306
000010 3a 24 55 3d 46 28 eb 3d
       0.0520365 0.11482291

weight f4 [1, 6]
000000 20 f1 07 bf 05 09 b7 bf b5 18 ba bf c9 de a3 bf
       -0.531023 -1.4299628 -1.453879 -1.2802364
000010 14 3a 9c 3f ed 0d 78 bf
       1.2205224 -0.9689625
