Data/Torch models/P2_20230827_R_channel2_fold4_best.pt (torch, 10967 bytes, 5 tensors)

weight f4 [18, 4]
-0.27484944 -0.28967184 -0.0036402731 -0.2168916 0.54246014 -0.45661265 0.7458652 -0.20633706
0.44775146 -0.11165644 -0.040235706 0.2067293 0.11126444 0.35015887 0.13728863 0.27876157
0.64366627 0.90403205 0.38736334 -0.5659005 -0.3564562 -0.64373237 -0.43901652 0.119231574
0.67036283 -0.36467576 -0.03113283 0.03758024 0.24708693 0.7749224 0.21862757 0.38096452
-0.2702221 0.48711786 -0.47945645 0.34658724 -0.5052297 0.5843324 -0.68900466 -0.1615598
0.7987412 0.09782024 -0.43625206 -0.54407036 0.45583844 0.5324885 0.8072219 0.56007904
0.62805486 0.31334257 0.52971375 -0.6545204 0.58481485 -0.3332746 -0.49920154 -0.070088305
0.31028348 -0.5647712 -0.5917345 -0.24022919 0.63771236 0.5142011 0.09604496 -0.17191549
-0.039435863 -0.40668225 -0.18644494 0.21010375 0.38224828 0.06551487 0.20823835 -0.69980544
00000000: 11b9 8cbe de4f 94be a691 6ebb d518 5ebe
00000010: abde 0a3f 22c9 e9be 06f1 3e3f 064a 53be
00000020: ae3f e53e 22ac e4bd 32ce 24bd d8b0 533e
00000030: 9cde e33d 0648 b33e 6495 0c3e d6b9 8e3e
00000040: 50c7 243f a56e 673f 7d54 c63e dbde 10bf
00000050: 6d81 b6be a5cb 24bf c6c6 e0be af2f f43d
00000060: e69c 2b3f c8b6 babe 470a ffbc bded 193d
00000070: 5b04 7d3e 5061 463f e8df 5f3e c80d c33e
00000080: 8d5a 8abe 8367 f93e 517b f5be e273 b13e
00000090: bc56 01bf cf96 153f 9c62 30bf ef6f 25be
000000a0: 4e7a 4c3f fa55 c83d 6e5c dfbe 3248 0bbf
000000b0: a863 e93e 2b51 083f 18a6 4e3f 5761 0f3f
000000c0: 34c8 203f 706e a03e 529b 073f a68e 27bf
000000d0: 6db6 153f f8a2 aabe 5897 ffbe 758a 8fbd
000000e0: 7add 9e3e d894 10bf ea7b 17bf a4fe 75be
000000f0: 1e41 233f afa2 033f 38b3 c43d 9d0a 30be
00000100: 8087 21bd a838 d0be 6ceb 3ebe 7025 573e
00000110: 0cb6 c33e a92c 863d 6f3c 553e 7326 33bf

bias f4 [18]
0.5706867 0.22610311 0.36306068 -0.1999294 -0.12859473 0.99351054 -0.21075803 -0.18695001
0.26396853 0.5526609 0.08382114 0.344978 0.26556677 0.657415 0.8110768 0.3691049
-0.40823865 0.18836059
00000000: 8618 123f 9387 673e 17e3 b93e 4bba 4cbe
00000010: 56ae 03be b556 7e3f f4d0 57be d36f 3fbe
00000020: e226 873e 2f7b 0d3f 6baa ab3d f5a0 b03e
00000030: 5ef8 873e 594c 283f bba2 4f3f 51fb bc3e
00000040: a804 d1be 99e1 403e

weight f4 [6, 324]
-0.03237274 0.081846245 0.06084548 -0.04746599 0.07472966 0.029523777 0.008068602 -0.029136911
-0.034757927 0.008144128 0.1519121 -0.05058065 0.074605085 0.19501835 0.13537072 0.044587653
-0.0031705312 0.06764063 0.0013131831 -0.05716437 -0.010736246 0.010422321 0.052776825 0.0618837
-0.048996426 0.016304262 0.12791573 0.14592198 0.09223971 0.04016775 0.015022745 0.087168396
0.06853249 0.081873044 -0.020078607 0.045927797 0.012126221 0.08563797 0.04287146 0.057975493
0.17154807 0.062091008 -0.0033455428 0.10425292 -0.068007156 -0.098560914 -0.05054264 0.21012318
0.18528377 -0.08983695 -0.08772048 0.07955523 0.0005751513 0.12661867 0.033547487 0.06578526
0.100366 0.026530214 -0.0030013218 0.023722602 0.026277605 0.017900394 0.015146143 0.007855107
0.0140960235 0.069810614 0.035719894 0.042535186 0.06969356 0.08238805 0.004747458 -0.021554267
0.06649262 0.067954674 0.004550849 -0.04949805 -0.029839681 0.11908349 -0.012599525 -0.06522675
-0.038047206 0.00030832906 -0.08353314 0.11930264 0.0127896005 0.05589389 0.0264698 0.018098027
0.054074194 -0.02790232 0.011596919 -0.0021028034 0.07116073 0.022874236 -0.09221277 0.058294833
0.049229518 0.007193546 0.111025356 0.028853957 0.029799372 0.036151264 -0.051833533 0.08409477
0.102336295 -0.006321623 -0.03763838 -0.04333913 -0.030141937 0.015344121 -0.027289808 -0.07266281
0.0134267 -0.00445871 -0.010329129 -0.094714426 -0.03010909 0.04147331 0.12626372 -0.15893583
0.11122386 0.11230825 0.1899403 0.054816525 -0.019453414 0.1045479 0.06211452 -0.106501825
0.049157348 -0.036957715 -0.16383713 0.055533785 -0.017106455 0.024851285 0.030934285 0.10008194
-0.049300835 -0.043686476 -0.15068835 0.11798081 0.11353928 -0.068344094 0.028934676 -0.12858865
0.035458013 0.055874288 0.05706887 -0.010797961 -0.28090084 0.13715452 0.089028604 -0.1510971
-0.07763804 -0.02800583 -0.091925286 -0.102415495 -0.12998503 0.05974122 0.14132752 -0.07397353
-0.013448793 -0.019149734 0.075980306 -0.0622469 0.064061016 -0.042555723 -0.023140492 0.12270401
0.022678496 -0.038335793 0.09150919 0.1018769 0.011528422 -0.0053173024 -0.07048251 0.070012376
0.041617345 0.012465226 -0.028448496 0.014103293 0.106730945 -0.14841251 -0.11682093 -0.041188728
0.034794454 0.12329366 -0.15778315 0.06457242 0.077578776 0.20522766 -0.041702878 -0.09484663
-0.06814464 -0.05556831 -0.07562819 -0.0033739002 -0.009201799 -0.041592807 0.060649507 0.122496456
0.028977484 0.030159637 -0.004228016 0.10100468 0.020275638 -0.062187947 -0.014715467 -0.08216315
-0.015546201 -0.015265765 -0.003314157 0.03125354 0.059314508 -0.047194332 0.03622816 -0.013122875
0.10657324 -0.021458818 0.008173131 0.06932866 -0.10363051 0.07023078 -0.090470046 0.00655775
0.06762398 0.04626419 -0.17085232 0.0066093784 -0.06306119 -0.010472303 -0.06679611 -0.0076977555
-0.0062745363 -0.042208925 0.0070744846 0.12933356 0.07089061 0.0535156 -0.09413157 0.14750375
0.029487615 0.017008618 -0.053994585 -0.10345888 -0.13605772 0.16776091 0.007832764 -0.027910164
0.020864472 -0.003973124 0.000827115 -0.0032266797 0.050786685 0.0018278208 0.099225596 -0.060344107
00000000: 4799 04bd 019f a73d 1c39 793d b36b 42bd
00000010: dd0b 993d d9db f13c 2b32 043c 88b0 eebc
00000020: 545e 0ebd f36e 053c d88e 1b3e a82d 4fbd
00000030: 8dca 983d e4b2 473e 9f9e 0a3e 8ba1 363d
00000040: b0c8 4fbb 2c87 8a3d 1d1f ac3a 3025 6abd
00000050: 14e7 2fbc 62c2 2a3c 832c 583d c379 7d3d
00000060: 7ab0 48bd 8490 853c 57fc 023e 926c 153e
00000070: 2ce8 bc3d f086 243d f621 763c 5885 b23d
00000080: c35a 8c3d 0ead a73d e47b a4bc c91e 3c3d
00000090: 0fad 463c f662 af3d fc99 2f3d b677 6d3d
000000a0: 4caa 2f3e 2453 7e3d e540 5bbb 8e82 d53d
000000b0: 5647 8bbd 4eda c9bd cd05 4fbd 882a 573e
000000c0: 07bb 3d3e 6ffc b7bd cca6 b3bd daed a23d
000000d0: c0c5 163a 53a8 013e 1769 093d 6cba 863d
000000e0: b08c cd3d e455 d93c d3b1 44bb e755 c23c
000000f0: 2244 d73c d9a3 923c 8727 783c b5b2 003c
00000100: 02f3 663c def8 8e3d 064f 123d 6039 2e3d
00000110: 7fbb 8e3d 11bb a83d 9090 9b3b 9392 b0bc
00000120: 482d 883d d22b 8b3d 4a1f 953b 78be 4abd
00000130: 5972 f4bc 0be2 f33d 3d6e 4ebc 9a95 85bd
00000140: 63d7 1bbd 3aa7 a139 6c13 abbd f154 f43d
00000150: 798b 513c fef0 643d 32d7 d83c 5042 943c
00000160: e77c 5d3d 6893 e4bc 0101 3e3c 30cf 09bb
00000170: b8bc 913d c062 bb3c 0cda bcbd 90c6 6e3d
00000180: e4a4 493d d6b7 eb3b 4361 e33d 225f ec3c
00000190: d01d f43c 5913 143d 664f 54bd e139 ac3d
000001a0: b195 d13d 9e25 cfbb b42a 1abd 5f84 31bd
000001b0: 39ec f6bc e865 7b3c e08e dfbc 3dd0 94bd
000001c0: a9fb 5b3c 5f1a 92bb 823b 29bc a3f9 c1bd
000001d0: 57a7 f6bc ebdf 293d 474b 013e 13c0 22be
000001e0: 56c9 e33d de01 e63d b67f 423e 4b87 603d
000001f0: c45c 9fbc 361d d63d cc6b 7e3d a11d dabd
00000200: 3759 493d f960 17bd ecc4 27be 6577 633d
00000210: d622 8cbc ec94 cb3c e669 fd3c c3f7 cc3d
00000220: acef 49bd 97f0 32bd 0c4e 1abe ec9f f13d
00000230: 4887 e83d fdf7 8bbd 6a08 ed3c beac 03be
00000240: 6c3c 113d 70dc 643d 0cc1 693d eee9 30bc
00000250: 3cd2 8fbe 3c72 0c3e a154 b63d 33b9 1abe
00000260: b100 9fbd 7b6c e5bc 5343 bcbd 37bf d1bd
00000270: cc1a 05be 36b3 743d 29b8 103e 6f7f 97bd
00000280: 5458 5cbc e7df 9cbc 909b 9b3d 9bf6 7ebd
00000290: 6c32 833d e94e 2ebd 2191 bdbc 3d4c fb3d
000002a0: 41c8 b93c fe05 1dbd 2c69 bb3d d6a4 d03d
000002b0: b5e1 3c3c c43c aebb 2259 90bd a662 8f3d
000002c0: f376 2a3d f33a 4c3c d20c e9bc 8011 673c
000002d0: c195 da3d 73f9 17be d03f efbd 83b5 28bd
000002e0: a184 0e3d 6381 fc3d e891 21be 8c3e 843d
000002f0: 9fe1 9e3d 3327 523e a3d0 2abd f33e c2bd
00000300: 6b8f 8bbd 999b 63bd f4e2 9abd a71c 5dbb
00000310: 24c3 16bc 385d 2abd 9e6b 783d 6cdf fa3d
00000320: 3062 ed3c 5811 f73c 2b8b 8abb 8bdb ce3d
00000330: 1819 a63c cab8 7ebd 2419 71bc 2745 a8bd
00000340: 7eb5 7ebc 421d 7abc 5432 59bb b603 003d
00000350: c5f3 723d d84e 41bd fb63 143d 5401 57bc
00000360: 1243 da3d 67ca afbc 99e8 053c 2ffc 8d3d
00000370: 3c3c d4bd 28d5 8f3d 5c48 b9bd 65e2 d63b
00000380: 717e 8a3d 857f 3d3d e9f3 2ebe 7c93 d83b
00000390: 3a26 81bd 0694 2bbc 66cc 88bd 743d fcbb
000003a0: a09a cdbb 44e3 2cbd 14d1 e73b 0470 043e
000003b0: 192f 913d 2c33 5b3d 0dc8 c0bd 390b 173e
000003c0: 0390 f13c a855 8b3c 6d29 5dbd 40e2 d3bd
000003d0: b752 0bbe 84c9 2b3e fe54 003c dba3 e4bc
000003e0: f8eb aa3c fb30 82bb c0d2 583a b476 53bb
000003f0: b305 503d 7d93 ef3a ca36 cb3d 622b 77bd

bias f4 [6]
0.16043484 0.15692168 -0.013256569 0.06616943 0.11345563 0.15791982
00000000: 0849 243e 14b0 203e 1532 59bc d783 873d
00000010: 6d5b e83d bcb5 213e

weight f4 [1, 6]
-1.0785687 -1.7205155 0.032116786 0.99976295 -1.2474202 -1.4176415
00000000: 8a0e 8abf da39 dcbf e48c 033d 77f0 7f3f
00000010: 77ab 9fbf 4775 b5bf
