Data/Torch models/P2_20230827_R_channel0_fold0_best.pt (torch, 10967 bytes, 5 tensors)

weight f4 [18, 4]
00000000: 6b64 da3e 3028 31bf fd45 a8bd 3469 aa3e
00000010: 2daa a43e 1eb4 87be 854e eabe 0c61 5a3d
00000020: d613 363e c988 8cbe 295e 87be d0e9 d6be
00000030: 7e89 d43b 0143 aabe 1531 8ebc 7f29 d63e
00000040: 08df 35be 1c02 a1be 0cef 043e a03b f8bd
00000050: 8ba3 6e3d 0831 193f 5b1c d7be bd5d ff3e
00000060: 7a2b 5bbe 8c13 5cbe c067 59bd 0784 873d
00000070: fce8 213f e166 103f cc63 0cbf e169 6b3e
00000080: fb46 563d 3095 053e fe49 4e3f bdbc 1a3f
00000090: 370b bfbc eb6e 2d3d 8da0 483f 0c34 443f
000000a0: 21c6 bbbe acbe 2d3f c2a7 c53e 505e 073f
000000b0: 219a ea3c 8db2 403e 5a4c 57bf 0ad3 adbe
000000c0: 8e6d 843e fe50 a13e 49d7 97be c10f f43d
000000d0: f148 f93e a24e 55be 354c a83e d8f6 d13e
000000e0: 2c3e 7d3e 77bd c7bb a19f 883d e770 d9bd
000000f0: 0b6c 7b3e 936c a53e 32d5 f33e 91d4 343f
00000100: 24c3 94be 80f8 cc3e dc02 043e ddf1 fcbe
00000110: 956b 4d3e 1764 23be 4351 0ebf 7b8c c3bd
0.42654738 -0.69201946 -0.08216474 0.3328339 0.32161084 -0.26504606 -0.4576303 0.053315207
0.17781004 -0.2744811 -0.26439026 -0.4197526 0.006486117 -0.33254245 -0.017357389 0.41828534
-0.17760861 -0.31446922 0.12981814 -0.121207476 0.058261435 0.5984044 -0.4201382 0.49876204
-0.21403304 -0.21491832 -0.05307746 0.06616979 0.6324613 0.5640698 -0.5483978 0.22989608
0.052313786 0.13045192 0.80581653 0.6044424 -0.023320777 0.042342108 0.7836998 0.7664192
-0.36674598 0.6786907 0.38604552 0.52878284 0.028637948 0.18818112 -0.8410088 -0.33950073
0.25864834 0.31507105 -0.29656437 0.11917067 0.48688462 -0.20830777 0.3287064 0.4100864
0.24730748 -0.006095584 0.06671072 -0.106172375 0.24552934 0.32309398 0.47623593 0.7063685
-0.2905513 0.4003334 0.12891716 -0.49403277 0.2006057 -0.1595615 -0.55592746 -0.09548279

bias f4 [18]
00000000: 4282 ff3e f865 9b3d 9729 123f 2388 fb3e
00000010: 480b 26be 7937 143e 9d57 1e3e c858 6dbd
00000020: 256a 623e c912 cb3d 55ff 463e 4526 783f
00000030: e6f1 41bd 3dc1 553d a993 8cbe c793 97be
00000040: c9d3 4cbe 258f 1c3f
0.49904066 0.07587808 0.5709471 0.49127302 -0.16215241 0.14474286 0.1546311 -0.057945997
0.22110803 0.09915692 0.19433339 0.96933395 -0.047349833 0.05218624 -0.27456406 -0.29604933
-0.20002665 0.6115592

weight f4 [6, 324]
00000000: 31ad 343d 1754 07bd 5e09 9a3c 473c 98bc
00000010: f1a9 203d cb5e ebbd d859 6d3d 159e 02be
00000020: 35f6 d03d 327a ac3d 54d4 3bbd 2575 b1bd
00000030: a08d cdbd db4a bd3c 65d9 c43c d8fd 893d
00000040: f2af f2bc b5c1 2fbd e1e2 3d3d 5e11 00bd
00000050: 3f10 543d d264 0bbc cf02 0d3d cffa afbd
00000060: c800 7dbb 6a8f f6bb 5b80 c0bd a10a 37be
00000070: 276b 08be 17bd c83d 31da 7d3c ae38 1cbd
00000080: bab8 e4bc 8b6c 3ebe fba0 503c a738 793d
00000090: 4901 a03c 4eff 953d f005 703d 2d24 7bbc
000000a0: 50ca 513b 8642 4b3d 83cb 32bd 982d 293d
000000b0: 9b5c 4abd 85fa bdbd 19bc 81bd 68c9 cd3d
000000c0: 5ed7 cd3c 471c 2c3c 8c11 133d 4972 8abd
000000d0: 15f9 07bd 0446 a23d c163 b6bd 28a8 14bd
000000e0: 1514 99bb 99d4 53bd 90e6 3c3b 1362 b6bb
000000f0: 0e7d 13bd 9c73 163e 9ed9 f13c f7ad 4abd
00000100: 3053 ec3c ed12 fe3d 502e 9b3c 2e84 593c
00000110: f190 56bd b4bb dabd 6785 3f3c c61f b03d
00000120: 31a8 013d 6c37 e23c b514 1a3e 3323 9f3d
00000130: 503b 623b 626f 65bd e5dc e93c 1d44 30bd
00000140: 5d93 47bd 6798 1ebd b487 10bd 7b57 ce3d
00000150: c5dd 05bd afde fe3c 0283 cf3c 314b a2bd
00000160: 8764 313d 71a2 aa3d de8f b03d d8cb 07bd
00000170: ec62 ff3b d5bd ea3d cb2f 223d 3530 a53b
00000180: e441 423d 373b 3cbd 468a a13c 85dc 9c3c
00000190: 62b1 5dbc 20d5 b03d a6b8 2cbd 2388 56bd
000001a0: 1c9d 083c 7ff9 84bd c431 cbbc 596c c13d
000001b0: b93a 003e baf3 6f3d fa41 c83d 40f7 3dbc
000001c0: e8d9 9dbc 31a3 58bd 5213 20bc fb82 92bb
000001d0: a441 2bbd 63d9 b2bd 8be8 cabd 8c69 083e
000001e0: fe32 c03c 5f5d 54bc c778 603d 37ec f1bd
000001f0: fd52 883c e0ce 233e 661e 753d 55cd 5d3d
00000200: c914 a1bb 7387 a03d 19df 5c3d 3c6a 05bd
00000210: 18b5 ecbb bc80 a0bd 12a4 db3d eaac 0d3d
00000220: c986 fbbc eb0c 763b c8cd 27bd 5e12 a83b
00000230: 8a6c 5a3d df68 2abd bc06 36bc 170a 12bc
00000240: 2ae1 b93d b848 873d 31ee 403e 082c a73d
00000250: c3f2 293d 84c2 73bd 6423 57bc 143b e2bb
00000260: 0302 69be 7eeb 36be 2ac7 4cbe 7d05 863e
00000270: 9830 95bc df83 02bd 3336 d9bc 2dd4 15be
00000280: 4b47 1bbd 0df6 613e c3e5 bb3c bd6d 003d
00000290: eb1a e73d af19 98bc c0b7 b13a 37eb 11be
000002a0: b86c 5d3c cae3 81bd 134d adbd fa6f 18be
000002b0: 0f2c 37be e3c6 a53d d613 b0bd 242b 94bd
000002c0: 692d fc3b e742 2bbe 4fde 38bb 42b8 d03d
000002d0: e44e 243e 0a90 623d 5bea cf3d 56a8 a53d
000002e0: 1285 85bc 47d9 b1bd fdb4 05bb 8a09 cabd
000002f0: 0c42 283d 1f9c c43c 3f6f e2bc 135a 43bd
00000300: 9d18 71bd 6d2f 0c3d 9a5a 393d a359 f73c
00000310: 271d c83b bcec e53c d5e9 933d a477 2f3d
00000320: d507 2a3d db4a 043d e789 193d 7e3b a13d
00000330: e1df a43c 0dc0 4f3e 7d37 bbbc 6b56 d6bd
00000340: 4ed3 0bbd bf92 333e 6007 a53d 3f15 803d
00000350: ca0c c03c 3833 cfbd fcf6 d3bc 2426 c83d
00000360: b29c b83d 9e51 173c 449e 783c e81d b03d
00000370: 90c9 353b 9919 553d e5d5 c3bc 7c43 2ebd
00000380: 9cfb 433e 4f6b 473e c4d5 943d 64a9 5cbd
00000390: ebef 863c 6ed9 863d 2424 f2bc 8f00 b93d
000003a0: acff 423d 46c4 093d 4800 9dbd 2421 b83b
000003b0: 394d babc 32fa 84bc 7670 1dbd 0c14 b03d
000003c0: 2ae9 19bd c80f fe3d b27b efbb 477c 973c
000003d0: 9c31 b03d 9a9b b23d b70c 88bc 9e11 403c
000003e0: ede2 9f3b 637d 703d a6c6 24bd f77b 273d
000003f0: ed5e 193c 63f1 353d 9689 b03d 555d 4b3d
0.04411048 -0.03303918 0.018803295 -0.01858343 0.03922457 -0.1149269 0.05794701 -0.12755616
0.1020321 0.084217444 -0.04585679 -0.08664922 -0.100367785 0.023106983 0.024029443 0.0673787
-0.029624913 -0.042909343 0.046358947 -0.031266563 0.051773306 -0.008507924 0.034426507 -0.0859276
-0.0038605202 -0.0075244205 -0.09399482 -0.17875148 -0.13322125 0.09801691 0.015493915 -0.03813999
-0.027920116 -0.18596093 0.012733693 0.060845044 0.019531863 0.07324086 0.058599412 -0.015328449
0.0032011457 0.04962399 -0.043651115 0.041303247 -0.04940472 -0.092762984 -0.06334705 0.10048181
0.02512711 0.010504789 0.035905406 -0.067600794 -0.033196528 0.07923511 -0.08905745 -0.03629318
-0.0046715834 -0.05171642 0.002882395 -0.0055658906 -0.036007933 0.14692539 0.029522713 -0.049482312
0.02884826 0.124059536 0.018942982 0.013276143 -0.05238432 -0.10680333 0.01168952 0.0859981
0.03165454 0.027614318 0.15046962 0.077703856 0.0034520216 -0.056014426 0.028547714 -0.043033708
-0.04872452 -0.03871956 -0.035285667 0.10075279 -0.0326822 0.031112043 0.025331024 -0.07924498
0.04330876 0.083317645 0.086211905 -0.033153385 0.007793775 0.11461989 0.03959636 0.005041147
0.04742612 -0.04595491 0.019719254 0.01914812 -0.013531061 0.086344 -0.042168282 -0.052375924
0.008338239 -0.064929 -0.024804004 0.09444494 0.12522401 0.058582045 0.09778209 -0.0115945935
-0.019268945 -0.052890006 -0.009770231 -0.0044711805 -0.041810647 -0.087328695 -0.09907635 0.13321513
0.023461815 -0.0129617145 0.054802682 -0.118126325 0.016641134 0.15996885 0.059843443 0.054150898
-0.004915808 0.07838335 0.0539237 -0.032572016 -0.0072237365 -0.07837054 0.10724653 0.03458873
-0.030703919 0.003754432 -0.040967733 0.0051291427 0.053326167 -0.04160392 -0.011110004 -0.008913538
0.0907615 0.06605667 0.18840863 0.08162695 0.04149128 -0.059511676 -0.013130996 -0.0069040153
-0.22754674 -0.1786327 -0.1999785 0.26176062 -0.018211648 -0.031864043 -0.026515102 -0.1463172
-0.037909787 0.22066517 0.022936707 0.031354655 0.11284431 -0.018566934 0.001355879 -0.14249884
0.01351469 -0.063422754 -0.08461966 -0.14886466 -0.17887901 0.08094575 -0.085975334 -0.07234791
0.007695843 -0.1672474 -0.0028208678 0.101913944 0.1604572 0.055313148 0.10152122 0.08088748
-0.016298804 -0.086840205 -0.0020402067 -0.09865101 0.041078612 0.024000226 -0.027640937 -0.047693323
-0.058861364 0.034224916 0.04525242 0.03019411 0.006106991 0.028066985 0.07222334 0.042838708
0.041511375 0.03229795 0.03748503 0.07872675 0.020126285 0.20288105 -0.022853607 -0.10465702
-0.034137063 0.17536448 0.08058047 0.06254052 0.023443598 -0.10117191 -0.025874607 0.097729
0.09014262 0.009235768 0.015174452 0.08599454 0.0027738549 0.052026365 -0.023905704 -0.042544827
0.1913895 0.19474529 0.07267335 -0.05387248 0.016471824 0.0658444 -0.029558249 0.0903331
0.04760711 0.033634447 -0.07666069 0.005619185 -0.0227419 -0.016232584 -0.03843733 0.08597574
-0.03757588 0.12405354 -0.007308447 0.018491877 0.08603212 0.08721085 -0.016607625 0.01172295
0.0048793466 0.058713328 -0.04022851 0.040889706 0.009361011 0.044419657 0.086199924 0.049649555

bias f4 [6]
00000000: 26bf 0b3e 66d9 333d 0e36 f93d 2849 a73d
00000010: d550 a6bd 0674 a83d
0.13647136 0.0439085 0.12168513 0.0816825 -0.08120886 0.08225255

weight f4 [1, 6]
00000000: 0beb 88bf d48a 7dbf b855 81bf b1d9 90bf
00000010: 33e1 123e 47b4 88bf
-1.069673 -0.9903996 -1.0104284 -1.1316434 0.14343719 -1.0680016
