Data/Torch models/P2_20230827_R_channel6_fold2_best.pt (torch, 10967 bytes, 5 tensors)

weight f4 [18, 4]
00000000: c8ee babe d6cd 9dbe 6e52 eabe bc28 ce3e
00000010: 1b68 c3bd 8bec 883f 985b 683f 3333 593f
00000020: 10bb 1d3f ee78 4bbf ac09 abbf 7705 013f
00000030: 55e5 e8bd 6e89 863e 908c abbe 12c9 6abf
00000040: b4af 4a3e d56e a43e 861b a4bf fb5f 75bd
00000050: 5407 0f3f b3c0 b03f eaba 8bbe 2369 4ebd
00000060: 7189 993f 081a 8e3e 5f0b f53f bf08 723f
00000070: bc9d 953f 09e6 5b3e 01f6 c23e af32 2a3e
00000080: e985 2ebf af11 a63d 7690 153f 9579 93be
00000090: 167c dd3e d511 243f e493 9c3f 6211 9e3f
000000a0: 8e09 e7be f623 003e 6787 803e c7b2 f3be
000000b0: 76c5 c33e 8c50 233f 9470 a53f 08cf 0a3e
000000c0: 5424 aa3f efce 3f3e 9022 85bf e567 aebc
000000d0: 91d2 a93e f142 6cbf e63a 0a3f e703 54be
000000e0: 3942 863f 92ad 9abf 7f0f 31be f64f a8be
000000f0: cd54 10bf 4459 0cbf 75d0 edbd ef18 f63e
00000100: ae5d 08be aed2 57bd 3551 23bf 2f25 6a3e
00000110: f257 a43f 4656 963f 7bf4 783e 5782 a1bf
-0.365103 -0.30821103 -0.45766014 0.40265453 -0.09541341 1.0697187 0.9076476 0.8484375
0.6161356 -0.794814 -1.3362327 0.50398964 -0.113718666 0.26276726 -0.33505678 -0.9171306
0.19793588 0.32115808 -1.28209 -0.059905987 0.55870557 1.3808807 -0.27291042 -0.050393235
1.1995069 0.27754235 1.9144095 0.94544595 1.1688762 0.2147447 0.3807831 0.16620897
-0.6817308 0.08108842 0.58423555 -0.28803697 0.43258733 0.6408971 1.2232633 1.2349055
-0.45124477 0.12513718 0.25103304 -0.47597334 0.38236588 0.6379478 1.2924981 0.13555539
1.3292336 0.18731283 -1.0401173 -0.021289775 0.33168462 -0.92289644 0.5399612 -0.20704614
1.048896 -1.208422 -0.17291068 -0.32873505 -0.56379396 -0.5482371 -0.11612026 0.48065898
-0.13316986 -0.052691154 -0.6379579 0.22865747 1.2839339 1.1745079 0.24312012 -1.2617902

bias f4 [18]
00000000: 90f7 1dbd 138f 25bf d4f4 973f 999f 9f3f
00000010: ef1f 513f f79c 46be e7ff e0bd a513 313e
00000020: ce48 9c3e 2521 473c 962e 5f3e 2bf5 d0bd
00000030: 5c21 b43d ad02 173f 0f80 413f 5f54 903e
00000040: 2f74 be3e a809 ce35
-0.038566172 -0.6467144 1.1871591 1.247058 0.8168935 -0.19395815 -0.109863095 0.1729265
0.30524296 0.012153898 0.21795115 -0.10203012 0.08795425 0.5898846 0.75586027 0.2818937
0.37198016 1.5351006e-06

weight f4 [6, 324]
00000000: a0f9 b4bb 2f52 86bc 5569 ea3e 1f37 3d3e
00000010: 5141 1b3e 77dd 70bd 813f 853d 7061 723d
00000020: f1c5 693c 55b9 013d 2c2c e03a 77f7 debc
00000030: 85e0 1a3e e135 eb3d 7790 553e 4663 783d
00000040: 94dd d23c 8267 edbd 08dd 2dbc 327d c6be
00000050: c0df 3b3f 4214 973e ad44 1d3f 93bb 20bd
00000060: 2911 40bf 64fc e7bd 36c4 b0bd 7a5b 0dbf
00000070: 6e98 aebd 14f3 13bf b7f0 e33e eaf6 82bd
00000080: 9a82 9e3e c3fd 5dba 45e8 f83c 65e5 24be
00000090: 6065 d2ba 141a 90be c2a1 9a3e d4fb ce3e
000000a0: 6a98 983e f918 fe3d d4a5 73be 4c23 083e
000000b0: 0315 82bc c871 85be 81dd 08bb 3678 cdbd
000000c0: 466b 713e 86d3 bc3d 7450 8a3e 063d dabc
000000d0: f92a 8dbb 8767 d83e d9e0 193d fb67 073e
000000e0: a4be 40bd 3f36 4d3e 5f0f 0a3e 4aad 143e
000000f0: 79d1 39be a5b2 13be 3ad5 d23d cac6 eebd
00000100: 6e04 933d d6d8 083c 2385 40be 75f6 93bd
00000110: 493d 53be b62a 0a3e b081 3e3d f1a3 fdbc
00000120: 48a9 b73b ce39 4d3d 766c 0dbc afeb 003e
00000130: 0f37 4c3d aa3e 833e a0f2 8f3e 22bc 9d3d
00000140: 2a08 fa3b 1846 893e bb42 973c 1f0f 4b3e
00000150: 7309 a0ba bf80 6a3b 7eed 99bd 3298 c93d
00000160: 3aaf bcbb e83b fa3d 2563 283d d5d9 043c
00000170: 3289 163e ff1b 2a3c 9554 4f3e 3acc 8d3e
00000180: b901 403e af68 f43d 56c2 d73d 89e6 8a3e
00000190: 56d8 113d a379 bf3d 9a99 003e 4e70 21bd
000001a0: 48ec 883b 943e d03d 208b c13d 47cf 093e
000001b0: 9ccb 453c 3758 ecbe 58a5 7a3e 9872 383e
000001c0: a59c 743e e4ca 2bbe 092e 0abe ba18 0d3e
000001d0: ca16 f0bd f525 10be 5ef2 0fbd c84a d9bd
000001e0: 9738 903e 1553 c83d 4d49 8a3e 5c3a dabd
000001f0: 5fe7 3cbc 63d3 053e 009f c7b9 eb1f 53bc
00000200: 2f36 043e ffe6 4e3e 658a df3c b73b afbc
00000210: 42f8 d73d 8944 073e 01af 8b3c 97d9 ba3c
00000220: 1f04 413d 2b9a 8a3d af3f 983c 597f 9a3d
00000230: 5f4c 243e 94cb 18bd ba67 87bd 0157 1f3e
00000240: 7ce9 553c 275e 8fbe ad1a 553e ce89 913e
00000250: 4716 803e 1916 edba 90f7 d2be 8323 00be
00000260: 44e7 6e3d 5808 86be 7086 9a3d bab6 5ebe
00000270: 6eab 5c3d d900 c53b 02bd 2a3d 5a64 f83c
00000280: aa13 903d d0ce ccbc 0f4f 4a3d e06b f1bd
00000290: ba2c 5abe 8967 4e3e 0091 56bc 14bb 0f3e
000002a0: 5773 8c3e 1c8a 4a3e 100d 87bd ad6e 493e
000002b0: 3697 41bd 176c 5b3e 0169 673c 1086 8a3c
000002c0: 4c5b 3dbd dbd7 8c3c df97 89be fc7c 643e
000002d0: 0b78 33bd 8cd0 67bc c36d 81bc fe60 3aba
000002e0: 483d 9dbd 911c a0bd 3014 aa3a b9be 00be
000002f0: 97d8 053c 6cee 093e 4c98 113c f0d4 833d
00000300: c041 46be 029f e4bb efdd 0fbe 4f78 b63c
00000310: a741 02bb 0937 97be c0f3 533b 302e a63d
00000320: 7bba 573e a8b3 513e 4d6b 873e 0f78 8f3e
00000330: bd4c 983d 4ac7 633e fc84 13be 3302 b9bc
00000340: b09f 373b 6a28 c53d fb19 ba3e 43eb 79bd
00000350: 7ce9 213e ce51 4abd 2ecf 5cbc b4e3 b73e
00000360: 5e12 a43c 20d0 74be 0167 6f3e e8f8 903e
00000370: cb98 723e b5fc 71bd 55eb 04bf 2399 5ebe
00000380: d3e1 f8bc 8f50 8fbe 00f4 51ba 8372 75be
00000390: 9f89 2abd d4f9 f8bc 88c7 9ebd 90ef 4ebd
000003a0: 68fa 553d e106 f9bd 52dd 39bd 30e1 a33e
000003b0: b86a 073e c526 dcbd ce37 42be 2158 7dbe
000003c0: a0e9 253e ad63 1fbe f868 773e 6450 583e
000003d0: 0334 b73d 8db5 7a3d 6148 d1be a3d8 393e
000003e0: 559b e6bb b541 f73d 11fe 593c e013 00bf
000003f0: 80dd 43bc e840 78be a1ba 18be 651c 2a3e
-0.0055229217 -0.01639661 0.45783487 0.18478058 0.15161635 -0.058804955 0.06506253 0.059174955
0.014268384 0.031670887 0.0017103008 -0.02721761 0.1512471 0.11484886 0.2085589 0.06064155
0.025740422 -0.11592008 -0.01061178 -0.3876739 0.7338829 0.29507643 0.61432916 -0.039241385
-0.75026184 -0.113274366 -0.08631174 -0.5521771 -0.085251674 -0.5779278 0.44519588 -0.06394751
0.30959016 -0.00084682944 0.030384192 -0.16103132 -0.0016051941 -0.28144896 0.30201536 0.40426505
0.29803783 0.12407107 -0.23793727 0.13294715 -0.01587916 -0.2606337 -0.002088398 -0.10032694
0.23576078 0.092200324 0.27014506 -0.026640426 -0.0043081013 0.42266485 0.037567947 0.13223259
-0.04705681 0.20040224 0.13482426 0.1451923 -0.18146314 -0.14423616 0.10294576 -0.1165901
0.07178579 0.008352479 -0.18800788 -0.07224742 -0.20628847 0.13492855 0.0465104 -0.030961962
0.0056048967 0.050103955 -0.008631816 0.12589906 0.049857195 0.25633746 0.28114796 0.07701899
0.0076303678 0.2681129 0.018464437 0.19829987 -0.0012209847 0.0035782305 -0.07516001 0.09843482
-0.0057581933 0.122184575 0.041110177 0.008108576 0.14700773 0.010382651 0.20247109 0.27694875
0.18750657 0.11934029 0.105351135 0.2712901 0.035606705 0.09349372 0.12558594 -0.039413743
0.0041785575 0.10168186 0.09450364 0.13457976 0.01207247 -0.46161053 0.24477136 0.18012464
0.2388788 -0.16776615 -0.13494124 0.13778964 -0.11723097 -0.1407698 -0.03514325 -0.106099665
0.28168175 0.09781472 0.2700905 -0.106556624 -0.011529773 0.13068919 -0.00038074702 -0.012886028
0.12911294 0.20205306 0.027287671 -0.021390779 0.10545398 0.13209738 0.017051222 0.022808833
0.04712307 0.067676865 0.018585054 0.07543821 0.16044758 -0.037303522 -0.06611581 0.15560533
0.013056155 -0.2800152 0.20810957 0.2842545 0.25016996 -0.0018088251 -0.412045 -0.12513547
0.05832602 -0.2617824 0.07545173 -0.21749392 0.053874426 0.006012064 0.04168416 0.030321289
0.070350006 -0.02500096 0.049391802 -0.11788154 -0.21306124 0.20156683 -0.013096094 0.14036208
0.27431747 0.19779247 -0.06594288 0.19671126 -0.047263347 0.21427952 0.014124156 0.01690963
-0.046229646 0.017192772 -0.2687368 0.22313303 -0.043815654 -0.014148843 -0.015799409 -0.000710979
-0.07677704 -0.078179486 0.0012975987 -0.12572755 0.008169315 0.13469857 0.008886408 0.06437099
-0.19361019 -0.006976963 -0.14049505 0.022274164 -0.0019875558 -0.29534176 0.0032341331 0.08114278
0.2106723 0.2047869 0.26449051 0.28021285 0.07436512 0.22243991 -0.14406198 -0.022584056
0.0028018765 0.09626849 0.36347947 -0.06101538 0.15811723 -0.04939442 -0.01347713 0.3591591
0.02002829 -0.23907518 0.23379137 0.283149 0.23691098 -0.05907889 -0.5192159 -0.21738105
-0.030381119 -0.2799115 -0.0008009076 -0.23969464 -0.041635152 -0.030392565 -0.07752901 -0.050521433
0.05224076 -0.12159515 -0.045377083 0.32007742 0.13224304 -0.10749582 -0.189666 -0.2474065
0.16202402 -0.15565367 0.24161136 0.21124417 0.08945467 0.061208297 -0.40875533 0.18149047
-0.00703756 0.120730795 0.013305203 -0.50030327 -0.011954665 -0.2424351 -0.14914943 0.16612394

bias f4 [6]
00000000: cb49 363e 144e 433e 43a4 de3d b4e8 e23c
00000010: a467 363d 90df 1e3e
0.17801587 0.19072753 0.10871174 0.027698852 0.044532433 0.1551497

weight f4 [1, 6]
00000000: a61b 40c0 02cc 0fc0 0d00 0fc0 9da7 d43f
00000010: 872c 4240 d01a 03c0
-3.0016875 -2.2468266 -2.234378 1.6613652 3.0339677 -2.0485115
