Data/Torch models/P2_20240716_L_channel11_fold4_best.pt (torch, 10967 bytes, 5 tensors)

weight f4 [18, 4]
000000 d8 8c 49 3f cd a7 cd bd 2c 5a 97 3e ef 48 03 bd
       0.78730536 -0.10041771 0.29560983 -0.032051977
000010 8d 4e a5 be ff 7b 8c be fb 1d 13 3c 4c e1 e2 be
       -0.32286492 -0.27438352 0.008979316 -0.44312513
000020 18 2f 03 3f 77 d6 5e be 47 cc 27 bf b6 96 35 bf
       0.51243734 -0.217615 -0.6554608 -0.7093309
000030 20 53 65 be 04 5d 0b be 10 6f e3 bd d8 ca 14 be
       -0.22394991 -0.13609701 -0.11105168 -0.14530504
000040 fc 2b 59 be c2 bf a5 be 82 eb cd be 80 84 fa bb
       -0.21208185 -0.32372862 -0.4021874 -0.0076451898
000050 10 27 07 3f d4 a1 11 3e c1 d7 18 3e 5f 0f 8b bf
       0.5279398 0.14221889 0.14926054 -1.0864066
000060 05 4e 86 3e 33 37 88 3e 84 00 f4 bd 85 3a 25 bf
       0.262314 0.26604614 -0.11914161 -0.6454242
000070 96 7a 4d bf 32 1b ab 3d 0a d0 f3 3e 7d 28 30 3e
       -0.80265176 0.083547965 0.4761966 0.17202945
000080 4a 60 15 3f 00 dd ee be fc 03 da bd dd b9 e7 be
       0.5835005 -0.46652985 -0.10645291 -0.4525899
000090 5c d4 4c 3e 77 6e 0a bf f2 b7 37 3f 0f cd 45 3d
       0.20002884 -0.54074806 0.71765053 0.048291262
0000a0 c0 60 bc be 1c b9 af 3e c0 8e 73 be 83 62 4f 3d
       -0.36792564 0.34320915 -0.23784924 0.050631057
0000b0 d8 88 66 3e c6 0e 55 3f 2a c5 27 bf d9 d1 5b bf
       0.22513139 0.8322567 -0.65535223 -0.8586708
0000c0 03 b9 98 3e 54 b5 4b 3c a0 d7 76 3e 17 77 d3 3e
       0.29828653 0.012433369 0.24105692 0.41301796
0000d0 29 e1 4d 3f 29 7c c0 be e7 c0 4b bf 72 06 5b bf
       0.8042169 -0.37594727 -0.7959122 -0.8555671
0000e0 8d b2 b5 3e 1f fc 7d 3f cf a5 47 3e b5 44 ff 3e
       0.35487786 0.9921283 0.19496845 0.49857107
0000f0 ef 75 ca 3e fc 18 4b 3f b0 b9 48 bf 61 49 8a bf
       0.395431 0.79335 -0.78408337 -1.0803643
000100 18 ea 03 3f 81 a1 4d 3f bd 6e 4d 3f b7 a1 3f be
       0.51529074 0.8032456 0.802471 -0.18714033
000110 44 b6 00 3f 58 9e b0 3f e7 6c 60 3f f3 51 83 3f
       0.50278115 1.3798323 0.8766617 1.0259384

bias f4 [18]
000000 33 bb 82 3d 9a c8 47 3f bf f4 88 3f cc 85 ad be
       0.06383362 0.7804047 1.069969 -0.3389114
000010 4c 5e 04 be b3 c0 88 3e 74 59 bc 3b 40 20 45 3f
       -0.12926596 0.26709518 0.0057479683 0.77002335
000020 27 ef 52 be f0 1d 19 3f 03 3b b6 3c cf dc e9 3e
       -0.20599042 0.59811306 0.022244936 0.45676276
000030 63 a6 ef 3e 25 1a 95 3f b6 c3 8e bd 8c f9 2c 3f
       0.4680663 1.1648604 -0.06970923 0.6756828
000040 fe 95 69 bd a7 c0 c2 be
       -0.05702781 -0.38037607

weight f4 [6, 324]
000000 c5 77 82 bd 83 83 3f 3e 65 ff fb 3d 54 6b 5d 3c
       -0.063705005 0.18702511 0.12304572 0.013514359
000010 32 36 8b 3c e4 0d f9 3d c3 78 1e 3d 1a 6c c1 3d
       0.016993616 0.121608526 0.038689386 0.09444447
000020 fd 1a 29 bd 47 4c 44 3d b8 03 1c 3d f5 ab 4b 3e
       -0.041285504 0.047924306 0.038089484 0.19889815
000030 6e b9 e2 bc cb 93 20 3e 2b 75 b8 bd 1a 04 67 3e
       -0.02767631 0.15681379 -0.09006723 0.22560158
000040 5a 78 c3 bd 93 36 1a be e7 99 99 bc 02 ba 90 3d
       -0.095444396 -0.15059881 -0.018750144 0.07066728
000050 b2 cc b6 3c 0c 9a 32 3c 10 63 8f 3b ac 37 e8 bd
       0.022314403 0.010900985 0.004375823 -0.113387436
000060 c6 7b a6 bd ad 73 09 3e 61 1e 53 bd c2 d7 a0 3d
       -0.08129077 0.13423033 -0.051542643 0.078536525
000070 be b6 04 bd 3c f6 b4 bd 42 af c4 3d 04 50 5a 3d
       -0.03240084 -0.08836028 0.0960374 0.053298965
000080 1a cd 7c bd c4 65 b7 bd 71 93 3c be 78 16 24 be
       -0.061719038 -0.08954957 -0.1841562 -0.16024196
000090 79 33 2b 3e 5c 0a c6 3d 92 b7 2b 3e f8 af ae bc
       0.16718854 0.09669945 0.16769245 -0.021324143
0000a0 c0 48 29 bc fd df ac 3d 33 15 3a bd b1 bd ab 3c
       -0.010332286 0.0844116 -0.045430373 0.020964475
0000b0 ca 55 f4 3c 1a 83 ad 3e d4 4a 1b bd 29 06 f4 bd
       0.029826064 0.33889085 -0.03791316 -0.119152375
0000c0 49 34 97 3d fb 9e 46 3e 88 2a 3d be c8 6d 13 be
       0.073830195 0.19396584 -0.18473256 -0.14397347
0000d0 62 0a 1f 3d e9 fc 43 be 5b 57 2a bc 12 88 ba bc
       0.03882826 -0.19139446 -0.010396804 -0.022769962
0000e0 44 fd 57 3e 6a 7d c4 bc d2 d5 d3 bc 33 02 e9 bb
       0.21092707 -0.023985583 -0.025858793 -0.007110858
0000f0 98 b4 ea 3d c6 00 e5 bd c7 4c 4d bc 40 59 d0 bc
       0.11460227 -0.11181788 -0.012530512 -0.025433183
000100 d3 c1 8b 3c 20 5a 6c 3e d4 08 4a 3d b7 41 8d 3e
       0.017060196 0.23081255 0.049324825 0.275892
000110 52 8f a1 3c 6f 99 3c 3e 3a 1f 2e bd e8 06 ca bd
       0.01972166 0.18417905 -0.04251025 -0.098645985
000120 16 26 06 be 33 ca 12 3e 1c 62 11 bd e0 e0 17 bd
       -0.13100466 0.14334945 -0.035493955 -0.037079692
000130 0a c8 92 bc 98 f5 9e 3c f6 1e e4 3c a0 07 4c 3e
       -0.017917652 0.019404218 0.027846795 0.19924784
000140 58 dd 65 bd 8c 79 33 3d 46 5e d4 bc 4f 3f 4b bd
       -0.056119293 0.043817088 -0.02592386 -0.049620923
000150 ad 8a 5a bc e1 73 ce bd 21 7b 94 bd 88 74 a6 bd
       -0.013338727 -0.10080696 -0.072500475 -0.08127695
000160 20 d3 47 bd 17 59 e9 bc bc 83 e0 bd 52 41 aa 3d
       -0.04878533 -0.028484864 -0.10962626 0.0831324
000170 f9 bc 02 3e fa 12 95 3c 9b 48 39 bd 54 0a 22 3d
       0.127674 0.018197525 -0.045235258 0.03956063
000180 a0 bc ff bc 53 58 31 3e 97 9c 2e 3d 3e 80 03 3c
       -0.031217873 0.1731885 0.042629804 0.008026181
000190 ce 0b 27 3d 67 36 43 3e d5 1e 8d bd f2 63 9a 3d
       0.040782742 0.19063722 -0.06890646 0.07538594
0001a0 98 1d be bd d8 a6 f7 3d 5f 27 a6 bd 22 ae fc bd
       -0.09282988 0.1209237 -0.08112978 -0.12337901
0001b0 f6 75 ea bd bc a8 d8 3d a9 2b 3e bd 5a 4c 96 3c
       -0.114482805 0.105790585 -0.046428356 0.018346954
0001c0 0b a7 46 3d 41 80 d1 bd 28 7c 86 bd d2 d1 2d 3e
       0.04849915 -0.102295406 -0.0656665 0.16974571
0001d0 d5 c0 51 bd ae 4b 95 3c 2e fa 1e bc 73 cc 12 3d
       -0.05120929 0.018224563 -0.009703202 0.03583951
0001e0 eb 61 3e 3c 2e ca f7 bd 0e db 5a 3d 34 b0 41 3d
       0.011620025 -0.120991096 0.053431563 0.04728718
0001f0 82 a5 c6 3c 67 91 c2 3d 9e 52 dc bc 50 75 16 3e
       0.024248842 0.095003895 -0.026894864 0.14693189
000200 c3 c1 fa 3d 62 99 31 bd 9d cd 14 3d 30 8f e0 bd
       0.12243988 -0.043359168 0.0363289 -0.10964811
000210 21 74 18 bd 89 9f fd 3d 61 41 d1 3d d6 2a 7c 3d
       -0.037220124 0.123839445 0.10217548 0.06156429
000220 67 5f 68 3c 4b a8 86 bd ae bb 97 3d 9a ea 1b 3e
       0.014182902 -0.06575068 0.07408844 0.15226212
000230 14 65 91 bd 35 d6 93 3c 27 3d 31 be e0 a9 0e be
       -0.07099357 0.018046478 -0.17308484 -0.1393199
000240 b5 8c d7 3d 34 01 31 bd fe fd 07 3d b2 de 92 3c
       0.105248846 -0.043214038 0.03320121 0.017928455
000250 72 aa 85 3c 0f 17 26 be 0e 20 b7 bd 12 be 37 bd
       0.016316626 -0.16219734 -0.08941661 -0.044859
000260 55 54 0b bd 52 2b dd 3c a9 82 f9 3c 53 02 48 bd
       -0.034015972 0.026998196 0.030457811 -0.04883034
000270 8e 87 0a 3e fb 95 16 3d 18 b9 bc 3d e6 f4 a6 bc
       0.13528273 0.036764126 0.09214991 -0.020380449
000280 ac 65 d7 bd 38 ca 3b 3e eb e9 c0 3d c6 74 81 3d
       -0.10517439 0.18338859 0.09419616 0.06321101
000290 76 5e d5 3e 51 79 12 3d d9 bb 03 3d 23 34 d8 3e
       0.4167363 0.035760228 0.032161567 0.42227277
0002a0 9a fa dd 3c c0 1f 83 3c 49 43 3e bd 01 20 f4 3c
       0.027097035 0.01600635 -0.046450887 0.029800417
0002b0 6b 12 48 bd 5e 7b b1 3e 96 b3 98 bd 38 cd dc 3e
       -0.04884569 0.34664434 -0.07456128 0.4312532
0002c0 30 ef 80 bd f0 9f e7 3e c9 55 0a 3d 80 b9 9e be
       -0.062956214 0.4523921 0.033773217 -0.310009
0002d0 20 ce b6 3c ca b4 09 bd 4a c5 9c 3e a2 f7 ce 3c
       0.022315085 -0.03361968 0.3061927 0.025264565
0002e0 47 2b 55 3d 71 24 c0 3e a8 67 3c 3d 37 a8 37 bd
       0.052043226 0.37527803 0.04599729 -0.044838157
0002f0 85 7c e8 3b 8e 25 dd 3c 3a 14 b0 3c bc e1 9a 3e
       0.007094922 0.026995447 0.02149402 0.30250347
000300 3c f6 8e bd cc 7b b9 3e 27 57 02 be 0e 73 d9 3e
       -0.06980559 0.36227262 -0.12728558 0.42470592
000310 27 af 1c 3e 05 71 8f be bb 87 a9 3d 3a aa 2b 3d
       0.1530119 -0.28015915 0.08277842 0.041910388
000320 49 f2 79 3e 00 e0 3e ba 92 9d ef bc 67 b0 52 3e
       0.2440883 -0.00072813034 -0.02924994 0.20575105
000330 e0 bd 9d 3c ea 3e a1 3c 14 d1 09 bc f6 94 e5 3d
       0.019255579 0.01968332 -0.0084116645 0.11210053
000340 c8 a5 05 bd 39 59 6a 3e 04 13 8a 3c 06 02 8a 3e
       -0.032628804 0.22885598 0.01685477 0.2695467
000350 ff 5f b4 bc 4e 2d 89 3e 02 ec d4 3d d4 53 a8 38
       -0.02201843 0.26792377 0.103965774 8.0264785e-05
000360 8c ca c1 bd 90 2a 19 3e c1 af 07 3e 8e 76 f7 bc
       -0.09462461 0.14957643 0.13250639 -0.030207898
000370 30 10 49 bd 91 f4 56 bc 8d 39 c1 3d dd 9b af 3d
       -0.049087703 -0.013119833 0.09434805 0.085746504
000380 36 b6 88 3d 31 50 4c bd 59 fa 89 bc d5 90 47 3d
       0.06675379 -0.049881164 -0.016843008 0.048722107
000390 3f 31 2c 3d 4a 53 24 3e 99 b5 ae bd ec 6d 31 3e
       0.042039152 0.16047397 -0.08530731 0.17327088
0003a0 30 03 77 bd d7 76 5f be 7c eb a2 3d ad bb 4f bb
       -0.060305774 -0.21822678 0.07955071 -0.0031697557
0003b0 59 e8 5d 3e 4c c3 2e bd 38 c3 8b bb 27 1f 9c 3e
       0.21670665 -0.04266672 -0.0042652152 0.30492517
0003c0 99 a6 b4 3d 4b 95 fc 3c a4 d0 96 ba 56 0e d0 3c
       0.088208385 0.030832907 -0.0011506272 0.02539746
0003d0 5b ab 16 3d 04 4d 7a 3e 9b e5 1a 3a 2e 0d ad 3e
       0.03678451 0.24443442 0.00059088477 0.33799118
0003e0 dc 51 3b 3a a2 15 8f 3e af 93 e3 3d a8 cd b5 bd
       0.0007145682 0.27946192 0.11112153 -0.088771164
0003f0 ab ad 5f 3c 95 de c2 bd 39 b0 b3 be 10 73 1c bd
       0.0136522455 -0.095151104 -0.35095385 -0.03819567

bias f4 [6]
000000 84 9f 49 3e 8f a1 09 3e 4b 47 e6 3d 5b 9c b4 3c
       0.19689757 0.13440536 0.11244067 0.022047212
000010 0a 99 1d 3d f0 d4 e6 3d
       0.038476028 0.11271083

weight f4 [1, 6]
000000 42 09 fa bf ff f1 ad bf bf 3d d3 bf 3c fa 05 40
       -1.9534075 -1.3589476 -1.6503218 2.093398
000010 68 87 21 be b2 a0 b8 bf
       -0.1577431 -1.442404
