Data/Torch models/P2_20240716_L_channel1_fold1_best.pt (torch, 10967 bytes, 5 tensors)

weight f4 [18, 4]
000000 5c a1 f6 be 92 e5 a8 be ec 63 14 3e 98 79 c3 3e
       -0.48169982 -0.32987648 0.14491242 0.38178706
000010 42 d5 ff 3e 2a 9a 92 be 40 e8 8b be df ec 37 3f
       0.4996739 -0.28633243 -0.2732563 0.7184581
000020 26 10 5d 3f f2 48 a0 3f d6 5f c1 3e ae ca 1d 3c
       0.86352766 1.2522261 0.3776843 0.009630842
000030 64 52 82 3f 9d 14 3d bf ce ff 53 3e 3c f2 91 bf
       1.0181394 -0.7385958 0.2070305 -1.1402049
000040 b2 f7 70 3f 16 76 11 3d ba df 1b be f0 e5 17 3f
       0.94127953 0.035513006 -0.15222064 0.5933523
000050 8a 5f 3a bf 2a 27 d6 be 72 85 87 3e ab bd 88 3e
       -0.7280203 -0.41826755 0.26468998 0.26707205
000060 77 e0 b8 3d da 2e bb 3f 71 da 78 3f b4 22 18 3f
       0.09027188 1.4623673 0.97208315 0.5942795
000070 7f e7 fc bd 58 68 f5 be 84 ac 18 be 42 4b 12 be
       -0.12348842 -0.4793117 -0.1490956 -0.14286521
000080 c0 52 72 be 60 79 16 3e f6 5f 82 be 0c e2 7d 3e
       -0.23664379 0.14694738 -0.25463837 0.24793261
000090 14 01 09 bf d0 6c a8 3f c0 9b 9c 3f d2 22 97 be
       -0.5351727 1.3158207 1.2235031 -0.29518753
0000a0 9c ba a3 3e d8 8d d0 3e cf ba f4 bd 72 94 26 bf
       0.3197831 0.40733218 -0.119496934 -0.6507026
0000b0 f0 6b 22 3f 16 07 5c 3f 78 00 16 bf 8a 49 7b bf
       0.6344595 0.8594831 -0.58594465 -0.98159087
0000c0 b2 0a c5 be 14 46 1a 3e 98 10 9e be 7a 72 b7 be
       -0.38484722 0.15065795 -0.30872035 -0.35829526
0000d0 60 e3 9e be 20 39 9a 3c f2 fc 90 3e c8 a2 c3 bd
       -0.31032848 0.018826067 0.28317982 -0.095525324
0000e0 3e 5a 87 3f aa cb f6 3e bf 0d c6 bd 08 0a b1 3f
       1.0574415 0.48202258 -0.096705906 1.3831186
0000f0 46 83 10 ba 5f b1 4e bf 88 d3 17 bf 18 a2 bd be
       -0.00055127253 -0.80739397 -0.59307146 -0.3703773
000100 71 b4 07 bf 5b bb d5 be 64 4a d0 be 3b 48 d6 bc
       -0.53009707 -0.41744503 -0.40681756 -0.026157489
000110 1d 48 e3 3e e8 58 0a 3e a7 e8 1e bf 50 5c 6c bf
       0.44390956 0.13510478 -0.6207375 -0.9232836

bias f4 [18]
000000 24 4c bd be 1e db 64 3e 9c 50 1b 38 d8 5e 31 3f
       -0.36972153 0.22349212 3.7029953e-05 0.69285345
000010 23 48 db 3e 44 76 02 3f 00 75 9d 3e 4e 22 65 3f
       0.42828473 0.5096171 0.30753326 0.8950547
000020 40 c0 2a bd a5 01 09 3f 7d 83 30 3d 55 26 97 3d
       -0.04168725 0.53518134 0.043094147 0.07380358
000030 6c ea e6 be c0 c1 5a bd 8e f1 af bd 7c 47 0b 3f
       -0.45100725 -0.05340743 -0.08590995 0.5440595
000040 c2 70 49 3f 45 37 77 3f
       0.7868768 0.9656871

weight f4 [6, 324]
000000 77 21 52 3d 2a 3f a2 bc 4c 16 8d bd 66 38 a7 3c
       0.051301446 -0.01980551 -0.068890184 0.020412635
000010 a2 ba 2b bc 94 6f 1b 3d 21 6a 64 3c 27 d9 09 3d
       -0.010481508 0.037948206 0.013941319 0.03365436
000020 d8 36 c0 bc 62 b0 00 3d 52 c7 21 bd 7a 4e 56 3c
       -0.023463652 0.03141821 -0.039496727 0.013080234
000030 07 ee 2c 3d cb 5a 5a bd 15 09 3a 3c 87 1c aa ba
       0.042219188 -0.053309243 0.011354704 -0.0012978473
000040 0f 06 cf 3b 37 d8 d0 3c fb ef 60 bd 33 40 cf bb
       0.006317861 0.025493724 -0.054916363 -0.006324792
000050 3b e0 76 3d da 5c 94 bc 25 26 69 3b 71 2a 0c bd
       0.060272437 -0.018110681 0.0035575714 -0.034220163
000060 4b e5 5a 3d 76 4f db bb e0 32 48 bb 05 9e 2b 3d
       0.053441327 -0.006692822 -0.0030547902 0.041898746
000070 76 b4 72 bd 38 b7 9a bc cb fa 1c 3d 25 17 3f 3d
       -0.059254132 -0.018886194 0.038325112 0.04665293
000080 5d 7b 44 bc 76 bb e9 3b 50 b0 b9 b9 c3 b5 a7 bc
       -0.011992303 0.007132943 -0.00035417313 -0.020472413
000090 45 49 51 bd 6d 0c 9a bc b9 e1 1d bd b2 f2 f3 bc
       -0.051095266 -0.018804753 -0.038545344 -0.029778812
0000a0 f4 14 93 bd 01 1c 54 bc c9 7a 59 3d da 1d 07 bd
       -0.07181731 -0.01294613 0.053095613 -0.032987453
0000b0 99 ed 2c 3d d0 79 fc 3c 4e 06 ad b9 89 82 e6 bb
       0.04221878 0.030819803 -0.0003300183 -0.007034604
0000c0 f0 a8 63 bc 36 a1 d9 3c 10 9d 07 3b db 86 2a bd
       -0.013895258 0.02656613 0.0020692982 -0.041632514
0000d0 7e 5a 84 bb 75 c4 06 3c b8 86 d7 bb 0d 9f 66 bd
       -0.004039108 0.00822555 -0.006577339 -0.056304026
0000e0 9d 28 3c 3d ef 7e 26 bd 8d f3 3e bd 70 99 1f bd
       0.04593717 -0.040648397 -0.046618987 -0.03896469
0000f0 3f 5b 78 bc 4e 83 0e bd ed 93 4c 3d 07 82 03 3d
       -0.0151584735 -0.03479319 0.04994576 0.032106426
000100 40 bf 65 3c a4 fd 61 bb 04 db 68 3c f6 d9 95 bc
       0.014022648 -0.0034483457 0.014212374 -0.018292408
000110 cd 5a 04 bd cd b1 f3 3c 4f dd 79 3c ae b2 1d bc
       -0.032313157 0.029747868 0.015250518 -0.00962512
000120 20 fc c8 bb 04 cd 1b bd 24 93 4c bb 2f 8c 71 bc
       -0.0061335713 -0.038037315 -0.0031215632 -0.014742895
000130 3d 13 46 bd f3 90 46 3d 15 a2 3a 3d 87 7b df 3c
       -0.04835819 0.048478078 0.04556473 0.027280582
000140 e2 c2 41 bd c4 ba 35 3c 8a 29 12 3d 4c 78 44 3d
       -0.047304995 0.011091892 0.035684146 0.047966287
000150 67 9e 4b bd 67 b2 22 3d 44 9c 02 bd 8e f3 04 bd
       -0.04971161 0.03972092 -0.031887308 -0.032458834
000160 9b 5f f0 3b f9 f2 f9 3c 50 22 77 3b 32 3c 3c bd
       0.007335616 0.030511366 0.003770966 -0.045955844
000170 d3 2d a9 bc bd 9f 3e bd f3 fc 62 bd 07 5e 56 bc
       -0.020651734 -0.046539057 -0.055417012 -0.013083941
000180 c1 9e 02 3d 2f 84 93 bc de f9 cc 3c b2 bf ae bc
       0.03188968 -0.018007366 0.02502149 -0.021331642
000190 36 1b 4e bc bc d3 ce 3b ee 49 0c bd 67 e5 0d bd
       -0.01257973 0.006311862 -0.034250192 -0.034642603
0001a0 df fe 89 bc 9f ae 73 bc 35 23 37 3b 4c 41 d4 3c
       -0.016845165 -0.014873176 0.002794457 0.025910042
0001b0 cc b2 32 3c 0d 0b c7 bc 9b d9 9c 3c c0 80 7c bd
       0.010906886 -0.024297262 0.019146731 -0.061646223
0001c0 12 36 3c 3d a7 ce da 3c 44 d5 4d 3d eb fd 3a 3c
       0.045950003 0.026709868 0.050252214 0.011413078
0001d0 ac ce 39 bd ee aa 30 3d 39 f0 8a bc 12 82 a3 39
       -0.045363113 0.04313176 -0.01696025 0.00031186693
0001e0 01 75 22 3d e0 30 9c bc fd b4 c2 3b 87 5f d9 bc
       0.039662365 -0.019066274 0.0059419856 -0.026534809
0001f0 57 80 99 3b e9 4c 0b 3d 80 f1 f3 ba d1 16 c8 bc
       0.0046844888 0.034008894 -0.0018611401 -0.024424942
000200 46 8f 02 3d 3f e6 36 3d b1 3b db 3a 43 9e 60 bd
       0.031874917 0.044653174 0.0016726163 -0.05483843
000210 0a 9d 2b bd e2 63 11 3d f8 65 4b bc a6 65 35 bc
       -0.04189781 0.035495646 -0.012414448 -0.011071598
000220 57 97 52 bd e6 ab 0b 3d 08 63 0e bc 58 5e b7 3b
       -0.05141386 0.034099482 -0.008690603 0.0055959634
000230 ca 57 3a bd 8f 66 b5 bc c2 16 3f bd 01 0a 5f 3c
       -0.04549388 -0.02214363 -0.046652563 0.013613225
000240 e4 bf 55 3c 2a eb 06 3d 04 2c 17 bc 37 6c ea 3c
       0.013046239 0.032939114 -0.009226803 0.028616054
000250 e2 03 3d bd c7 e9 04 3d 9f 7b 3d bd 50 18 53 3d
       -0.04614628 0.03244951 -0.046260472 0.051536858
000260 94 a9 2b bd b3 74 aa bd fa 84 31 3d 1e e5 48 3b
       -0.04190977 -0.0832304 0.043339707 0.0030654143
000270 ee cb 56 bd 44 40 56 3c c9 67 78 3b 46 3e e6 3c
       -0.052440576 0.013076846 0.0037903658 0.028105866
000280 00 3a 3f bd 87 87 b9 bc 53 99 03 3d ad 98 7a bd
       -0.046686172 -0.022647632 0.032128643 -0.06118076
000290 6d 2d ae bd f3 95 67 3d 77 ad 26 3c ed 74 81 bc
       -0.08504758 0.056539487 0.010173193 -0.015802825
0002a0 c3 ff 49 bd ad 17 3c 3b 9a 37 c1 3c da e8 be 3b
       -0.04931618 0.0028700635 0.023586083 0.005826098
0002b0 7e 2f 44 3d 1a 0b 08 bc a6 e6 a4 3c 00 e2 80 39
       0.047896855 -0.008303428 0.020129513 0.00024582446
0002c0 e8 75 86 bb db a3 bf bc 35 bc 85 3c e4 21 81 3c
       -0.004103411 -0.023393562 0.016325096 0.01576323
0002d0 84 88 02 3c 99 8d 9b 3c 79 ad 10 3c dd ca ba bc
       0.007967118 0.018988417 0.008830422 -0.02280181
0002e0 38 44 bd 3c cd de 39 bc b2 1f 4b bd f5 da fe 3c
       0.023103818 -0.011344624 -0.049590774 0.031110266
0002f0 80 a0 e5 3a 2f d8 25 3d da dd 58 bc e9 92 3c 3d
       0.0017519146 0.040489372 -0.013236487 0.046038542
000300 9c e3 3f bd 91 21 54 3d 4c bd 9a 3c 56 59 c4 bc
       -0.046847925 0.051789824 0.018889092 -0.02396838
000310 e0 07 84 3c c4 5e 68 3d e4 73 51 bc 8d 84 8c bc
       0.016117036 0.056731 -0.012783978 -0.017153049
000320 e7 49 6e bd 32 47 14 bd 20 96 51 bd 13 4a 29 3d
       -0.058175948 -0.03620071 -0.05116856 0.04133041
000330 58 ac 4b bd 3c 0e 28 3d c0 0b 6b bc a6 41 19 bd
       -0.049724907 0.0410292 -0.014346063 -0.037416123
000340 97 41 1b bd 27 ac 5f bc f0 68 97 bb 8e d1 8a 3c
       -0.03790435 -0.013651884 -0.004620664 0.016945627
000350 b1 b2 ba 3c ef 76 c1 bc e6 47 75 3d 66 5c ed bc
       0.022790285 -0.023616282 0.05988302 -0.028974723
000360 a0 c2 ec bb c6 ab 6e 3c bf b0 d9 bc 5e f7 36 bd
       -0.0072253495 0.014567321 -0.026573537 -0.0446695
000370 cc cd 91 bd 46 29 23 3d b0 7e 75 bb 64 fd f8 3c
       -0.07119331 0.039834283 -0.0037459545 0.030394264
000380 59 0c 45 3d 8c a1 17 bd 68 8a d7 bc ab c2 9a bc
       0.04810748 -0.037019297 -0.026311114 -0.018891653
000390 e0 fd b0 3b e0 37 58 3b f5 1f e8 3b 4e fe f0 bb
       0.005401358 0.0032992288 0.0070838877 -0.007354534
0003a0 81 cc 58 3d 8f 7d a5 3a f8 9b ae bc b8 6c 12 bd
       0.052929405 0.001262592 -0.021314606 -0.035748214
0003b0 97 c2 9e bd 39 b1 d7 bc c4 24 1c bd 1a ba 0c 3c
       -0.07751959 -0.026329624 -0.038121 0.008589292
0003c0 24 ba f2 3c f3 e5 53 3c 96 d5 01 bd eb 77 10 3d
       0.029629774 0.012933242 -0.031697832 0.035270613
0003d0 9f c9 07 bd 48 34 9b bc 2b 98 3f 3d 22 8d 0c bd
       -0.033151265 -0.018945828 0.046775978 -0.034314282
0003e0 e6 89 0f bd b1 30 dd bb 98 94 3c bc ba 58 82 bc
       -0.03504362 -0.0067501892 -0.011510037 -0.015911449
0003f0 e6 4b 2e bd ad c6 3c bd 56 a8 25 bd 6f ac 91 3b
       -0.04255285 -0.04608791 -0.04044374 0.0044456045

bias f4 [6]
000000 b5 06 48 bd e1 a8 e7 bd 5a 79 80 bd 3a 89 89 3d
       -0.04883452 -0.11311508 -0.06273146 0.06715627
000010 8c 75 c6 3d 5b 1a 27 3d
       0.09690389 0.04079662

weight f4 [1, 6]
000000 f9 b3 0d be 70 e5 06 40 b2 07 f5 3f 12 65 26 c0
       -0.13838185 2.1077538 1.9142973 -2.5999188
000010 67 01 ff bf 0d c0 11 c0
       -1.9922303 -2.2773468
