Data/Torch models/P2_20230827_L_channel8_fold4_best.pt (torch, 10967 bytes, 5 tensors)

weight f4 [18, 4]
-0.3802095 -0.4685611 0.11998579 0.058204576 0.802793 0.6184019 0.5143966 -0.051574938
-0.14395946 -0.46987188 -0.19733363 0.30227768 -0.24873906 -0.4263475 0.18431729 0.11902648
-0.25931698 0.22655356 -0.026893707 -0.30510038 0.03799535 -0.25083286 0.37976837 -0.50037384
0.106754474 -0.089359075 -0.24529119 -0.098106876 -0.31169212 0.39370227 -0.47019863 0.19557995
0.5052635 -0.51835024 -0.1651645 -0.31219167 -0.26756498 0.12557402 0.3678256 0.57378566
0.29285038 -0.1551304 -0.3504534 0.5471963 -0.26269934 -0.119336136 0.004315557 -0.11975027
-0.23346835 0.16781218 -0.31456846 0.16383101 -0.40670672 -0.036027323 0.8240478 0.6624526
-0.28130725 -0.10401854 -0.21450764 0.118602246 -0.41855806 -0.65602326 0.17453134 -0.030221535
-0.0450356 -0.45454758 0.015101314 0.39351112 -0.05403191 -0.37208432 0.24922282 0.4409374
00000000: d2aa c2be 3ee7 efbe 1cbb f53d ec67 6e3d
00000010: d883 4d3f 964f 1e3f 7faf 033f 3e40 53bd
00000020: 1c6a 13be 0c93 f0be d411 4abe 24c4 9a3e
00000030: 74b5 7ebe 384a dabe acbd 3c3e 28c4 f33d
00000040: 32c5 84be a8fd 673e 3150 dcbc 1e36 9cbe
00000050: 03a1 1b3d 2a6d 80be 0071 c23e 8018 00bf
00000060: 17a2 da3d e401 b7bd 9d2d 7bbe 42ec c8bd
00000070: 1c96 9fbe 5893 c93e e0bd f0be 1c46 483e
00000080: f358 013f 9ab2 04bf e220 29be 96d7 9fbe
00000090: 47fe 88be 7a96 003e a353 bc3e 9ee3 123f
000000a0: 7cf0 953e 81da 1ebe a16e b3be 0f15 0c3f
000000b0: 8780 86be 8166 f4bd 8469 8d3b a13f f5bd
000000c0: 5412 6fbe f5d6 2b3e 1e0f a1be 51c3 273e
000000d0: dd3b d0be 6391 13bd ccf4 523f 7e96 293f
000000e0: 8107 90be ac07 d5bd e4a7 5bbe bce5 f23d
000000f0: 3e4d d6be 24f1 27bf 58b8 323e 2793 f7bc
00000100: 4077 38bd 76ba e8be 806b 773c 4a7a c93e
00000110: 9050 5dbd d681 bebe 4434 7f3e 8cc2 e13e

bias f4 [18]
0.8487733 -0.09810768 -0.4621954 -0.06163335 -0.0060636653 0.3334564 0.3260039 -0.2945488
0.42886528 0.16789514 0.21273707 0.37987489 0.10790006 0.4358955 0.40537292 1.0745813
-0.40986806 -0.30994034
00000000: 3549 593f aeec c8bd e0a4 ecbe 4073 7cbd
00000010: b6b1 c6bb ccba aa3e fce9 a63e 1acf 96be
00000020: 3b94 db3e b4ec 2b3e bfd7 593e f67e c23e
00000030: b5fa dc3d b22d df3e 0a8d cf3e e18b 893f
00000040: 3ada d1be 80b0 9ebe

weight f4 [6, 324]
0.05493852 -0.16102801 0.046837617 -0.035435848 -0.044867173 0.0038568885 0.013438229 0.038221274
0.0785358 -0.02421681 0.004550633 0.0045258454 0.05563576 -0.041413266 0.07957272 0.10050983
0.024155032 -0.005236022 -0.0031384304 0.00017446066 -0.019935071 -0.010355394 0.053039428 0.017029949
0.011671736 0.029043805 -0.045567766 -0.039760944 -0.006435981 -0.026216684 -0.048914503 -0.023334611
0.06501891 0.05938112 -0.051732853 -0.022112384 0.05166556 0.006718862 -0.0318115 -0.043915704
-0.021508351 -0.007138756 -0.011240973 -0.025173942 0.058545355 -0.036707304 -0.03279996 0.026829336
0.01740858 0.04446446 0.047514163 -0.02859442 0.016524192 0.051236097 0.01742313 -0.020374926
0.023920473 -0.049300272 -0.03926251 -0.011516882 -0.027678445 0.0065410584 -0.012266362 0.03480325
0.04885009 -0.045342878 0.047559902 0.054776553 -0.052701376 -0.051149186 0.03187527 -0.03300436
0.04369813 -0.019990362 0.047210906 -0.032057047 -0.002465196 0.026298614 -0.046189353 0.04100227
0.0011065112 0.07540155 -0.075249285 0.017787095 0.031538308 0.16049623 0.058771465 0.14195721
-0.033012435 0.0539372 0.0810537 0.019423971 0.01562548 -0.030413184 -0.026685 0.059639297
-0.047891255 0.03616548 0.032997243 0.01748087 -0.02156704 0.022000495 0.02450383 0.1356224
-0.032541808 0.046196442 -0.045375016 0.05246711 0.10075015 0.00045194515 -0.0027169138 0.049201425
-0.029390063 -0.03687568 0.032918125 0.018042926 0.06468287 0.022335997 0.005633822 -0.011543919
-0.013608376 0.010212642 -0.0043967664 0.114743635 -0.053877313 -0.020421345 0.059761465 -0.1470899
-0.0042033605 -0.022416454 0.047434635 -0.02875278 0.030473255 -0.04514669 0.041307334 -0.007932653
0.066389814 0.05667294 -0.034254063 0.024245273 -0.006228345 0.14736634 -0.046452418 -0.054259438
0.032095343 -0.0077762376 -0.026315834 0.032861706 -0.03192297 -0.0044765603 0.039966602 -0.03183794
0.059234995 -0.03597177 0.00059578154 0.037038274 -0.047498673 -0.105315626 -0.039636027 0.017503051
0.015651602 -0.037272736 0.028249182 0.05897575 -0.0441982 -0.019297913 -0.0391055 0.03138238
0.037807316 0.016624223 0.011405317 -0.032642294 -0.031075781 0.037712634 0.002294808 0.012662238
0.044815138 0.00073314423 -0.03152052 -0.027738519 -0.054119777 0.053883918 -0.027119007 -0.026192844
0.018244382 0.01118836 -0.04235593 0.039649356 -0.012610809 -0.015842786 -0.062381316 0.018990815
0.034352098 0.0133977495 0.04916149 -0.043264735 -0.026090907 -0.0050072744 0.02408706 0.046047784
0.0047201663 -0.022754576 -0.031860106 -0.043618113 -0.00851837 -0.0406999 0.029369587 -0.040073324
-0.049641177 0.048924923 -0.009152411 -0.12000868 -0.053672776 0.019106926 0.036504496 -0.019028597
0.05502823 -0.003211105 -0.03204649 0.0011531264 -0.052829973 0.04918026 -0.016479012 -0.025599698
0.12810227 -0.070141725 -0.053438216 -0.04362832 -0.041189488 -0.04220966 0.028288221 -0.03500002
0.016741086 -0.017465174 -0.005877232 0.009681812 0.04547253 0.048720527 -0.029380085 -0.05106309
-0.022941224 -0.029307047 0.07840312 0.014578908 0.03145588 0.03924224 0.043848388 -0.09891749
-0.036208246 -0.029377047 0.019734379 0.027369414 -0.054462433 -0.015188326 0.020964656 0.054915342
00000000: 3707 613d 87e4 24be cdd8 3f3d 2e25 11bd
00000010: a4c6 37bd dac3 7c3b 052c 5c3c e98d 1c3d
00000020: 61d7 a03d 5562 c6bc 7a1d 953b 8b4d 943b
00000030: 53e2 633d f5a0 29bd 06f7 a23d 19d8 cd3d
00000040: c6e0 c53c f092 abbb 20ae 4dbb 6def 3639
00000050: e04e a3bc aca9 29bc df3f 593d 6482 8b3c
00000060: cf3a 3f3c 46ed ed3c 44a5 3abd 5fdc 22bd
00000070: ece4 d2bb 5fc4 d6bc 935a 48bd 3a28 bfbc
00000080: a228 853d 9e39 733d d4e5 53bd 0825 b5bc
00000090: 449f 533d e629 dc3b c74c 02bd f4e0 33bd
000000a0: 4832 b0bc 3aec e9bb 0f2c 38bc 9539 cebc
000000b0: 41cd 6f3d 665a 16bd 4059 06bd 32c9 db3c
000000c0: 709c 8e3c 5e20 363d 369e 423d d83e eabc
000000d0: be5d 873c f1dc 513d f4ba 8e3c 51e9 a6bc
000000e0: def4 c33c 15ef 49bd bad1 20bd 4eb1 3cbc
000000f0: e8bd e2bc 6056 d63b daf8 48bc da8d 0e3d
00000100: 0817 483d 74b9 39bd 2cce 423d 615d 603d
00000110: 66dd 57bd cf81 51bd a58f 023d 942f 07bd
00000120: cffc 323d d4c2 a3bc 3960 413d 404e 03bd
00000130: 208f 21bb 3170 d73c 0c31 3dbd fff1 273d
00000140: 5b08 913a 216c 9a3d 4c1c 9abd 3eb6 913c
00000150: 502e 013d 2059 243e 59ba 703d 3b5d 113e
00000160: 0c38 07bd 41ed 5c3d 7bff a53d 051f 9f3c
00000170: 0201 803c 1225 f9bc 809a dabc 5648 743d
00000180: 9f29 44bd 4122 143d 1e28 073d 0b34 8f3c
00000190: 5cad b0bc 623a b43c 42bc c83c 99e0 0a3e
000001a0: 8f4a 05bd 7b38 3d3d 27db 39bd c1e7 563d
000001b0: 1856 ce3d 0df3 ec39 400e 32bb 6f87 493d
000001c0: 6ec3 f0bc f40a 17bd 28d5 063d c2ce 933c
000001d0: 7478 843d fbf9 b63c ed9b b83b b522 3dbc
000001e0: aaf5 5ebc ed52 273c c012 90bb b6fe ea3d
000001f0: 75ae 5cbd aa4a a7bc 70c8 743d bc9e 16be
00000200: 58bc 89bb b6a2 b7bc d24a 423d f38a ebbc
00000210: 0ca3 f93c bceb 38bd e131 293d f5f7 01bc
00000220: 62f7 873d e221 683d fd4d 0cbd 069e c63c
00000230: 2517 ccbb 34e7 163e e444 3ebd 253f 5ebd
00000240: 6876 033d cfcf febb 4e94 d7bc ff99 063d
00000250: a9c1 02bd 1cb0 92bb 05b4 233d 8068 02bd
00000260: 65a0 723d 2257 13bd 392e 1c3a 72b5 173d
00000270: f88d 42bd b8af d7bd 6359 22bd 8f62 8f3c
00000280: ca37 803c 4cab 18bd d46a e73c 8e90 713d
00000290: 2c09 35bd a816 9ebc 172d 20bd cf8a 003d
000002a0: d8db 1a3d 862f 883c 5edd 3a3c edb3 05bd
000002b0: a392 febc 9078 1a3d 7d64 163b 4775 4f3c
000002c0: 1490 373d 7a30 403a a91b 01bd e43b e3bc
000002d0: b3ac 5dbd 62b5 5c3d ae28 debc 6092 d6bc
000002e0: 3e75 953c 624f 373c 697d 2dbd 5d67 223d
000002f0: 919d 4ebc bbc8 81bc 8d83 7fbd a092 9b3c
00000300: c9b4 0c3d 3c82 5b3c 8f5d 493d 5d36 31bd
00000310: 99bc d5bc 1014 a4bb 3a52 c53c 9a9c 3c3d
00000320: a0ab 9a3b ce67 babc be7f 02bd e8a8 32bd
00000330: a290 0bbc f0b4 26bd 7d98 f03c ed23 24bd
00000340: 8c54 4bbd 8065 483d fef3 15bc 1cc7 f5bd
00000350: fcd7 5bbd 2186 9c3c bd85 153d dce1 9bbc
00000360: 4865 613d 6771 52bb 2e43 03bd 8024 973a
00000370: 3e64 58bd 3e71 493d fefe 86bc 75b6 d1bc
00000380: 3e2d 033e 77a6 8fbd 08e2 5abd 9cb3 32bd
00000390: 4fb6 28bd 09e4 2cbd b3bc e73c 2e5c 0fbd
000003a0: 9a24 893c 2013 8fbc cc95 c0bb 76a0 1e3c
000003b0: 6741 3a3d 2d8f 473d 81ae f0bc 8827 51bd
000003c0: 3cef bbbc 5515 f0bc d191 a03d 5fdc 6e3c
000003d0: e1d7 003d 79bc 203d 5e9a 333d 4195 cabd
000003e0: 194f 14bd 22a8 f0bc fea9 a13c d235 e03c
000003f0: 0014 5fbd 75d8 78bc 12be ab3c e9ee 603d

bias f4 [6]
-0.006130647 0.03248377 -0.04694808 0.04725013 0.091002494 0.12982264
00000000: 98e3 c8bb b40d 053d a14c 40bd 5a89 413d
00000010: 845f ba3d 3af0 043e

weight f4 [1, 6]
-0.48014185 -0.075982615 0.33492187 -0.8410902 -1.2305149 -1.0028175
00000000: 27d5 f5be c69c 9bbd e17a ab3e b051 57bf
00000010: 8381 9dbf 535c 80bf
