Data/Torch models/P2_20230827_L_channel7_fold1_best.pt (torch, 10967 bytes, 5 tensors)

weight f4 [18, 4]
00000000: 506f cdbe d014 f03d b47c f73e 0448 7abe
00000010: 75de e83e 1c85 bdbe fc65 503b 19d1 7ebe
00000020: 6de7 3f3f 0262 893f e774 9e3d 5aeb ab3d
00000030: 8602 043f d538 203f 46d0 b8bc d3bf 023f
00000040: 581d 29be 70bb 2fbd 3629 de3e 8416 383e
00000050: b849 efbe 4053 0d3e 30aa 4cbd 6a2e 98be
00000060: 9136 6d3e 3b25 2e3f 3d4b 833d f2de 273f
00000070: 0e4f f7be c4f8 403e da8b 98be 201c bfbe
00000080: 9fc5 fa3e d6f3 d73e 2fed 653e 3019 1fbf
00000090: 9763 563f c77e 633f 22c6 123f b8ed 653e
000000a0: d06d 4fbe c4eb a7be 98bf a9be 982a cd3d
000000b0: dc91 aabe e6d7 b4be 9875 8fbd 8cb1 2cbe
000000c0: 576c e53e 2bb3 bdbd 1511 e3be c9bf a63e
000000d0: 0472 0d3e 5229 5bbe 0ff0 c53e 413d f8be
000000e0: 9bce 903e a0c5 7ebe 681e 333f 8aab 453f
000000f0: 8027 7dbc 648b 82be 0e93 89be 9a05 bebe
00000100: 9d76 50bc e128 d43e e320 563f 3b3e 643f
00000110: 2838 653e 003c 093b d0e2 453d 8c40 a2be
-0.40123987 0.1172272 0.48337328 -0.24441534 0.4548222 -0.37015617 0.0031799069 -0.24884452
0.749625 1.0733035 0.07737141 0.08394499 0.5156635 0.6258672 -0.02256025 0.5107395
-0.165151 -0.042903364 0.43390816 0.17977339 -0.4673593 0.13801289 -0.04996699 -0.2972291
0.23165347 0.6802556 0.06410835 0.6557456 -0.483025 0.18844897 -0.29794198 -0.37326145
0.48978898 0.4217822 0.2245376 -0.6214781 0.8374571 0.8886532 0.57333577 0.22453964
-0.20256734 -0.32797062 -0.33153987 0.1001789 -0.33314407 -0.35320967 -0.07004851 -0.16864604
0.4480922 -0.09262689 -0.4434897 0.32568195 0.13813025 -0.21402481 0.38659713 -0.48484233
0.28282627 -0.24880075 0.6996827 0.7721487 -0.015451312 -0.25496972 -0.26870006 -0.3711365
-0.012723592 0.41437438 0.8364393 0.89157456 0.22384703 0.0020940304 0.04831201 -0.3168987

bias f4 [18]
00000000: 56e6 f3be 1235 f9bd b032 f33d 9837 d3bd
00000010: c219 e3be 4c7b f7be 1fea 3bbe d64c a4be
00000020: 4b1c 153f 6ec0 8b3e 0088 2abe 505c b7bd
00000030: bf44 b53f f571 433c 140c d5bd f45f 9cbe
00000040: f0b2 67be 9284 dfbe
-0.4763667 -0.121683255 0.11874902 -0.10313338 -0.4435559 -0.48336256 -0.18351029 -0.3208987
0.58246297 0.2729525 -0.16653442 -0.08953154 1.4161605 0.011929025 -0.10402694 -0.30541956
-0.22626853 -0.4365583

weight f4 [6, 324]
00000000: 3c71 0cbd 23cf 133d 52cf da3c 1251 703b
00000010: 4178 393d 94dd 583c 375f 873c 2e7f b3bc
00000020: 4009 1d3d 6545 cf3d 59cb 41bd 70f9 62bc
00000030: c732 793d c270 7839 ed50 abbc 2c0a 22bd
00000040: 76f7 053d 9239 51bd 391e 32bd 654f 1f3d
00000050: 751c 9f3d d005 103d 44a0 a8bc c230 ef3c
00000060: f7c8 34bc 7e48 a93c 8d32 d73d 7697 d03d
00000070: f091 2fbd df8c 263d 6510 063e c2f0 2f3d
00000080: 5ae5 8a3c 2417 2bbc f69a d4bc 54a1 503c
00000090: c343 483d a3de fd3c 8427 083c f0ed 4cbb
000000a0: 00ae cdbc 94ce 3a3c 218a d2bc a7f8 50bd
000000b0: 1a4c c33d 91dd a83d aed3 83bc 0ebf e5bc
000000c0: 9e31 953d 8fa8 80bb bb5a 533c 866c 41bd
000000d0: 09e5 c2bb 0069 2839 264b e43c 525f 5f3d
000000e0: 0727 9c3d bee3 25bd 5061 44bb f0b8 e0bb
000000f0: 485a 223c 20bf cfba b0b9 023d a4a0 d83d
00000100: 4866 25bc 7e1d 993c 0457 043e 2a10 e2bb
00000110: eb07 52bd 7776 083d f5d4 90bc 285b d1bb
00000120: 5c8d acbc 72e2 be3c 1f8a 1ebc ee7a cbbb
00000130: 8ea0 3cbd 26ed b53c 9e8b c5bc ce30 3bbd
00000140: fb96 db3c d12e a13d 3045 21bc e738 313d
00000150: 9b2c b73c 4acb e3bc d895 9e3c 62f6 29bd
00000160: 6858 813c e38b 033d 6dc9 2b3d f747 4dbc
00000170: de3c 503d 1d69 323d ecf5 513c 9ca3 c3bc
00000180: d877 4dbc 1b58 553d 1ce0 dc3c 4bd0 233d
00000190: dacd d63c e0b2 d43b 1352 b43d cff7 22bd
000001a0: d7a4 f33c c715 25bd 6fcb 253d 37fa 3a3d
000001b0: c0bb c9ba 8f30 133b 3a21 4b3c 0b27 4b3d
000001c0: 3a59 b73c 8e61 21bd 63e2 51bd 50fd 4ebd
000001d0: 15a1 383d b8f3 963c ba9c 833c ec72 49bc
000001e0: bfff aa3d eed9 0cbc e7e2 d93c 402d 43bc
000001f0: 0544 273b 6d4b 5cbd 0343 103d 1df3 713b
00000200: eac9 ad3d 73e8 863c 0873 b4bc c05b 5c3b
00000210: dbf9 06bd 1039 00bd ff69 b03d badd 0e3d
00000220: 6a59 863c f416 1ebd 86ea 073e 6a2c 543c
00000230: 97d3 2f3d f465 763c dfbd e0bc d99c 1dbd
00000240: 99fb 493d 808c aa3c ecf0 c13d a38b 473c
00000250: c6cb 3fbd 0084 6e39 f028 8bbc 6c90 07bc
00000260: 3b26 fd3d 47aa b43d 386c afbc 9c8c 353c
00000270: 5e2f ec3d 488f 1d3d dafe 333d 79df 21bd
00000280: b6ac 56bd c949 5fbd 62a7 5abd 4517 2dbc
00000290: a3a3 f93d a65f 183d a7c5 2b3d 478e 3bbd
000002a0: 2963 dc3c 6afa 9cbc 8f32 413d d7c5 bd3d
000002b0: 3a28 03bd 50c1 793b dea9 fc3d 443e bc3c
000002c0: 8e3a 163c e05b 00bb 5c05 113d 8a45 dd3c
000002d0: 799a 2dbd daee 71bc 2511 1c3e a7e1 003c
000002e0: 8074 9db9 3c1d 783c e7a9 3abc c03c 543b
000002f0: 9378 f63c d773 da3d 79c8 3bbd a825 c1bb
00000300: 48d5 a13d 4a45 523d 5a01 723d e22c b73c
00000310: 7ab4 42bd fbd9 323d beff fe3c 4732 b8bb
00000320: 888e e93d 1e33 8fbc a8b3 ccbb 6d81 5ebd
00000330: b75e b63b c49c 173c e7dc 9b3d facc 373e
00000340: aef8 a83c fa0e 9c3c 934b 1d3e c571 1bbd
00000350: 0b1d 663d 3b2f 5b3d a50e 263d 904c 04bd
00000360: 80b4 44bc 61b5 de3c 589e 2c3d 29d8 19bd
00000370: e09a 9e3a c49c 10bd 7f29 bf3c 631b 283d
00000380: c0cf 493d a283 4d3d 704b 36bc 3d23 59bd
00000390: 985b 103e 595b 87bb 3a26 34bd 057d 383d
000003a0: 6769 4d3d 6c18 53bd 3cc1 21bd 945c bd3b
000003b0: 7029 783d 1c29 443d b8fe 9bbc a8ee 9ebc
000003c0: 4c14 023d e668 b53c 8101 e93c d1ba b23d
000003d0: 007e 8fbc 5cff 33bc cafc 053e c8ac 71bc
000003e0: 0311 91bc 50e3 043b fb6e 80bb 42ab 3cbd
000003f0: 0689 b03c 4cc2 dabc 9497 e73d a612 803c
-0.034287676 0.036086213 0.026710186 0.0036669415 0.0452807 0.013236422 0.016524894 -0.02191123
0.0383389 0.10120658 -0.047313068 -0.013853416 0.06083944 0.00023693129 -0.020912612 -0.039560482
0.0327067 -0.051080294 -0.043485854 0.038894076 0.077690996 0.035161793 -0.020584233 0.029198054
-0.011034242 0.02066445 0.10507689 0.10185139 -0.042863786 0.04066169 0.13092192 0.042954214
0.016955066 -0.010442529 -0.025952797 0.012733776 0.048892748 0.03098995 0.0083102025 -0.0031269751
-0.025107384 0.011401791 -0.02570063 -0.051018383 0.095359996 0.082453854 -0.016092148 -0.028045204
0.07284854 -0.0039263438 0.01290005 -0.047222637 -0.0059477133 0.00016060844 0.027867865 0.054534264
0.076246314 -0.040500395 -0.002996523 -0.006857984 0.00990922 -0.0015849806 0.031915367 0.10577515
-0.0100951865 0.01869082 0.12923819 -0.0068988996 -0.051277082 0.033316102 -0.01767967 -0.0063890405
-0.0210635 0.023301337 -0.009676485 -0.0062097227 -0.046051554 0.022207808 -0.024114426 -0.04570084
0.026805392 0.07870258 -0.009843156 0.043267157 0.022360137 -0.027806897 0.01935856 -0.041494735
0.015789226 0.03211583 0.04194014 -0.012529365 0.050839297 0.043557275 0.01281498 -0.023881726
-0.01254078 0.052085977 0.026962332 0.039993566 0.026221205 0.00649105 0.08804717 -0.03978711
0.029741688 -0.04030397 0.040477213 0.04564878 -0.0015391037 0.0022459363 0.012398059 0.04959778
0.022381414 -0.039399676 -0.05124129 -0.050534546 0.045075495 0.018426761 0.016065944 -0.012295466
0.08349561 -0.00859688 0.026597453 -0.011912644 0.002552272 -0.05378287 0.035220157 0.0036918588
0.08485778 0.016468262 -0.022027507 0.0033624023 -0.032953124 -0.03130442 0.08613967 0.034879424
0.016400058 -0.03859611 0.13273057 0.012950042 0.042926397 0.015038956 -0.027434288 -0.03847966
0.049312208 0.020818949 0.0946978 0.012179288 -0.046825193 0.00022746623 -0.016987294 -0.008274179
0.123608075 0.0882154 -0.021413907 0.011080887 0.11532472 0.03846672 0.043944217 -0.03951976
-0.052410804 -0.054513726 -0.053382285 -0.01056463 0.12189414 0.037200592 0.041936543 -0.045789983
0.026902752 -0.019162375 0.047167357 0.092662506 -0.032020785 0.0038109608 0.12337087 0.02297891
0.009169234 -0.0019586012 0.0354055 0.027010698 -0.042383645 -0.014766419 0.15240915 0.0078663
-0.00030032173 0.015143689 -0.011393047 0.0032384843 0.030086791 0.10666626 -0.045845482 -0.0058943816
0.07902008 0.05133561 0.05908332 0.022360269 -0.047535397 0.043664914 0.031127807 -0.005621228
0.11404139 -0.01748043 -0.0062470026 -0.05432265 0.00556549 0.009253684 0.07610493 0.17949286
0.020626392 0.01905011 0.1536086 -0.037950296 0.05618004 0.05351184 0.04054131 -0.03229958
-0.012005925 0.027186098 0.042143196 -0.037559662 0.00121006 -0.035305753 0.023335217 0.041041743
0.04927039 0.050174363 -0.011126384 -0.05301212 0.1409744 -0.0041307625 -0.04398177 0.045041103
0.050149348 -0.051536962 -0.039490923 0.0057788584 0.060586393 0.047890767 -0.019042358 -0.01940091
0.031757638 0.022144746 0.0284431 0.08727039 -0.017516136 -0.010986175 0.13084713 -0.014750667
-0.017708307 0.002027709 -0.00391948 -0.04606176 0.021549713 -0.026703976 0.11308208 0.015633892

bias f4 [6]
00000000: 62eb 043e eeaf 9e3d ff0c d93d 74d1 5e3e
00000010: d36e 1c3e e193 6b3e
0.12980416 0.077484 0.10598182 0.21759588 0.15276651 0.2300563

weight f4 [1, 6]
00000000: d0a2 083f 9c20 87bf 8915 053f 67b7 d5bf
00000010: 8948 b3bf b4aa e7bf
0.5337343 -1.0556827 0.51985985 -1.6696595 -1.4006511 -1.809897
