Data/Torch models/P2_20230827_R_channel5_fold1_best.pt (torch, 10967 bytes, 5 tensors)

weight f4 [18, 4]
000000 15 f7 a0 3e 8a b2 24 bf 4e 54 81 bf d6 49 b3 3d
       0.3143851 -0.6433493 -1.0103853 0.087543175
000010 2f f8 91 3f fe 7c 64 3f 57 cd 33 bf f9 38 89 3f
       1.1403865 0.8925322 -0.702352 1.0720512
000020 4d b0 7e 3d 01 ea 0e 3e 81 14 01 3f 2c 27 ca 3e
       0.062179852 0.13956453 0.5042191 0.3948301
000030 4a 5f cb 3e 3a 26 4f be 6c 81 cf bd ec 18 d1 be
       0.39721137 -0.20229426 -0.10132107 -0.40839326
000040 f4 ba d2 be 3d a3 1f 3f 78 0d a1 be 4e f2 49 3f
       -0.4115826 0.62358457 -0.31455588 0.7888535
000050 22 59 a7 be 6a 91 15 3f 92 0a 42 3f 18 60 96 3f
       -0.3268519 0.5842501 0.7579738 1.1748075
000060 98 9f 96 3e 38 19 fd bc b1 9f 8a 3d 73 f5 5c bf
       0.29418635 -0.030895814 0.0676874 -0.86312026
000070 a2 f2 f4 3d 45 da 86 3f bd d7 49 be 3c b0 57 bf
       0.11960341 1.053536 -0.19711204 -0.8425329
000080 75 6b 6c be 44 3b 35 bd 92 e2 3c bf cb e0 b5 be
       -0.23087867 -0.044245973 -0.7378322 -0.35523066
000090 c2 0a 81 ba ff d9 ff 3e 10 f9 05 bf 27 d8 72 3f
       -0.0009845125 0.49971005 -0.52333164 0.9486107
0000a0 87 e7 e6 be 80 0a 1e 3f 55 b1 1a 3f 19 0d da be
       -0.45098516 0.6173477 0.6042684 -0.42588118
0000b0 e6 2d 8c 3e d6 d8 46 be 4d c7 f4 be 08 5b 3d be
       0.27378768 -0.19418654 -0.47808304 -0.18491757
0000c0 2c fa f2 be a7 2d 80 3e 58 43 82 be 55 48 7d 3f
       -0.4745649 0.2503483 -0.25442004 0.98938495
0000d0 d2 b4 f0 be 20 43 72 bd c6 0c af be 18 65 ae be
       -0.47012955 -0.059146047 -0.34189433 -0.34061503
0000e0 fa 19 8c 3e 87 a9 80 3e bd f2 65 3f 45 fc 6f bf
       0.2736357 0.2512934 0.89823514 -0.9374431
0000f0 a9 b0 59 3f 08 93 28 bf 41 4e 09 be 0d 7e ac be
       0.85035187 -0.6584935 -0.13408758 -0.3368992
000100 a6 84 37 3f 7d 40 72 be 64 0e c2 3f 5d 46 0f 3f
       0.7168678 -0.23657413 1.5160642 0.5596674
000110 a9 16 10 3f 1a b6 a7 3f 54 d5 1d 3f 37 c4 3f bf
       0.56284577 1.3102448 0.6165364 -0.74908775

bias f4 [18]
000000 4d 70 ab 3f dc a7 47 37 64 37 99 be 75 00 61 be
       1.3393646 1.1900407e-05 -0.29925072 -0.2197283
000010 03 d0 b2 3e 07 26 14 3e 12 a1 08 3f da e5 9c 36
       0.34924325 0.14467631 0.53370774 4.6759205e-06
000020 78 7e f8 3e 93 dc 88 3d 08 f1 50 3e 20 80 5e bd
       0.48533988 0.06682696 0.20404446 -0.05432141
000030 39 0f f5 3e 70 c7 a8 be 2a 8b 23 be d1 95 e7 3e
       0.47863176 -0.3296466 -0.15971056 0.45231488
000040 70 b6 9a bc 18 17 d1 3e
       -0.018885821 0.40837932

weight f4 [6, 324]
000000 33 7b ba 3c 51 c2 6b bb 6e e8 0d bc c8 41 4b 3d
       0.022763824 -0.0035973976 -0.008661373 0.04962328
000010 71 48 a5 bd d0 81 3a bd 4f 53 f3 3c 57 2b d5 3b
       -0.08070458 -0.045533955 0.02970281 0.0065054107
000020 cc 75 67 3c 4d f3 46 3c b4 4f 12 3d 85 5d 42 bd
       0.014127206 0.012142968 0.035720542 -0.04745247
000030 ae a3 2e bd 0c 46 05 bd 94 86 45 bd 1e 7c 16 3c
       -0.042636566 -0.032537505 -0.048224047 0.009184865
000040 fd 66 0d 3d e8 7e 6d bd 79 da 1e bd 9e 17 f7 bd
       0.034522045 -0.057982355 -0.03878257 -0.120650515
000050 e5 5f e7 bb a4 1d 4f bd 5e b9 36 bd fd 03 b8 bc
       -0.007060992 -0.050565377 -0.044610374 -0.02246284
000060 ea f1 22 bd b7 93 46 bd 0c ed 81 bc 14 64 41 bd
       -0.03978149 -0.048480716 -0.015860103 -0.047214583
000070 1d 79 58 bd 6b 46 4d bc 5a aa af bd ab 07 11 3d
       -0.052849878 -0.012528996 -0.08577414 0.035407703
000080 19 fc 01 3d da 8e bc 3c 09 28 c2 3b 56 56 40 bd
       0.03173456 0.023017336 0.0059251827 -0.046957336
000090 f1 15 be 3c 46 a4 90 bd b2 16 6b bd f7 b5 f1 3b
       0.023203822 -0.07062583 -0.05739469 0.007376428
0000a0 c6 91 6b bd a1 7b 27 be 0d 80 12 3d 09 d3 81 bc
       -0.057512067 -0.16355754 0.03576665 -0.0158477
0000b0 da 80 82 3d 8d 3d 80 bd 94 6b 0a bd c0 b4 1e 3d
       0.06372233 -0.0626174 -0.033794 0.038746595
0000c0 d8 ea 78 bd 82 42 53 bd f1 06 0f 3d 52 42 cc 3c
       -0.06077084 -0.0515771 0.03491873 0.024933968
0000d0 47 25 09 be a3 9b 44 bd e5 66 f8 bc 14 93 b8 bd
       -0.13393126 -0.04799999 -0.030322501 -0.09012428
0000e0 d5 ac a9 bd 38 37 4b bd 42 4c b4 bc 38 2a 5a bd
       -0.08284918 -0.049613208 -0.022009019 -0.05326292
0000f0 45 57 cd 3c 27 2c b4 3c f1 78 44 3d 50 4c 05 3c
       0.025066027 0.02199371 0.0479669 0.00813587
000100 09 17 89 bb 96 7e 0e bc fc 10 09 bd 3b b8 56 3d
       -0.004183654 -0.008697173 -0.033463463 0.05242179
000110 eb 27 16 bd 03 19 97 bc de d1 a3 bd 44 2b b9 bd
       -0.036659162 -0.018444544 -0.07999013 -0.090414554
000120 49 fe 7a 3d 37 20 85 bd 64 dc 31 3c 0c 8d 29 3d
       0.06127766 -0.06500285 0.010855768 0.04139428
000130 1b 28 61 3c a8 15 d5 bd f2 04 14 3d 8d 4e 28 bd
       0.013742472 -0.10404521 0.03613753 -0.041090537
000140 05 bf af 3c 23 42 b3 3c f7 23 88 bd 31 02 ed bc
       0.02145339 0.021882122 -0.06647485 -0.028931709
000150 2d f0 ac bc 92 7d c2 3c f2 22 16 3c 4a c9 43 bd
       -0.021110618 0.023741517 0.009163605 -0.047799386
000160 c2 a3 01 be a8 b4 df bd b6 4e bb 3d 6e 94 5f bd
       -0.12660125 -0.10923129 0.09145872 -0.054584913
000170 ed 60 46 bd 46 60 2c bc 51 89 8b bd 78 48 b6 bd
       -0.04843228 -0.010521 -0.068133004 -0.08900541
000180 11 1b 06 3d 11 98 d7 bd a6 b7 0f 3d 5d 24 09 bd
       0.032740656 -0.10527051 0.03508725 -0.033481944
000190 79 78 82 bd 4c 39 49 bd 0c 9a 8e 3c fe 79 ff 3c
       -0.063706346 -0.04912691 0.01740744 0.0311861
0001a0 4b 2a 6d bd 01 42 b9 3a c4 bd 8d bd 8e 77 0d be
       -0.05790166 0.001413405 -0.069209605 -0.13815138
0001b0 9e 8d 04 3d d7 d6 cc 3b 78 e4 89 3c 0e 3a 31 3d
       0.03236162 0.006251197 0.016832575 0.043268256
0001c0 f4 be f5 bc 15 da ab bd ef 6d 0d 3d e1 bc 84 3c
       -0.02999828 -0.08391205 0.03452867 0.016203346
0001d0 5d 98 24 3c ec a0 eb bc 14 05 8e bd 14 9d 1f bd
       0.010046092 -0.028763257 -0.06934562 -0.03896816
0001e0 92 c5 a5 bd c8 91 cd 3b 86 c3 6c bd 72 bf 32 3d
       -0.08094324 0.006273482 -0.057803653 0.043639608
0001f0 e6 2f 74 bd ab 52 c2 bd fb f6 4f 3b 18 6c b4 bc
       -0.059615992 -0.09488424 0.0031732905 -0.0220242
000200 d2 53 1a 3d ac 8d 6b bc a5 48 0e 3c 65 cf 1f bd
       0.037677594 -0.014377039 0.008684312 -0.039016146
000210 19 53 c4 bc ac 78 8b 3c 27 a9 7d 3d 24 5a 43 bd
       -0.023965405 0.017025314 0.061928894 -0.047693387
000220 e0 3f 73 bc a9 22 57 3d a4 7e 2d 3c 38 0f 89 bc
       -0.014846772 0.05252329 0.0105892755 -0.01673089
000230 ad 29 4b 3c 19 17 14 3d 21 30 32 bd 50 72 a5 bd
       0.012400073 0.03615484 -0.04350293 -0.08078444
000240 b5 80 8b 3d ea 87 69 3c 8f 2c 40 3c 4e 23 36 3d
       0.06811658 0.014253596 0.011729374 0.044467263
000250 74 be 1c bd 13 27 ca bd fb 03 bb bb 00 e4 7f bd
       -0.038267568 -0.09870734 -0.0057072616 -0.062473297
000260 71 e2 64 3c e0 2b d4 bb 18 b2 1d bd 42 70 36 3b
       0.013970003 -0.006474957 -0.03849992 0.0027837907
000270 62 8b 75 3c 09 38 1d bd 47 17 48 bd e6 77 6b bc
       0.014986845 -0.038383517 -0.048850324 -0.014371848
000280 0e 24 98 bd 4a ee a5 bd 38 82 a6 bc d4 6a 8c bb
       -0.07428752 -0.08102091 -0.020325765 -0.004285196
000290 d5 91 2e bd 81 48 08 3d 3a 7a fe bc ec 32 e3 3c
       -0.042619545 0.03327227 -0.031064142 0.027734242
0002a0 17 88 42 3d 78 ff 91 bc ab 68 2a 3b 31 b8 43 3d
       0.047493067 -0.017822012 0.0026002328 0.04778308
0002b0 d9 ca 45 3d ed 02 4a bd 05 cb 1b 3c 2e d0 0e bd
       0.048289154 -0.049319196 0.009508853 -0.034866504
0002c0 c9 53 0f bd bc ac 68 3d 32 9c 4b 3d 08 5c b9 3b
       -0.034992013 0.056805357 0.049709506 0.005656723
0002d0 28 fd 14 3d e7 9d f6 bc 0a 8b d0 3b 78 bb 91 3c
       0.03637424 -0.03010459 0.006364231 0.017789587
0002e0 40 7f 00 bb 86 cb e0 3c 43 95 5c 3c 41 8d 41 3d
       -0.0019607097 0.027440798 0.013463321 0.04725385
0002f0 8f 5f 89 3c 6d 78 34 3d ad 0d 56 bd bc 54 12 bd
       0.016769199 0.04406016 -0.052259136 -0.03572534
000300 d7 af 0f bd 72 f0 27 bd 3f 1b 15 3d 02 9d 49 3d
       -0.035079803 -0.04100079 0.036402937 0.049222
000310 08 48 2a 3c a0 9e 00 3d 3c 06 a6 3c be 57 37 bd
       0.01039315 0.031401277 0.020266645 -0.04476141
000320 c0 37 b0 3c 27 53 1c 3d 7a e9 64 3d 9c fa 40 3c
       0.021510959 0.038165238 0.055886723 0.0117785
000330 79 7a 80 bc d9 dc 0f 3d ea c2 34 bd 19 88 a0 bc
       -0.0156834 0.035122726 -0.044131197 -0.019596146
000340 2b bd 92 bc e6 07 1e 3c 04 8a 07 3d 3d b0 c7 bc
       -0.017912468 0.009645438 0.033090606 -0.02437603
000350 52 e8 de bc 98 1f ee bb 8e 84 50 bd 43 1b 4e 3c
       -0.027210388 -0.00726695 -0.050907664 0.012579742
000360 e5 5c 34 bd a9 96 93 bd ce 3e 94 b9 bc 67 a6 bb
       -0.044033904 -0.072064705 -0.00028275553 -0.005078284
000370 ce 19 29 bd cb 38 32 bd c3 d5 2f 3c 29 53 04 ba
       -0.041284375 -0.043511193 0.010732117 -0.0005047792
000380 bd b8 81 bc ce 95 6d bd d8 eb 27 3d 52 6d ed 3b
       -0.01583516 -0.058004193 0.040996403 0.007245698
000390 89 a0 1d bd 66 ac 02 bd 48 bc e4 bc 79 6f 78 bd
       -0.038483176 -0.031902693 -0.02792181 -0.060653184
0003a0 77 b7 a4 bd 15 0f 32 bc 68 91 28 bd 93 e8 6f bd
       -0.08042806 -0.010867854 -0.041154295 -0.05857141
0003b0 12 ba db 3c 23 cb 38 bd ca bb 86 3c 73 71 c0 bc
       0.026822124 -0.0451156 0.016446967 -0.023491597
0003c0 53 b8 43 bd 25 b3 30 bc eb 61 cf 3c f0 27 40 3c
       -0.047783207 -0.010784899 0.025315246 0.011728272
0003d0 91 19 95 bb 57 79 bd 3c 0d 13 6f bb f2 ea d3 bc
       -0.004550167 0.023129148 -0.003647986 -0.025868867
0003e0 61 d6 4b bd 60 95 97 bd d0 9f 0c be 3a 75 e9 bc
       -0.049764995 -0.07401538 -0.13732839 -0.02849828
0003f0 55 ef 6b 3b f1 2c 30 bd 09 d7 5e bc 58 f4 df bc
       0.0036000807 -0.04301161 -0.013601073 -0.027338192

bias f4 [6]
000000 42 77 60 3c 9b 14 1f 3e 10 89 80 3d 1d 97 b4 bd
       0.013700308 0.15535204 0.062761426 -0.08817885
000010 3b 2e d9 3d 93 69 96 3d
       0.10604521 0.073443554

weight f4 [1, 6]
000000 9a 94 60 be 45 88 e4 bf 5b fd af bf 6d 0b f5 bd
       -0.21931687 -1.7854086 -1.3749193 -0.1196507
000010 cb 3a 3d c0 4e 23 a2 3f
       -2.9567134 1.2667024
