Data/Torch models/P2_20230827_R_channel11_fold0_best.pt (torch, 10967 bytes, 5 tensors)

weight f4 [18, 4]
0	0x3d82dcf8	0.06389803
1	0x3c411300	0.011784315
2	0xbe129a3c	-0.14316648
3	0xbe480664	-0.19533688
4	0xbe79a7d8	-0.24380434
5	0xbd1b2940	-0.037881136
6	0xbe9080ce	-0.2822327
7	0x3eda3ffa	0.42626935
8	0x3e72f865	0.23727567
9	0x3e5cb437	0.21553122
10	0x3f1649b9	0.5870624
11	0xbf4681af	-0.7754163
12	0xbe3400f0	-0.17578483
13	0xbe883ee2	-0.26610476
14	0xbea66694	-0.32500136
15	0xbe3ec784	-0.18630797
16	0x3c283880	0.010267377
17	0xbeab06de	-0.33403677
18	0xbe5e0998	-0.21683347
19	0x3eea9746	0.45818537
20	0x3d8c5200	0.06851578
21	0x3f377bf8	0.71673536
22	0xbfa7a4cf	-1.309717
23	0xbed471fc	-0.41493213
24	0xbfa01089	-1.2505046
25	0x3f913387	1.134385
26	0x3f81916b	1.0122503
27	0xbf3802f8	-0.7187953
28	0xbf2110b3	-0.62916106
29	0x3f95e56c	1.1710639
30	0xbf1eea8e	-0.6207665
31	0xbf4ad994	-0.7923825
32	0x3ea6b8a2	0.3256274
33	0x3f878178	1.0586386
34	0xbd112baa	-0.035442032
35	0x3fa5ed31	1.296301
36	0xbe9beded	-0.3045496
37	0xbef3fa71	-0.4765201
38	0x3f42dada	0.7611519
39	0x3fc2dd0b	1.5223707
40	0xbedb774c	-0.42864454
41	0x3ef1c426	0.47219962
42	0xbd1b9c20	-0.03799069
43	0xbd7d5260	-0.061846137
44	0x3e07a28c	0.132456
45	0x3fc0c6c1	1.5060655
46	0x3f87d5d2	1.0612128
47	0x3fe33be9	1.7752658
48	0x3f5d4a56	0.8644155
49	0x3ee68339	0.4502199
50	0xbf272c41	-0.653019
51	0x3f8b9464	1.090466
52	0x3fd47543	1.6598285
53	0x3fc2bd98	1.521411
54	0x3e7d47e2	0.24734452
55	0xbe03e72e	-0.12881157
56	0x3f8c0185	1.0937964
57	0x3f9c80c5	1.2226797
58	0xbf8363ac	-1.0264792
59	0xbf2227f3	-0.6334221
60	0xbf3132a5	-0.692179
61	0xbf10b59b	-0.5652711
62	0x3fc98ce5	1.5746123
63	0x3f9bf59b	1.2184328
64	0x3ead1fe9	0.33813408
65	0x3eb1e69d	0.34746256
66	0x3e61e9c4	0.22061831
67	0xbf6e42ba	-0.93070567
68	0x3e6fe53d	0.23427291
69	0x3fa70657	1.304881
70	0x3f7c3bc1	0.9852868
71	0xbc9c8e48	-0.019110814

bias f4 [18]
0	0xbed0c5e0	-0.40775967
1	0xbbea9d80	-0.0071598887
2	0xbefe78b9	-0.4970148
3	0xbee2f698	-0.4432876
4	0xbdf6be10	-0.1204797
5	0x3e8660ed	0.26245824
6	0x3fa01106	1.2505195
7	0x3f9119da	1.1336014
8	0xbf098fec	-0.5373523
9	0xbedfae36	-0.436876
10	0xbe2e46fc	-0.17019266
11	0xbdbdea7b	-0.09273239
12	0xbedd4742	-0.43218428
13	0x3d8ac36c	0.06775555
14	0xbef2caee	-0.47420448
15	0x3f52ea1d	0.8238848
16	0x3e202ed2	0.1564286
17	0xbf2c9114	-0.6740887

weight f4 [6, 324]
0	0xbd234c59	-0.039867733
1	0xbb284e00	-0.0025681257
2	0xbcce64e1	-0.025194587
3	0xbcc772ce	-0.024346735
4	0xbd3acef2	-0.045607515
5	0x3e1c00cd	0.1523468
6	0x3e969251	0.29408506
7	0x3ead7dc4	0.33885014
8	0xbe2589ed	-0.16165896
9	0xbe43b6a4	-0.1911264
10	0xbd4ec3fe	-0.05047988
11	0xbe168a3d	-0.14701171
12	0xbde61e46	-0.11236243
13	0x3e786dee	0.24260685
14	0x3e659e48	0.22423661
15	0xbd0374d0	-0.032093823
16	0x3e113fb3	0.14184456
17	0x3d3918cc	0.045189664
18	0x3d45da91	0.048304144
19	0x3c2caf24	0.010539804
20	0x3d6b5725	0.057456154
21	0x3d597607	0.053091075
22	0xbc9e4b1c	-0.019322924
23	0xbe488557	-0.19582115
24	0x3ec25945	0.37958732
25	0x3dbad078	0.091217935
26	0xbea9f8c5	-0.3319761
27	0xbe112aad	-0.14176436
28	0x3af2af20	0.0018515326
29	0xbe9bef16	-0.30455846
30	0xbecabf32	-0.39598995
31	0x3d9fa365	0.07794837
32	0xbe0163a0	-0.1263566
33	0x3d78954b	0.060689252
34	0x3e8a8b60	0.2705946
35	0x3df5b63e	0.119976506
36	0x3c27e0ec	0.010246497
37	0x3c8edba2	0.017438713
38	0xbced1bdc	-0.028943948
39	0xbd0043bc	-0.031314597
40	0x3d4bcbc1	0.04975486
41	0xbef042e5	-0.46926036
42	0x3d0362f7	0.032076802
43	0x3e622bc6	0.2208701
44	0x3d40c353	0.047061276
45	0xbe4844c8	-0.19557488
46	0xbd44625b	-0.04794536
47	0xbdaea3f9	-0.08527369
48	0xbb554ba7	-0.0032546313
49	0x3c608179	0.013702744
50	0xbca38281	-0.01995969
51	0xbe34d406	-0.17659006
52	0xbb87e463	-0.004147099
53	0xbcc4f91a	-0.024044562
54	0x3c27aa04	0.010233406
55	0xbc2e07ec	-0.010622006
56	0xbe61fd7b	-0.22069351
57	0x3b32df50	0.002729375
58	0xbb2eb4b0	-0.002665799
59	0xbdb1a0ae	-0.08673225
60	0x3ea05e82	0.31322104
61	0x3f0fd678	0.5618663
62	0xbe12d307	-0.14338313
63	0xbf08851e	-0.5332812
64	0x3ccde69e	0.02513438
65	0xbeabdf49	-0.3356879
66	0xbdea9281	-0.11453725
67	0x3d18cdb6	0.037305556
68	0x3e898c72	0.26864964
69	0xbe20d215	-0.1570514
70	0x3dd5fe0c	0.10448846
71	0xbddedfae	-0.10882507
72	0x3d31779b	0.043326955
73	0xbd421cf7	-0.047390904
74	0x3c5e833f	0.013581096
75	0x3b825f80	0.0039786696
76	0x3d2b3a0d	0.04180341
77	0x3e39463f	0.18093203
78	0x3aa498ce	0.0012557746
79	0xbbb9928a	-0.005663221
80	0xbe575e3d	-0.21032043
81	0x3eb5410a	0.35401183
82	0xbd467d89	-0.048459563
83	0xbe35d422	-0.17756703
84	0xbe48ed18	-0.19621694
85	0xbd76a5a8	-0.060216576
86	0xbe371693	-0.17879705
87	0x3e9b75ef	0.30363414
88	0x3bb75f0a	0.0055960463
89	0xbe8a8da4	-0.27061188
90	0x3cb2923e	0.02179825
91	0x3c35d234	0.01109748
92	0x3dd9cae6	0.10634403
93	0x3ce7a646	0.028277528
94	0xbc96262a	-0.018328745
95	0xbdf30076	-0.11865322
96	0xbcce1759	-0.025157617
97	0x3df77ff5	0.12084953
98	0xbe54ac66	-0.2076889
99	0x3d223570	0.039601743
100	0x3d39f5e1	0.045400504
101	0xbeb2a091	-0.34888127
102	0xbd94d634	-0.072674185
103	0xbaa7adba	-0.0012792863
104	0x3d9baea3	0.07601669
105	0xbd91806e	-0.07104574
106	0x3e2e038f	0.16993545
107	0xbe2c815d	-0.16846223
108	0x39fef380	0.00048628077
109	0xbc89bece	-0.016814616
110	0xbcac193c	-0.021008126
111	0xbd215f70	-0.039397657
112	0x3d5c239d	0.0537449
113	0xbe353d14	-0.1769908
114	0xbd439c5e	-0.047756545
115	0x3e3a1c9c	0.18174976
116	0xbe6a5803	-0.22885136
117	0xbecf2f2c	-0.40465677
118	0x3c28fb54	0.010313828
119	0x3e1a5e34	0.15074998
120	0x3d84e06f	0.0648812
121	0x3e45f9e9	0.19333614
122	0x3e0b8708	0.13625729
123	0x3d08707b	0.033310395
124	0xbdac8a3c	-0.084248036
125	0xbecfd6b0	-0.4059348
126	0xba301640	-0.00067171827
127	0x3d5f4273	0.05450673
128	0xbcedd737	-0.029033286
129	0x3c4a516c	0.012348514
130	0x3d0ee9e1	0.034891013
131	0xbe0d8c59	-0.1382307
132	0xbeaba72b	-0.33525977
133	0xbe6f5674	-0.23372823
134	0xbdaa9b1e	-0.083303675
135	0x3d520c65	0.05128135
136	0x3d2b1343	0.041766416
137	0xbe9caeaa	-0.30602008
138	0x3c680073	0.014160263
139	0xbda6d110	-0.08145344
140	0xbe399053	-0.18121462
141	0x3d9f8dda	0.07790728
142	0x3c55d92d	0.013052267
143	0xbe80ec8d	-0.25180474
144	0xbbe243a8	-0.006905038
145	0xbca049d6	-0.019566458
146	0xbe203320	-0.15644503
147	0xbca42e78	-0.02004169
148	0xbcfb65ce	-0.030688193
149	0xbd9b8d84	-0.07595351
150	0xbe20afe2	-0.15692094
151	0x3d7f103f	0.062271353
152	0x3d91cde5	0.071193494
153	0x3de28b4b	0.11061724
154	0x39528000	0.00020074844
155	0x3d676919	0.056496713
156	0x3dccfdda	0.10009356
157	0x397cad13	0.00024097068
158	0x3a895db8	0.0010480201
159	0x3e01a9e6	0.12662467
160	0xbde0bc60	-0.1097343
161	0xbe603850	-0.21896482
162	0xbba98cd8	-0.0051742606
163	0xbccb2660	-0.024798572
164	0x3e8bcbbf	0.27303883
165	0xbd457550	-0.04820758
166	0x3d151121	0.03639329
167	0x3dc85450	0.09781706
168	0x3e82fdd4	0.2558428
169	0x3eb441da	0.3520649
170	0xbecc53ba	-0.39907628
171	0xbe99727f	-0.29970166
172	0xbc4e532c	-0.012593072
173	0xbedd8ed5	-0.43273035
174	0xbe4ec3f6	-0.2019194
175	0x3e91fb7f	0.2851219
176	0x3e810e20	0.2520609
177	0xbca8796d	-0.020565713
178	0x3e90d35d	0.28286257
179	0xbcd6a1f2	-0.026200268
180	0x3d340b1b	0.043955904
181	0x3c981c8a	0.018568296
182	0xbd38a467	-0.04507866
183	0x3cf35732	0.029704664
184	0xbd2986dc	-0.041388378
185	0x3dea7818	0.11448687
186	0x3e525e75	0.20543845
187	0x3e0213c8	0.12702858
188	0xbdf23b04	-0.118276626
189	0x3e54aea6	0.20769748
190	0x3d3576ad	0.04430263
191	0xbdb4bf1b	-0.08825513
192	0xbd7868d5	-0.06064685
193	0xbe0306f3	-0.1279562
194	0xbe292a46	-0.16520032
195	0x3dc58905	0.09645275
196	0xbcaf5234	-0.021401502
197	0xbdea05ef	-0.11426913
198	0x3c0f845c	0.008759584
199	0xbb8aeb00	-0.00423944
200	0xbdfdfde7	-0.12401944
201	0xbd011f80	-0.03152418
202	0x3d3eafbf	0.046554323
203	0xbdc53eb9	-0.09631104
204	0xbd476a53	-0.048685383
205	0xbdaa2c5c	-0.08309242
206	0x3e2dc787	0.16970645
207	0x3e6f76a8	0.23385108
208	0xbd0a246c	-0.03372614
209	0x3c9897b7	0.01862703
210	0xbb8105c1	-0.0039374535
211	0xbf1350f6	-0.5754541
212	0xbf02c1fb	-0.5107724
213	0x3f0d26cb	0.5513732
214	0xbe99080f	-0.2988896
215	0xbe266063	-0.16247706
216	0x3cc366de	0.023852762
217	0xbd48083b	-0.048835974
218	0x3dbc1764	0.09184149
219	0xbc0cb9b8	-0.008589201
220	0xbc38b1c8	-0.011272855
221	0x3e999333	0.29995117
222	0x3e14824f	0.14502834
223	0x3e7bb192	0.24579456
224	0x3dc41af0	0.095754504
225	0x3ebbb63c	0.3666247
226	0xbcc0d52a	-0.023539145
227	0x3e547285	0.2074681
228	0xbe517949	-0.20456423
229	0x3e7a6c50	0.2445538
230	0xbe8e3a24	-0.27778733
231	0x3e166fb8	0.14691055
232	0xbd61c208	-0.055116683
233	0xbe31ddc3	-0.17369752
234	0xbb503970	-0.0031772517
235	0x3c86c3ee	0.016450848
236	0x3cc582f6	0.024110299
237	0x3d10a6cf	0.03531533
238	0x3c93a8aa	0.018024761
239	0x3dee312f	0.11630475
240	0x3e2a8741	0.16653158
241	0x3e6c2180	0.23059654
242	0x3cb150ef	0.021645037
243	0x3e945364	0.28969872
244	0x3d29b461	0.04143179
245	0x3e1a911d	0.15094419
246	0x3e20a205	0.15686806
247	0x3eb77d4e	0.35837787
248	0x3ed96870	0.42462492
249	0x3d8fa965	0.07014731
250	0x3e06cac4	0.13163286
251	0x3e333e50	0.17504239
252	0x3b4b11c0	0.0030985922
253	0x3d44fc15	0.048091967
254	0xbd12774d	-0.035758305
255	0xbd508b67	-0.050914194

bias f4 [6]
0	0x3e97bdf1	0.296371
1	0x3e4364b6	0.19081387
2	0xb91655f8	-0.0001433714
3	0x3c29920e	0.010349764
4	0xbd6078bf	-0.054802652
5	0x3e34b2ff	0.17646407

weight f4 [1, 6]
0	0xc03a69c4	-2.9127054
1	0xc03e865e	-2.9769511
2	0xbf006f33	-0.50169677
3	0x4024d42f	2.5754507
4	0x40270811	2.6098673
5	0xc035e553	-2.8421218
