Data/Torch models/P2_20230827_R_channel11_fold1_best.pt (torch, 10967 bytes, 5 tensors)

weight f4 [18, 4]
000000 19 ba f5 3e 11 4f 24 3e fa 92 0c 3f 66 74 1d 3f
       0.47993544 0.16045786 0.5491177 0.61505735
000010 76 f8 ff be d0 74 68 3d f6 54 8b be 68 ef df 3e
       -0.49994248 0.056752026 -0.27213258 0.4373734
000020 65 f7 3c 3f f5 3a 9f be 2a bb 19 bf 3f bf c8 3c
       0.73814994 -0.31099668 -0.60051215 0.024505256
000030 e3 db cf be 3a 25 1c 3f 22 11 95 be fc 46 e0 ba
       -0.40597448 0.60994303 -0.29114634 -0.0017110999
000040 ee 46 91 3f 97 3f 04 3f 75 84 df 3d 9c 40 87 3e
       1.1349771 0.5165953 0.10913936 0.2641648
000050 90 86 e5 3d ac 49 8b 3e c0 e5 f0 bd 90 c5 97 bd
       0.112073064 0.27204645 -0.11762571 -0.07410729
000060 60 3c d1 3c 0e 76 ba bd bb 07 21 bf 7c 47 b4 3e
       0.025541484 -0.091045484 -0.6290242 0.35210788
000070 f0 ee de be ac 74 ff be 5c 4f c9 be 60 30 72 3e
       -0.4354167 -0.498937 -0.3931836 0.23651266
000080 11 60 1a 3f f3 1f 55 3f 60 1c 5d bf ac 07 b6 3e
       0.60302836 0.83251876 -0.8637142 0.35552728
000090 c8 0a 07 3f d7 b4 88 be d0 ba 02 3f 85 79 86 3f
       0.52750826 -0.2670047 0.51066303 1.0505835
0000a0 90 ab d5 bd c6 e5 28 be ca 08 8d 3e 0a b0 ac 3f
       -0.104331136 -0.16493902 0.27545768 1.3491223
0000b0 39 1e 26 bc 3c e9 8d 3f 65 bb 12 3e 56 b7 f7 bd
       -0.010139042 1.1086802 0.14329298 -0.120955154
0000c0 03 7d 9a bf fc 67 34 3e 7e ed a1 3e 91 7a 89 3f
       -1.20694 0.17617792 0.31626505 1.0740529
0000d0 2c 94 71 be 2a 65 d1 be f0 c0 ed be 24 7f 23 3e
       -0.2359168 -0.40897495 -0.46436262 0.15966469
0000e0 30 38 64 bd 84 ce 95 be 60 7f ab 3e 16 32 d4 be
       -0.055717647 -0.2925912 0.33495617 -0.41444463
0000f0 3c 79 23 be b0 99 15 be e2 e7 86 be 80 99 c1 3d
       -0.15964216 -0.14609408 -0.26348788 0.09453106
000100 ba 0e f5 3e 4d 97 ae 3f 22 ff 23 3f 66 9d 94 3f
       0.47862798 1.3639923 0.64061177 1.1610534
000110 c2 db f2 3d 1b ad d0 be 3c 5a 43 3f 32 77 d0 3e
       0.11858322 -0.4075707 0.7630956 0.4071594

bias f4 [18]
000000 ec 08 9d be 00 1b 09 be c9 38 de 3d ef 8c 23 3f
       -0.3067087 -0.13389206 0.10850675 0.6388692
000010 e0 4a 88 38 18 bc cf be fc c3 1f 3f 60 b4 cf bc
       6.498932e-05 -0.40573192 0.62408423 -0.025354564
000020 d4 41 36 38 c7 98 e5 bd 12 fa ad be 4a 74 26 3c
       4.345349e-05 -0.112107806 -0.3397985 0.010159561
000030 46 f3 8c 3f 90 d6 f3 bd e0 1b da bd f4 8a d1 be
       1.1011741 -0.11906159 -0.10649848 -0.40926325
000040 aa 98 12 bf 53 f0 17 3f
       -0.57264197 0.5935108

weight f4 [6, 324]
000000 31 b5 88 3d a3 cd 38 3d e5 9c 3e be 12 d9 af 3d
       0.066751845 0.045117985 -0.18614538 0.08586325
000010 55 7d 83 3d 00 d6 fc b8 c3 4e d6 bd c0 69 36 bd
       0.064203896 -0.00012056157 -0.10464241 -0.044534445
000020 f4 b6 32 be 07 53 43 3d 6b 40 c6 bd f3 9a 46 3e
       -0.17452604 0.047686603 -0.096802555 0.19395046
000030 5c a7 97 3d 43 01 2d 3d b2 eb 9f 3c be 59 30 bd
       0.07404968 0.04223753 0.019521568 -0.043054335
000040 8e a3 91 3e 15 ef 2f 3e ce 90 3e 3e b2 38 58 bd
       0.28445095 0.17181046 0.18609926 -0.052788444
000050 e7 c8 47 be f6 f7 1d 3c d0 8e e1 bd b2 53 42 bd
       -0.19510232 0.009641638 -0.110135674 -0.0474431
000060 9d db e7 bd 24 75 93 bc 01 14 9b be 25 2c 07 3e
       -0.11321185 -0.018000193 -0.302887 0.13200434
000070 03 4c d3 3c cc ea 23 3d d0 15 a1 3e 82 22 2f bd
       0.025793081 0.04001884 0.31461954 -0.04275752
000080 90 61 29 3b ff 56 41 3d 5c 3f 14 3e 93 ce a9 3e
       0.0025845505 0.047202107 0.14477295 0.33165416
000090 7f b5 1f 3d 03 1d 08 3d b6 f4 82 bb 33 1d 0e 3c
       0.038991448 0.033230793 -0.003996457 0.008673954
0000a0 2a fd 0c 3e fd 08 fc bc de 00 d1 3d 60 e5 4f bd
       0.1376845 -0.030766005 0.102052435 -0.05075586
0000b0 8e 86 39 3d 55 b7 00 3d 51 1f 21 bd 9c 1a 8a 3c
       0.045294337 0.03142484 -0.039336506 0.016858391
0000c0 5e 1e 50 bc e0 08 f0 3a 67 56 e6 bc 38 39 81 3b
       -0.012702553 0.0018313192 -0.028117372 0.0039435886
0000d0 5a 39 29 bd eb df af 3d 5b 16 e5 bd b5 f2 60 bd
       -0.04131446 0.08587631 -0.111859046 -0.054918963
0000e0 bd ef 0b 3d e9 c7 4d bd 62 24 de 3c d8 61 ac bb
       0.03416418 -0.050239477 0.027116958 -0.0052606873
0000f0 9f 5a ad bc 7a b3 ca 3c 37 0b 2f bd 1e cb 0c be
       -0.021161376 0.024743784 -0.042735305 -0.13749358
000100 20 5a c9 be 68 9a f0 bc 91 10 97 be 31 a0 52 3d
       -0.39326572 -0.029370502 -0.29504827 0.0514223
000110 4d 6a 5e bd 39 48 3a 3d cf a1 ab be 9a 80 30 3b
       -0.054300595 0.045479033 -0.33521888 0.0026932121
000120 3d 87 ff bc 90 68 23 bb b3 56 d8 3b 58 d5 15 bd
       -0.031192416 -0.002493415 0.006602132 -0.036580414
000130 2b b8 41 be 60 78 f6 bb a3 c2 d3 bc f9 94 ea bc
       -0.18917911 -0.007521674 -0.025849646 -0.028635489
000140 c3 10 ac be 28 b0 f7 3d c6 ba eb 3d df 61 6c be
       -0.33606538 0.12094146 0.115102336 -0.2308421
000150 37 ff 75 3e e6 b4 dd 3c 9a 2a e4 3c 00 04 5c bb
       0.24023138 0.027063798 0.027852345 -0.003357172
000160 7c a1 a4 be 40 54 84 3e 01 a2 21 bc 00 7c 86 3b
       -0.32154453 0.25845528 -0.009865285 0.0041041374
000170 c4 05 38 3e 0b ac 4a bb 18 e2 00 be b1 64 31 3d
       0.1797095 -0.00309253 -0.12586248 0.043308917
000180 03 1e 18 3e c8 ec 7f bc f3 7b 2f be f7 69 28 3d
       0.14855199 -0.015620418 -0.17137127 0.04111668
000190 29 cb 50 3d 76 c5 6e be 0b 18 d1 3c 7e 29 b8 3c
       0.050975 -0.23317513 0.02552416 0.022480723
0001a0 94 ad 6e bc c1 d8 5e 3d f1 82 c9 be 5c e7 55 3e
       -0.014567751 0.05440593 -0.39357713 0.20889038
0001b0 6f e5 04 3e 6f df 50 3d 68 76 8d bd f3 a4 e2 3c
       0.12978147 0.050994333 -0.0690735 0.027666545
0001c0 70 fc 95 3e 8d 35 11 3d 14 e1 a3 bd 9c 51 69 bc
       0.29294157 0.03545146 -0.080019146 -0.014240649
0001d0 54 31 25 3c a5 c1 41 3e fc 41 20 be 77 3e f4 3d
       0.0100825615 0.18921526 -0.15650171 0.11925977
0001e0 92 55 09 bd f2 b6 2b bd 02 48 b5 3c ab ab 4a bd
       -0.03352887 -0.041922517 0.022129063 -0.04948012
0001f0 d8 74 83 3e 24 36 58 3e ce 0d 4b bd 26 87 98 3c
       0.25675082 0.21114403 -0.049573712 0.018619131
000200 5f 40 93 3d d3 51 e1 3d 60 2b 18 3d 1c d4 24 3c
       0.07190012 0.11001935 0.03715074 0.010060336
000210 a0 bb 26 3e f0 d6 a5 3b 21 84 a0 bc 22 b2 40 bd
       0.16282511 0.005061023 -0.019594254 -0.04704488
000220 85 03 0d 3d 00 31 da bd 96 90 c6 3d 02 60 e3 3c
       0.034427185 -0.10653877 0.09695546 0.027755741
000230 4a b8 dc 3c 59 53 d9 bc c9 e5 82 bd b1 3e ef 3d
       0.026943345 -0.026529001 -0.06391484 0.11681879
000240 9c 32 19 bd 77 f7 42 3d 13 c2 e8 3c 86 3a 57 3d
       -0.03740178 0.047599282 0.028412854 0.052546047
000250 36 93 4b be 50 40 05 bb 3a 6a 2d 3e f6 92 98 bc
       -0.19880375 -0.0020332523 0.16935053 -0.018624764
000260 15 20 2f be a7 7c 2e 3d d2 ad 0c 3e 28 90 88 be
       -0.17102082 0.042599346 0.13738182 -0.26672482
000270 88 d0 cc 3e e7 12 3b 3d d8 fd b6 3b bc b4 40 3c
       0.40002847 0.045672324 0.0055844598 0.01176184
000280 f2 e3 94 be b5 6d 6b 3e 15 e8 6f 3b ce a9 d2 bc
       -0.29080158 0.22991069 0.0036606838 -0.025715735
000290 11 19 22 3e 49 2c 3f 3d 57 6e 11 bc fe 00 b2 3c
       0.15829875 0.046673093 -0.008876405 0.021728989
0002a0 63 1a 64 3e 5d f6 3b 3d d5 27 2b bd 45 29 aa 3d
       0.2227569 0.045889247 -0.041786034 0.08308653
0002b0 04 ea b5 3d 82 2e 16 be 6b 13 56 3d 20 cb ee bc
       0.088825256 -0.14666179 0.052264612 -0.029149592
0002c0 26 9b 8c 3c 2c f3 34 bd c4 ca a9 bd 99 9a 16 3e
       0.017163824 -0.04417722 -0.082906276 0.14707412
0002d0 f4 3b f0 3d 7f ec 49 3d b3 12 31 be 8f 93 7e 3d
       0.11730185 0.049297806 -0.1729229 0.06215244
0002e0 13 7f ac bd 84 a8 76 3c 89 9a 17 bd 77 3d 1f bd
       -0.08422675 0.015054826 -0.03701261 -0.038876977
0002f0 10 81 3f bd cf 6a ee 3d 85 cd e1 3d e5 45 21 3d
       -0.046753943 0.11641466 0.11025528 0.039373297
000300 3e cc bb 3e 20 10 cd bb f2 49 a3 3c fc 9b 4c 3c
       0.36679262 -0.0062580258 0.01993272 0.012488361
000310 13 70 8f 3e 0a 80 58 3e 53 6d 71 3d 7a 2d ae 3c
       0.28015193 0.21142593 0.05894215 0.02126192
000320 e8 12 a4 3d 5c 9c 9d 3d c2 52 d6 bd b8 e0 ab bb
       0.080114186 0.07695839 -0.104650036 -0.0052452944
000330 40 85 8d 3e b0 7a 21 bc 8e 57 3a bc 2f 36 47 3e
       0.27640724 -0.009855911 -0.011373414 0.19454263
000340 9e 4a d1 3e 87 e3 10 be 39 71 05 3f 47 bc 5a bd
       0.4087724 -0.14149295 0.5212589 -0.05340221
000350 fe 2d 0f bd 88 1d a2 bc 2d de 07 3e 93 3f 3b 3e
       -0.03495597 -0.019789472 0.13268347 0.1828597
000360 58 5d 61 be 37 61 63 3d cc 19 41 3c 6b 2b 50 3e
       -0.22008264 0.055512633 0.011785936 0.20329063
000370 69 ba 24 be 88 fa 87 bc 24 d0 8d 3d 48 7c c1 bb
       -0.16086735 -0.016598955 0.06924465 -0.005904708
000380 d3 42 00 3c 34 41 64 be ec 55 9e bd a2 78 33 3d
       0.007828432 -0.22290498 -0.07731232 0.043816216
000390 b6 0b 87 3d 62 47 17 bd af 59 14 3d 8c e8 15 3c
       0.065940306 -0.03693331 0.03621834 0.009149682
0003a0 e3 fe 8c be af 1a b0 bd 98 5a 94 bd 70 37 e3 3b
       -0.27538213 -0.085988395 -0.07243842 0.006934099
0003b0 66 df be ba c3 2b 5a 3e a7 fb 29 bd f1 fe 40 3d
       -0.0014562428 0.21305756 -0.04149976 0.04711813
0003c0 36 85 1f 3e d1 f2 54 3d cf d6 00 3e 10 85 70 be
       0.1557816 0.05198938 0.12581943 -0.2348826
0003d0 de d4 31 3d 19 b6 83 3d bf d9 e2 3d 2d c5 05 3d
       0.043415897 0.06431217 0.11076688 0.032658745
0003e0 63 bb 54 3d 6e 15 4f bd a0 45 81 bd 73 62 de bd
       0.05193652 -0.050557546 -0.06312108 -0.108586214
0003f0 51 52 8c bc aa 7a 94 bc ce 32 28 be e4 42 20 3e
       -0.017129095 -0.018124897 -0.1642563 0.15650517

bias f4 [6]
000000 9a a9 78 3e 9c e8 37 3e 8f aa 14 3d 14 f0 71 3c
       0.24283448 0.17959827 0.03629547 0.014766712
000010 8c a2 a2 3e 75 98 3a bd
       0.31764638 -0.04555555

weight f4 [1, 6]
000000 e1 ae 06 c0 d1 a9 15 c0 0c bb 61 bf c0 ad 7e 3f
       -2.1044238 -2.3384898 -0.88176036 0.9948387
000010 34 5f fb bf 14 ae bd 3f
       -1.9638429 1.481875
