Data/Torch models/P2_20240716_L_channel2_fold1_best.pt (torch, 10967 bytes, 5 tensors)

weight f4 [18, 4]
000000 53 23 04 be 42 b9 d6 3e 84 fc 50 3f 4b 39 d1 be
       -0.129041 0.41938215 0.8163531 -0.40864024
000010 a6 be 8f be 0c b4 dc 3e f6 84 bf be d4 87 2f be
       -0.2807514 0.43106115 -0.3740613 -0.17141658
000020 80 c8 0e bc 30 29 fa bd fc 5b 62 3e 30 95 99 bd
       -0.008714795 -0.12214887 0.22105402 -0.074991584
000030 e2 ba af 3c 89 75 35 3f 24 d5 38 bf fa 60 3e bf
       0.021451417 0.7088247 -0.72200227 -0.74366724
000040 73 1e c1 3f 83 10 29 be 4b ae c5 be 86 64 9b be
       1.5087417 -0.16510205 -0.38609537 -0.3035013
000050 a8 76 c5 3f 37 72 c7 3f 93 1f 95 bf 34 72 ca 3e
       1.5426836 1.5581731 -1.1650261 0.39540255
000060 01 8a 81 3e 95 c5 14 3f 28 45 0e bc 07 69 fb 3f
       0.253006 0.58113986 -0.00868348 1.9641427
000070 70 f8 01 3d 3c 47 fe be d2 57 8b be e8 06 b6 3d
       0.03173107 -0.49663723 -0.2721544 0.08888036
000080 63 ac c0 bf c5 92 ab 3d 30 87 7f be ae 0a 3e 3e
       -1.5052608 0.083776034 -0.24953914 0.18558761
000090 7a c1 94 be c4 17 e3 be 00 b2 0d 3c 26 c2 b0 3e
       -0.2905386 -0.4435407 0.008648396 0.34523124
0000a0 e7 80 15 bf b8 15 c4 be 42 f8 8b 3e 52 40 91 be
       -0.58399814 -0.3829782 0.27337843 -0.28369385
0000b0 cb c4 73 bf f7 20 26 3e 44 44 1f 3e 0a 54 59 3f
       -0.9522216 0.16223513 0.15553385 0.8489386
0000c0 0f cb 03 3f 3b 16 73 bf 95 8a 50 be 06 32 27 3c
       0.5148172 -0.94955796 -0.20365365 0.010204798
0000d0 51 62 bc 3f 3e 44 5b 3f e0 0b 8d 3f 28 0b 29 3f
       1.4717504 0.85651004 1.1019249 0.6603265
0000e0 9d 9e 93 be 1d ac da 3f 98 be b4 3f 95 ac 5b 3f
       -0.2883195 1.7083775 1.4120665 0.85810214
0000f0 40 9f 71 3d f2 47 f7 be 94 df 3e be 30 ef d2 3e
       0.058989763 -0.48297077 -0.18639976 0.4119811
000100 6d d0 6b bf 71 9f 61 3f 3a 5a d1 3d 7c 0c 57 bf
       -0.9211491 0.88133913 0.102222875 -0.84003425
000110 c2 e5 b8 3e a8 2b a6 be 1c d9 dc be a4 c5 ae be
       0.3611279 -0.32455182 -0.4313439 -0.34135163

bias f4 [18]
000000 a7 b4 f8 be b6 4e f2 be 80 0f 53 be 75 47 3c 3f
       -0.48575327 -0.47325677 -0.20611382 0.73546535
000010 a8 e0 ef 3c da 35 b9 3c 27 82 08 3f 30 33 7a bd
       0.02928193 0.022608686 0.53323597 -0.061083972
000020 99 9a bf 3f d4 a1 59 be ba 34 7a 3f 99 d9 6f 3f
       1.4969054 -0.21253139 0.97736704 0.936914
000030 fa 6f 23 3f 6b f9 2c 3e 1f 60 46 3e 34 b5 76 be
       0.6384274 0.1689202 0.19372605 -0.24092561
000040 1b d1 6b 3f 9a e6 b8 be
       0.92115945 -0.36113435

weight f4 [6, 324]
000000 3b fd 50 bd c9 95 2f bd b2 59 ca bc 97 13 80 bc
       -0.05102275 -0.042867456 -0.024700973 -0.015634341
000010 a9 c2 fa bb 89 cb ca bd 6b a9 8d 3d c0 88 99 bc
       -0.0076526 -0.099021025 0.069170795 -0.018741965
000020 ad 07 d6 3d 90 b5 13 3b 52 b2 ce 3d 06 38 b2 3d
       0.10450683 0.002253864 0.10092606 0.08702092
000030 72 8f c6 3d 44 63 bb bd d2 28 23 be 92 ab b2 3c
       0.09695329 -0.09149793 -0.1593354 0.021810327
000040 74 d4 4b bd 81 d9 8b 3b 15 52 08 3d de cb d2 3c
       -0.049763158 0.004267872 0.033281405 0.025731977
000050 05 a0 5e 3d 0a 84 af bd 00 af ab bd e3 b7 fe bd
       0.054351825 -0.08570106 -0.08382988 -0.12437417
000060 91 34 f1 3d 64 a9 31 bc d5 da a4 3d e5 ce 1e 3d
       0.11777604 -0.0108436085 0.080495514 0.03877153
000070 20 32 38 3c fa 26 a6 3d 7a 30 40 bd 4b 9f bf 3d
       0.0112424195 0.08112903 -0.04692123 0.093565546
000080 01 c7 1c 3e 02 ee b1 3c 72 b9 a0 bd de 5c 25 3d
       0.15310289 0.021719936 -0.07847871 0.04037177
000090 66 ad ad bd d1 58 49 3d 7c 60 00 3c 52 d7 5c bd
       -0.08480339 0.049156968 0.007835504 -0.053916283
0000a0 a1 8a 33 bd 3a b7 21 3e bf 0e 9d 3e 00 14 20 3a
       -0.04383338 0.15792552 0.30675313 0.0006106496
0000b0 69 20 87 3d 0c 57 39 3c 42 06 08 bb 99 bc 11 3e
       0.065979786 0.0113122575 -0.0020755683 0.142321
0000c0 b5 88 5e bc f7 54 4f 3e ad b9 8d 3e f0 2e b8 3b
       -0.013582398 0.20247255 0.27680722 0.0056208298
0000d0 c7 e9 8e 3b b9 15 02 bd f3 ad 4b 3d c0 69 1c 3b
       0.0043613645 -0.031758998 0.049726438 0.0023866743
0000e0 3c b8 54 3c 17 78 bb 3d c7 1a f0 3c 60 cc 05 3e
       0.012983378 0.09153765 0.029309643 0.13066244
0000f0 61 94 9c 3c 12 00 a4 3c 50 eb cf bc 11 37 49 3d
       0.019113721 0.020019565 -0.02538076 0.04912478
000100 69 52 02 bd c5 94 19 bd 8b 81 62 bd b4 11 29 3e
       -0.031816874 -0.037495393 -0.055299323 0.1651066
000110 99 3c 31 3e 4e f4 ab bc 61 e5 0e 3d 34 30 cf bc
       0.17308272 -0.020990517 0.03488672 -0.02529154
000120 2b c9 63 3d c0 bb 8f 3a 7c 32 4f 3c 85 7e 54 3d
       0.05561177 0.0010965988 0.012646314 0.05187847
000130 2e 77 6b bd e6 6f c0 3e a3 82 93 3e e7 8e 09 3d
       -0.057486705 0.37585372 0.28810605 0.033583548
000140 1c fa b6 bd f0 cf f5 bb 51 e0 29 bd 62 70 42 3d
       -0.08934423 -0.0075015947 -0.04147369 0.047470458
000150 9e 9d 68 be 85 7d e3 3e c0 e9 25 3f c0 75 ec bc
       -0.22716376 0.444317 0.648098 -0.028864741
000160 ab 22 e9 3d d2 b4 a9 bc ad 7d ec bb 9e dd ff 3c
       0.113835655 -0.020716105 -0.00721713 0.031233605
000170 08 f4 2e bc 55 e9 87 3e 73 01 bf 3d 84 36 d3 3d
       -0.010678299 0.26545206 0.09326448 0.103131324
000180 19 7f 90 be 88 06 b1 bc ba 48 ea 3b 0d 8f 50 3d
       -0.28221968 -0.02160956 0.007149783 0.050917674
000190 61 e0 bb 3d db 80 f8 bd eb cf 9d ba 8a 11 b5 bd
       0.09173656 -0.12133952 -0.0012040114 -0.08841236
0001a0 db 6a 4c be 62 fd 96 3c 16 7c 43 3e e9 50 6e bc
       -0.19962637 0.01843137 0.19090304 -0.014545658
0001b0 ae a7 e2 bc b2 fb cb bc 90 af 9d 3b b7 c4 17 bd
       -0.027667847 -0.024900291 0.0048121884 -0.037052836
0001c0 41 5c c6 3b b5 d2 81 bc 6f 01 11 3e 3d 8e 5d 3d
       0.006053478 -0.015847543 0.14160703 0.054090727
0001d0 36 dd c4 3c 2c bc 73 3c e6 64 5a 3d ea 2b d5 3c
       0.024031263 0.014876407 0.05331888 0.026021916
0001e0 a4 8a a9 ba db 26 10 3c b1 08 04 3b 40 45 17 ba
       -0.0012934995 0.008798326 0.0020146782 -0.0005770512
0001f0 6b b9 e1 bc 4e b1 3c bd 99 24 a7 bc 87 4c d9 bc
       -0.027554234 -0.04606753 -0.020403193 -0.026525749
000200 00 1e 30 b9 be 73 97 3d 63 c5 16 3e 08 eb 23 bd
       -0.00016795844 0.07395123 0.14723735 -0.040019065
000210 72 07 16 be 5b ba 59 bd 9b 36 a1 bc 99 a2 0e bd
       -0.14651278 -0.053156238 -0.019679358 -0.034823034
000220 d5 b2 df 3d 2b cf c1 bd 05 32 fd 3d 12 d7 34 be
       0.109227814 -0.09463342 0.12363056 -0.17660168
000230 d9 1c 80 be b4 15 38 3c 98 a5 c7 bb 87 43 54 bd
       -0.2502201 0.011235643 -0.0060927384 -0.05182221
000240 42 c1 46 3c c5 4f 44 bd e0 17 fe bc 17 97 c9 3d
       0.012131037 -0.047927637 -0.031017244 0.09843271
000250 16 b0 5e bc c0 8a a3 bd df bc b3 bd 90 14 8d 3b
       -0.013591787 -0.07985449 -0.08776259 0.0043054298
000260 88 87 c7 3d 56 d3 35 bd b5 52 d6 3d 33 c2 83 bd
       0.097426474 -0.044391 0.10464994 -0.06433525
000270 f5 4d d6 3d 4c 11 f9 bd 25 c5 e4 bd d2 ce d6 bc
       0.10464088 -0.12161502 -0.11170415 -0.026221666
000280 92 7a ee 3d 2d 0e 69 3c 75 41 77 3d 51 0b 2b 3d
       0.11644472 0.014224571 0.06036516 0.04175884
000290 f2 0c ab bc 9f 22 a0 bc ef da 07 3e 56 6c 7f bc
       -0.020880196 -0.019547759 0.1326711 -0.015589794
0002a0 08 c0 02 3d 47 81 e3 bc 6a 36 8d bd f9 97 28 bd
       0.031921417 -0.027771605 -0.06895144 -0.041160557
0002b0 b0 c4 db bb 9f cc 1d bd ac 5f bc 3d 2b c7 28 bc
       -0.0067067966 -0.03852522 0.091979355 -0.010301392
0002c0 cf f7 3f be 8b 6a 3a 3d e8 55 22 be 88 04 48 3d
       -0.18746875 0.045511764 -0.15853083 0.048832446
0002d0 3c c0 ae 3d 9b 94 21 3d e7 84 5b 3d 3c 8a fa 3b
       0.085327595 0.03944836 0.053593542 0.0076458734
0002e0 9c e0 81 3d ab f1 02 be 03 9d 0e bd a8 50 98 3b
       0.06341669 -0.12787502 -0.034817707 0.004648287
0002f0 29 bf 35 3c 07 09 51 3d 53 70 7d 3d 88 8f 75 3a
       0.011092939 0.051034 0.0618747 0.0009367396
000300 4a 6b 82 3d 0d c7 3b 3e 1f bc e8 3c 80 52 c3 ba
       0.0636812 0.1833765 0.028410016 -0.0014901906
000310 89 97 65 bd b6 14 4c bd f3 2f b1 3d 10 37 00 bd
       -0.05605272 -0.04982444 0.08651724 -0.03130251
000320 35 d2 1e 3d 15 41 8c bc 05 45 fa bd f3 c6 ba be
       0.038774688 -0.017120877 -0.12220196 -0.3647991
000330 df 2e 9b bd c0 4d 79 ba 4b 40 0d 3e a0 1a f7 3a
       -0.07577299 -0.0009510182 0.13794057 0.0018852539
000340 57 d2 03 3e ac 42 b6 3d 02 19 b4 3c 07 af b0 bd
       0.12873207 0.088994354 0.02198458 -0.08627134
000350 2d 80 57 bd 5c 24 3f bc dc 27 0d 3e 90 3a 71 bc
       -0.052612472 -0.011666384 0.13784736 -0.014723435
000360 cd 18 7b bb 67 22 61 3d be 78 3c bd 54 72 52 3b
       -0.0038314343 0.05496445 -0.046013586 0.0032111602
000370 0b 16 73 3d ed ea 17 3d bf 5a 4c 3d ff 23 1f 3d
       0.059347194 0.037089277 0.04989123 0.038852688
000380 7a 6a a7 3d 35 c9 fe bc ce 2a 49 3d e1 a8 19 ba
       0.08174606 -0.031101802 0.049113087 -0.0005861652
000390 08 5d e9 bc 26 d3 a5 ba bb f0 67 3b 4b 03 f8 bc
       -0.028486744 -0.0012651428 0.003539129 -0.030275008
0003a0 6b 3a b5 3a 23 09 12 3d 28 30 8c 39 e4 a7 1d 3c
       0.0013826614 0.035653245 0.0002673876 0.009622548
0003b0 e0 3f 4e 3b 9e 7b 10 bc 86 34 43 3d 9a d3 8e be
       0.0031471178 -0.008818535 0.047657512 -0.27895814
0003c0 c9 59 9b be 0b b3 14 3d 24 a4 32 3d 12 f6 fd 3c
       -0.30341938 0.03630356 0.043613568 0.031001125
0003d0 24 46 29 3e fc 59 df bd fa cf 3f 3e 48 01 a1 be
       0.16530663 -0.10905835 0.1873168 -0.3144629
0003e0 e9 0a ae be fd 67 18 3d 6f ba a4 3c 05 86 ca 3c
       -0.339927 0.037208546 0.02010843 0.024722109
0003f0 a6 ec db 3c 02 65 af 3c fc 63 19 3c 99 fd dd bb
       0.026846241 0.021410469 0.009362217 -0.006774616

bias f4 [6]
000000 96 57 a3 3d 9c 74 f9 3d 49 4b 6c 3e 9b ee f2 3c
       0.0797569 0.121804446 0.23075594 0.029654792
000010 9c e5 a2 3d 83 ea 9a 3d
       0.07953951 0.07564261

weight f4 [1, 6]
000000 fa b2 be bf 98 60 2a c0 cc 93 0d c0 80 d5 29 40
       -1.4898369 -2.6621456 -2.2121458 2.653656
000010 a4 7e b1 bf 00 32 96 bf
       -1.3866773 -1.1734009
