Data/Torch models/P2_20240716_L_channel4_fold4_best.pt (torch, 10967 bytes, 5 tensors)

weight f4 [18, 4]
000000 e4 a8 fc 3e 44 d0 54 3f 3b 0e 35 bf fe 27 7c bf
       0.49347603 0.8313029 -0.7072484 -0.98498523
000010 88 dc f3 bf 71 0f df 3e 6b 91 8a 3e 1e b8 4d bd
       -1.9051676 0.43566468 0.2706407 -0.050224416
000020 34 e6 57 be 50 3c b2 bd 5c fb d8 be 9a 51 ed be
       -0.2108391 -0.0870291 -0.42379272 -0.4635132
000030 ba 3a 16 bf 84 fa 73 3f ec 3b 41 3f d1 e2 44 bf
       -0.5868336 0.9530413 0.7548206 -0.76908594
000040 74 7d 09 be 6a 57 96 3e a8 2f 81 be c6 4e f3 be
       -0.13426763 0.29363567 -0.2523167 -0.47521037
000050 c2 24 26 3f 73 6b 97 bf de f9 3d be ab 46 56 3e
       0.6489984 -1.1829666 -0.18552348 0.20925395
000060 14 5e f6 be 86 88 f4 be f0 0e af 3d 90 70 8e be
       -0.4811865 -0.4776041 0.08547771 -0.27820253
000070 d4 e0 63 be 70 c6 4b be 08 64 cc 3d d0 18 d5 bd
       -0.22253734 -0.19899917 0.09980017 -0.10405123
000080 5a 0b b5 3e 38 46 18 be 48 b2 0e be 70 ad 87 3d
       0.35360223 -0.14870536 -0.13935196 0.066248775
000090 40 ed eb 3d ba ed e9 3d 6e 6c a5 3e 4e 7a 81 be
       0.11519861 0.11422296 0.32309288 -0.25288624
0000a0 48 f0 c1 be 60 9b 97 bd a0 23 0e 3e cc 34 bb 3e
       -0.37878633 -0.07402682 0.13880777 0.36563718
0000b0 44 c5 93 be 2c 92 a4 be 58 60 9c be 40 85 59 bc
       -0.2886144 -0.3214277 -0.30542254 -0.013276398
0000c0 ed 0a 6e be 1e 9e 42 bf c1 0b 37 3e eb 50 ef 3c
       -0.23246355 -0.7602252 0.17875578 0.02921339
0000d0 30 32 78 be 9c 82 c7 3e 8a 6e 8b 3e 04 c8 3c be
       -0.24237895 0.38966835 0.27232772 -0.18435675
0000e0 40 52 31 3f a4 28 8f 3d 89 0d 84 bf 02 05 0e be
       0.6926613 0.069901735 -1.0316631 -0.13869098
0000f0 0a 12 e8 bd 67 a0 c3 3f 1a 3b fa 3e b9 92 cb 3f
       -0.11331566 1.5283326 0.48873216 1.5904151
000100 5d bd 7d 3f 86 94 52 3f 8a fb ad 3f 26 e5 84 3c
       0.9911707 0.8225788 1.3592389 0.016222548
000110 e9 73 02 40 e4 36 04 40 b0 c2 46 3e 8d b5 42 3f
       2.0383246 2.0658503 0.19410205 0.76058275

bias f4 [18]
000000 cd d7 d2 bd bc 71 f7 3f 10 2a 84 bd a7 3a 16 3f
       -0.10295067 1.9331584 -0.06453335 0.58683246
000010 ae 12 f4 be 32 12 41 3e f8 f9 fd be 00 98 1b bd
       -0.476705 0.18854597 -0.49604774 -0.037986755
000020 5e a1 cb be 86 44 1b b8 fe 61 c8 be a4 e2 37 be
       -0.3977155 -3.7018697e-05 -0.39137262 -0.1795755
000030 59 43 87 3f be f5 df be 05 2d 35 3f f0 1f 94 be
       1.0567428 -0.43742174 0.7077182 -0.28930616
000040 00 70 01 b8 94 f8 76 3a
       -3.0860305e-05 0.00094211963

weight f4 [6, 324]
000000 36 37 84 be 27 3e 28 3e 86 60 35 bd bf 72 94 be
       -0.25823373 0.16429959 -0.044281505 -0.28993794
000010 82 5b 92 3c 03 b4 46 bd 77 e2 20 bd 74 7a 2a bd
       0.0178659 -0.048511516 -0.039278474 -0.041620687
000020 be 4c 49 bd 03 38 ad bd f4 9f 3a 3c 39 41 10 bd
       -0.049145453 -0.08457949 0.011390675 -0.03521845
000030 55 a9 61 3e b2 6c b3 3c bc bb 3f bd 80 06 ab 3e
       0.22037251 0.021902416 -0.046809897 0.33403397
000040 80 5d 70 be 9f 5d ab be d9 e2 91 bc 13 a8 1f 3e
       -0.23473167 -0.33469865 -0.017808365 0.15591459
000050 c8 93 d7 3b a7 72 ba 3c 5f 7d 09 3d 4e 34 b3 3c
       0.006578896 0.022759749 0.03356683 0.021875527
000060 0e a7 89 bc 64 0f 9c bc c6 24 41 bd 6a 3a 9e bd
       -0.01680329 -0.019050308 -0.04715421 -0.07725985
000070 06 94 a3 3c c0 26 c3 bc d5 e5 70 3d 65 54 4f 3d
       0.019968044 -0.023822188 0.058812935 0.050617594
000080 8d 49 bb 3c 33 46 81 3e f7 95 df bd c0 fc b2 3d
       0.02286222 0.2524887 -0.109172754 0.087396145
000090 15 54 98 bd 99 8b 8e bd e4 a5 68 3c 2d e6 9a be
       -0.074379124 -0.0696022 0.014199708 -0.30253735
0000a0 a0 3a b3 ba 1b ce 3d 3d a4 23 a8 bc 79 6d c9 bc
       -0.0013674088 0.046339136 -0.020524807 -0.024588333
0000b0 10 7f 82 3b 85 a9 1e bd 92 e5 62 bd c4 6f 28 bd
       0.003982432 -0.038735885 -0.055394717 -0.041122213
0000c0 d2 82 05 3e 00 62 b4 39 54 4c 17 3e d5 e4 39 3c
       0.13038185 0.0003440529 0.1477521 0.011346062
0000d0 e8 52 05 be b6 b1 04 3d e4 5a 74 bc 8c bf 67 3e
       -0.13019907 0.03239604 -0.014914248 0.22631663
0000e0 f0 8e 7f bc 2a 49 82 3e 00 f2 5d 39 5d 59 b1 bd
       -0.015598044 0.25446445 0.00021166354 -0.08659623
0000f0 3c b8 60 3c bb f3 34 3d 44 e1 20 3c 71 c9 0e 3d
       0.0137158 0.044177752 0.0098193325 0.03486008
000100 85 5c 3c 3d 80 77 f9 bc 0d bd 93 bd 76 a4 d1 3c
       0.04598667 -0.03045249 -0.07213793 0.025591116
000110 1a ae 83 3d c7 0c 0a 3e 19 82 43 3e 73 a1 ba 3e
       0.064296916 0.13481437 0.19092597 0.364513
000120 cf 15 98 3d 1a 5e 4e 3e 19 d8 1e 3d c2 c0 41 3e
       0.07426035 0.20153084 0.038780306 0.18921188
000130 00 7b b6 bb 52 b3 e4 bd 62 7b d5 3c c7 f3 52 bd
       -0.005568862 -0.11167015 0.02605981 -0.051502015
000140 3e 3c dd 3c 39 c2 4a 3d 00 7a f3 bc be 02 15 bd
       0.027006265 0.04950163 -0.02972126 -0.03637957
000150 57 1a 6e bd 0d 81 58 3d 23 04 f8 3c f5 9e a1 3e
       -0.05813059 0.052857447 0.03027541 0.31566587
000160 8c 34 50 3e 28 2e e9 3e 37 9a a9 be 85 f9 bd 3e
       0.20332545 0.45543027 -0.3312547 0.3710443
000170 5c 3b 14 bd 11 0e db 3d 28 13 93 bc 27 3b 85 be
       -0.036189422 0.10696042 -0.01795347 -0.26021692
000180 7e d4 0f bd e6 2c cd 3c 30 ab 2a bc f4 03 fd 3b
       -0.035114758 0.025045823 -0.010416791 0.0077214185
000190 ac 80 16 3c 57 7d 41 bd 1b 53 14 3c f0 c9 e0 3b
       0.009185951 -0.047238674 0.009053017 0.0068600103
0001a0 79 ef 38 be 74 c1 42 3e 70 7b 4d 3d bb de 5e 3c
       -0.18060102 0.19019109 0.050166547 0.013602908
0001b0 9a c1 10 be 34 64 d6 3d 8c 0f 19 3c a3 04 9b bc
       -0.14136353 0.10468331 0.009342086 -0.01892311
0001c0 7a 59 87 3c 5f d3 a9 3d 77 e7 01 3d 24 e2 49 3c
       0.016522158 0.08292269 0.031714883 0.0123219825
0001d0 20 16 3f 3b 56 a6 7f bc 64 97 24 bd b6 53 21 bd
       0.0029157475 -0.015603622 -0.04018344 -0.039386474
0001e0 1a 81 dd 3d 64 2b 35 3c 65 74 4a 3d 07 45 d5 3d
       0.1081564 0.011057708 0.04942741 0.104135565
0001f0 42 13 c8 3d e3 0f 47 3e 17 cf f4 bd 73 a5 19 bc
       0.09769298 0.19439654 -0.11953562 -0.009377825
000200 1d af 0a 3d 74 fa 11 3e e9 d3 32 3d 78 ea 01 be
       0.033858407 0.14255697 0.043659125 -0.12687099
000210 62 6b 37 bd be 31 52 bd 30 20 71 bc 8e 38 2c 3d
       -0.044780143 -0.05131697 -0.014717147 0.042046122
000220 00 92 87 ba 9e 85 56 bd 2d ec 51 bd 89 88 50 3d
       -0.0010343194 -0.05237352 -0.051250625 0.05091146
000230 8c 2c ab bd bd 24 9d 3e d7 a6 ec 3e 72 0a 1f 3f
       -0.08358106 0.30692092 0.4622104 0.62125313
000240 1a 03 fb bc a6 b6 87 be 56 45 bc 3c ee f8 b9 be
       -0.030641127 -0.26506537 0.02298228 -0.3632273
000250 45 6b 44 bd 5c b5 6c 3d ac 61 73 bc 34 b7 05 3c
       -0.047953863 0.057790145 -0.01485483 0.008161355
000260 02 da 58 bd 84 b2 bd bd 9d 3c 61 bd b6 65 9b 3c
       -0.052942283 -0.09262565 -0.054989446 0.018969398
000270 7e 10 54 3e d4 8f 32 3c cd ce 74 3e 47 6c 16 be
       0.20709416 0.010898549 0.23907013 -0.14689742
000280 b5 e4 5d be 52 52 ee bd 02 8d 28 3e 1e ab 06 be
       -0.21669276 -0.11636795 0.1646004 -0.13151214
000290 e5 58 51 3d d5 3b b4 bd 6f bf 03 3d d5 df 97 3d
       0.051110167 -0.088004746 0.032164987 0.074157394
0002a0 b1 7a 17 3d 37 97 2f 3d 2d 94 23 3d b1 4d 6b bc
       0.036982242 0.04286882 0.039936233 -0.014361785
0002b0 01 cb 5d 3d e0 66 b3 ba d7 90 63 bd 05 b8 2d 3d
       0.054148678 -0.0013687275 -0.055558052 0.042411823
0002c0 95 ec 94 3e 90 24 63 bd f6 4e f1 bb de 89 86 3e
       0.29086748 -0.05545479 -0.007364149 0.2627706
0002d0 f3 bd c7 3c 82 be e3 39 13 d7 06 3d 58 8f e9 3d
       0.024382567 0.00043438753 0.032919955 0.11404294
0002e0 c1 03 53 3d 6f 9b 49 bc 4b db f1 bc e0 eb 8c bc
       0.051517252 -0.012305125 -0.029523512 -0.017202318
0002f0 f6 47 c5 3c d4 89 d4 3d 96 57 30 bd 56 60 12 bd
       0.024082165 0.10377851 -0.04305228 -0.035736404
000300 b2 21 a9 3d 40 f9 27 bd cd 94 ce bb 73 19 bf 3d
       0.0825838 -0.041009188 -0.0063043595 0.09331026
000310 51 0c e5 3e 45 a4 bf 3e 1a 46 1f be 21 fc 3b 3e
       0.4473596 0.37430015 -0.15554085 0.18357898
000320 8c 00 45 3c 32 80 a0 bd 20 cb b5 bb 7e 14 a4 3d
       0.012024056 -0.07836951 -0.005547896 0.08011721
000330 2c 03 4c bd ad 6e 2d 3d 1c 23 3b bc e4 4e e6 bc
       -0.049807712 0.042341877 -0.011421945 -0.02811379
000340 c4 e3 13 3c ca 9e 89 bc 72 78 86 3e 61 67 19 3d
       0.0090264715 -0.01679935 0.26263767 0.037452105
000350 0e ca 0e 3d f6 de bc be 29 36 9d be 6a 2a 3e bf
       0.034860663 -0.36888856 -0.30705383 -0.7428347
000360 c6 2f c3 3c a4 f0 16 3e ec 0d 54 3c 8f 51 4b 3b
       0.023826491 0.14740235 0.012942772 0.0031023955
000370 86 7c b8 3c c4 5c 42 be 71 50 41 3d 86 9b 24 bd
       0.022520315 -0.189807 0.047195856 -0.04018738
000380 5b 90 46 bd e7 71 0a 3d eb 15 55 bd 67 5c 08 bd
       -0.04847751 0.033800032 -0.052022856 -0.033291247
000390 22 0e a9 3d d6 3d 98 bc 71 ee 5a 3d 16 61 22 be
       0.08254649 -0.018584173 0.05345005 -0.15857348
0003a0 d8 ae 97 3d 12 f7 ab 3c e8 c1 1d 3e f5 9c 4d bd
       0.07406396 0.020991836 0.15406 -0.050198514
0003b0 9d ff d7 bc 21 d5 ba bc e4 51 bf bc 35 c6 37 bd
       -0.026367003 -0.022806706 -0.023354478 -0.04486676
0003c0 9b b7 4d 3d ee c2 34 bd 33 80 24 3d 6d 59 8c 3c
       0.050223928 -0.044131212 0.040161323 0.017132485
0003d0 92 40 98 3c a5 84 58 bd 0d a2 48 bd ec 40 54 bc
       0.018585477 -0.052860875 -0.04898267 -0.012954932
0003e0 33 7a de 3d 22 b6 a1 bd a8 ec 1f bd ba b0 ff 3b
       0.108631514 -0.07896067 -0.039044052 0.00780305
0003f0 d2 dc ea 3d 47 bb a1 3e c6 91 31 bd db 3f 0a 3e
       0.114678994 0.31588194 -0.04335191 0.13500921

bias f4 [6]
000000 da 57 e7 3d 18 1d 5d bd 4a 84 9a 3e d4 17 80 3c
       0.11296053 -0.053982824 0.30179054 0.015636362
000010 c9 cc 84 bd 15 25 37 3e
       -0.06484372 0.1788524

weight f4 [1, 6]
000000 7b 24 1a c0 42 aa bb 3f 93 02 56 c0 17 a4 1f bf
       -2.4084766 1.4661334 -3.343907 -0.62359756
000010 b9 b5 44 40 55 7b 18 c0
       3.0735915 -2.3825276
